MsPacman_A2C_DNN_.pth (torch, 57189 bytes, 10 tensors)

net.0.weight f4 [128, 16]
0.23203924 0.06873581 -0.32190922 -0.19854313 -0.15136176 0.121617794 -0.35377386 -0.08582243
-0.2438503 0.14496028 0.50151724 -0.12004621 -0.009016037 0.04980194 0.07633647 0.0497832
-0.14581114 -0.047686137 0.29211742 -0.32017076 -0.27722567 -0.051458806 -0.42527518 0.35614735
-0.2639147 -0.1345719 -0.2755831 -0.3004138 -0.08697316 0.29654977 -0.23061338 -0.052461952
-0.14371729 -0.24920055 -0.1375284 0.09341575 0.02360879 -0.0057098567 0.07069917 0.38246778
-0.37105143 0.3463027 -0.1366065 -0.27365133 -0.11817613 -0.20117797 -0.1410737 -0.23121148
-0.24186209 -0.34896022 -0.055407885 -0.18688795 -0.108633 0.122855246 -0.14285576 0.19008711
-0.119130015 0.21895622 0.15237677 -0.120453246 -0.1326842 -0.26647124 0.23183557 -0.14604971
0.118210316 0.028031424 0.2596639 0.2731722 -0.35675427 -0.085479856 -0.055624653 -0.2787345
0.15607964 0.26299763 0.21831326 0.064762376 0.19469416 0.3187503 -0.23335207 -0.026625276
-0.12857032 -0.11160382 0.22143449 -0.2655059 0.048678137 -0.1905323 -0.050273683 0.43285817
-0.26637504 -0.1430191 -0.04990401 -0.10788062 -0.21514812 -0.33524668 0.082668215 0.05608511
0.0049505234 0.16442867 0.1752151 0.090736575 -0.1469702 -0.120946586 -0.0014073664 -0.02660945
-0.028934281 0.057069685 -0.41014156 -0.056849904 -0.038928926 0.013387049 -0.0911302 -0.013372034
-0.14404246 -0.017718028 -0.023519896 -0.036727354 -0.1532488 0.16797027 -0.0980722 -0.010298917
-0.14781544 0.1590403 0.063352436 0.19329941 0.13039702 -0.3165535 0.03359434 0.18939704
-0.24686882 0.15723433 0.11223351 0.05557561 -0.09508096 0.079687625 -0.27108184 -0.0035015827
-0.26342368 0.41227823 0.25385523 -0.17838165 0.23258209 -0.1289517 0.15770924 0.23789981
-0.1545273 0.15850264 0.294021 0.19456753 -0.003979498 0.040564746 -0.15747163 0.15072058
-0.056235958 -0.16625789 -0.481134 0.20319755 -0.14261982 0.31596884 -0.1794317 -0.11393595
-0.11957595 -0.2724124 -0.27578303 0.09465068 -0.02769054 -0.23586178 0.041322537 0.020028306
0.12341395 0.2980977 0.0036762378 -0.0956752 0.024494797 -0.33939558 0.19961175 0.08516383
-0.02966863 -0.025903711 0.27181083 -0.10391484 -0.34231424 -0.11720869 0.06604737 -0.07922058
-0.42158288 0.14455135 0.4010714 0.01679211 -0.20852947 -0.30464968 0.059509784 0.07977873
-0.16826376 0.11484216 -0.08496022 0.21715263 0.07002763 0.101851225 -0.11278109 -0.04249778
-0.36073503 -0.030315598 0.5214653 -0.05556453 -0.17150316 0.18246819 0.012679428 0.18817604
-0.23315752 -0.14867347 0.16053912 0.041770548 -0.27747303 0.0058716536 -0.19121078 -0.17179425
-0.42249274 0.2285583 -0.25794542 -0.29927114 -0.19751969 -0.05188927 -0.10820016 0.02077213
0.123592526 -0.14416985 0.2903528 -0.20175892 0.1296437 0.1459927 -0.1792864 -0.22543345
-0.10172666 0.107689455 -0.43417376 -0.15664297 -0.09248346 0.013117583 0.07987383 -0.24095565
0.21930555 0.29629272 -0.039137088 0.34034348 0.26648876 0.059432924 0.22036162 -0.027165106
0.08155832 0.053455148 -0.02971892 0.20476869 0.12829942 0.06548846 -0.1445491 0.1883815
00000000: b29b 6d3e 5cc5 8c3d 49d1 a4be e44e 4bbe
00000010: 94fe 1abe c012 f93d d921 b5be acc3 afbd
00000020: e5b3 79be 7870 143e 6f63 003f cada f5bd
00000030: 00b8 13bc 1efd 4b3d 4c56 9c3d 78e9 4b3d
00000040: 844f 15be 8a52 43bd 6a90 953e 6ced a3be
00000050: 86f0 8dbe 78c6 52bd abbd d9be f258 b63e
00000060: d41f 87be 37cd 09be 3a19 8dbe d6cf 99be
00000070: fc1e b2bd 5fd5 973e ea25 6cbe 58e2 56bd
00000080: a02a 13be 6e2e 7fbe 3fd4 0cbe c250 bf3d
00000090: 3967 c13c c019 bbbb baca 903d d1d2 c33e
000000a0: 74fa bdbe 964e b13e 93e2 0bbe 071c 8cbe
000000b0: 5406 f2bd 9901 4ebe a075 10be b4c2 6cbe
000000c0: b2aa 77be eaaa b2be 61f3 62bd 8e5f 3fbe
000000d0: fa7a debd 889b fb3d c848 12be 32a6 423e
000000e0: 70fa f3bd 0f36 603e a808 1c3e 31b0 f6bd
000000f0: 5ede 07be eb6e 88be 4e66 6d3e 0e8e 15be
00000100: 4018 f23d 28a2 e53c abf2 843e 3add 8b3e
00000110: 7fa8 b6be 1010 afbd add6 63bd 4ab6 8ebe
00000120: 57d3 1f3e a0a7 863e 838d 5f3e 23a2 843d
00000130: e85d 473e 3d33 a33e d8f3 6ebe 401d dabc
00000140: f0a7 03be 8b90 e4bd b9bf 623e 64f0 87be
00000150: ba62 473d e61a 43be c7eb 4dbd 969f dd3e
00000160: 4f62 88be 9973 12be 2668 4cbd 84f0 dcbd
00000170: ca4f 5cbe 74a5 abbe f44d a93d 80b9 653d
00000180: 0038 a23b fd5f 283e 966b 333e 19d4 b93d
00000190: 5b7f 16be d8b2 f7bd 6177 b8ba 10fc d9bc
000001a0: 9607 edbc e7c1 693d 13fe d1be 72db 68bd
000001b0: f073 1fbd 5a55 5b3c 78a2 babd 6016 5bbc
000001c0: de7f 13be 6625 91bc ccac c0bc 6c6f 16bd
000001d0: 41ed 1cbe 6600 2c3e 14da c8bd cabc 28bc
000001e0: ee5c 17be 76db 223e ecbe 813d 48f0 453e
000001f0: cc86 053e 4d13 a2be 389a 093d 4cf1 413e
00000200: 2ecb 7cbe 0902 213e afda e53d 40a3 633d
00000210: ceb9 c2bd 4433 a33d 3dcb 8abe cf7a 65bb
00000220: 78df 86be 2216 d33e 50f9 813e aea9 36be
00000230: 002a 6e3e ea0b 04be 887e 213e 029c 733e
00000240: 683c 1ebe 844e 223e ec89 963e b63c 473e
00000250: 7366 82bb 3827 263d 3e40 21be 7f56 1a3e
00000260: ad57 66bd 823f 2abe 3257 f6be 0513 503e
00000270: ee0a 12be abc6 a13e f2bc 37be 4057 e9bd
00000280: 3ce4 f4bd a379 8bbe 6f33 8dbe 37d8 c13d
00000290: 45d7 e2bc c085 71be d241 293d 6712 a43c
000002a0: 74c0 fc3d 43a0 983e 09ed 703b 5cf1 c3bd
000002b0: 50a9 c83c 42c5 adbe 0667 4c3e 606a ae3d
000002c0: a00b f3bc 0534 d4bc ca2a 8b3e 4ed1 d4bd
000002d0: d043 afbe 1c0b f0bd d843 873d 663e a2bd
000002e0: b6d9 d7be 4505 143e 3b59 cd3e 9b8f 893c
000002f0: c088 55be 0bfb 9bbe 88c0 733d 0863 a33d
00000300: 564d 2cbe 5e32 eb3d a0ff adbd 425d 5e3e
00000310: a56a 8f3d 6097 d03d c6f9 e6bd 2712 2ebd
00000320: 43b2 b8be 6b58 f8bc c07e 053f a297 63bd
00000330: 869e 2fbe f1d8 3a3e 60bd 4f3c 38b1 403e
00000340: d8c0 6ebe dc3d 18be 5e64 243e 9817 2b3d
00000350: f210 8ebe 0067 c03b c2cc 43be d5ea 2fbe
00000360: f850 d8be 300b 6a3e 6c11 84be 113a 99be
00000370: 9a42 4abe d889 54bd 0c98 ddbd 502a aa3c
00000380: 141e fd3d 43a1 13be 1fa9 943e e499 4ebe
00000390: 51c1 043e 1c7f 153e db96 37be 07d8 66be
000003a0: 1156 d0bd 4a8c dc3d 064c debe 0467 20be
000003b0: f867 bdbd 21eb 563c e494 a33d 14bd 76be
000003c0: a291 603e aeb3 973e 364e 20bd 8041 ae3e
000003d0: 3771 883e f06f 733d 7aa6 613e 5b89 debc
000003e0: 0c08 a73d c9f3 5a3d 1875 f3bc e2ae 513e
000003f0: ec60 033e d01e 863d ae04 14be 14e7 403e

net.0.bias f4 [128]
0.17666295 0.05136316 0.06387434 0.33230323 0.0034650706 0.32816872 -0.22721493 0.08418901
-0.004903728 0.30585423 -0.14150293 0.4727419 0.10197421 0.034125876 -0.079202324 0.09205024
0.08491539 0.13132335 0.2656273 0.35221624 0.2999787 0.22708854 0.16741976 0.27108666
0.2880882 -0.024880515 -0.27042288 -0.6562278 0.3188968 -0.18851332 0.40409592 -0.14379273
0.0008524967 0.26097322 0.12188555 0.196914 0.15126601 0.251885 0.10670207 -0.291862
0.12611087 0.18076158 0.07330415 -0.031233283 -0.11846078 0.44327152 -0.078021646 0.18126082
0.040040303 -0.26032066 0.22443758 -0.06334075 0.41833302 0.34081906 0.018296264 0.06856589
-0.13235444 0.3364184 0.28843367 -0.21995468 -0.16836289 -0.11463967 -0.0035794692 0.43184236
0.24774778 0.09106952 -0.07106502 0.37046054 -0.06374632 0.28767297 0.1158193 0.15717946
0.25108138 0.37164643 9.410013e-05 0.24224758 0.32259637 0.28927544 -0.17684323 0.26988617
0.24734503 0.09670161 -0.13362096 0.40408722 -0.35204378 -0.3417234 0.23406869 -0.272351
0.13884819 0.31737548 0.34834793 0.12856382 0.24195491 -0.04514706 -0.069220155 0.28281102
0.012664298 -0.094992585 0.1146577 -0.28243443 -0.21165134 0.2729636 0.4333254 0.08389899
0.42403284 -0.21748605 -0.17842656 -0.3151957 -0.3098119 0.056246415 -0.020786475 0.1978489
0.014359108 -0.15014485 -0.075605 -0.2356548 0.07211979 0.2608604 -0.039248742 0.28364882
0.04413931 0.36389226 0.12363428 0.10440369 -0.012126857 -0.21051235 0.0673798 -0.11371158
00000000: 22e7 343e 2d62 523d 8dd0 823d a623 aa3e
00000010: 3d16 633b bb05 a83e 08ab 68be 4a6b ac3d
00000020: 74af a0bb ed98 9c3e 25e6 10be 3a0b f23e
00000030: dbd7 d03d 93c7 0b3d d434 a2bd d684 bc3d
00000040: 1fe8 ad3d a179 063e 4d00 883e b055 b43e
00000050: cf96 993e e689 683e 1670 2b3e dfcb 8a3e
00000060: 4c80 933e 39d2 cbbc de74 8abe 8cfe 27bf
00000070: 7146 a33e a309 41be a9e5 ce3e 673e 13be
00000080: 167a 5f3a 489e 853e 229f f93d d3a3 493e
00000090: 7ae5 1a3e 12f7 803e 9d86 da3d f06e 95be
000000a0: 3523 013e 9019 393e 7c20 963d f1dc ffbc
000000b0: 919b f2bd 7cf4 e23e d0c9 9fbd 709c 393e
000000c0: 4d01 243d c048 85be f7d2 653e ccb8 81bd
000000d0: bf2f d63e d67f ae3e 0ce2 953c 466c 8c3d
000000e0: ec87 07be 083f ac3e 94ad 933e cd3b 61be
000000f0: 5267 2cbe 34c8 eabd 8795 6abb 711a dd3e
00000100: 98b1 7d3e a882 ba3d 8a8a 91bd 01ad bd3e
00000110: 6e8d 82bd df49 933e ab32 ed3d a7f3 203e
00000120: bd8d 803e 7148 be3e 9f57 c538 c00f 783e
00000130: 5a2b a53e e91b 943e 6416 35be 852e 8a3e
00000140: 0448 7d3e 7e0b c63d efd3 08be 85e4 ce3e
00000150: 153f b4be 5ff6 aebe b4af 6f3e 9771 8bbe
00000160: 382e 0e3e 0a7f a23e a95a b23e 3ca6 033e
00000170: 07c3 773e 20ec 38bd 4cc3 8dbd 9bcc 903e
00000180: ea7d 4f3c 798b c2bd a8d1 ea3d 3f9b 90be
00000190: 21bb 58be e3c1 8b3e d4dc dd3e 3cd3 ab3d
000001a0: d51a d93e aab4 5ebe 74b5 36be 5561 a1be
000001b0: aa9f 9ebe a462 663d 6648 aabc e798 4a3e
000001c0: 7742 6b3c 92bf 19be cbd6 9abd 7e4f 71be
000001d0: 8ab3 933d 7f8f 853e 4ac3 20bd 6b3a 913e
000001e0: 6ccb 343d 1650 ba3e f833 fd3d 9ad1 d53d
000001f0: baaf 46bc 8d90 57be 6cfe 893d 9ee1 e8bd

net.2.weight f4 [64, 128]
-0.058881853 -0.08911465 0.070887506 -0.057589494 0.027632609 0.038253173 -0.0013083757 -0.08938296
-0.027246593 0.04996913 -0.03368944 -0.095005006 0.04659674 0.06938357 0.0052542686 -0.009679338
-0.090080835 0.009925409 0.0127742365 0.056441903 -0.056379605 0.0743414 -0.02713345 -0.090982795
-0.02475477 0.022829343 -0.04982126 -0.067419015 -0.024067082 0.024218699 0.0045073912 0.074758135
-0.1019215 -0.018986227 0.044612527 -0.050012667 -0.06567998 -0.0021353548 0.01323246 0.018985935
-0.09057415 0.0241066 -0.06871392 0.04373555 0.036679454 0.043509625 0.05593184 -0.0034720802
-0.094934404 -0.06433798 0.06757418 0.011647024 -0.006051 -0.09074927 -0.080922924 -0.045134746
-0.024812795 -0.054987118 -0.03389489 -0.022872075 0.04535183 -0.002441746 0.010108789 0.066455476
0.0027200566 -0.029913846 -0.044462465 -0.09735414 0.02877701 -0.045935407 -0.092442796 -0.06505958
-0.030277131 -0.045388304 0.027141584 0.005928108 -0.090973735 -0.09945367 0.007701899 -0.05439629
-0.05445999 -0.09438843 -0.06668779 -0.094642684 0.06161079 0.031227233 -0.069453694 -0.069191985
0.031242363 0.008289189 0.031679735 -0.021615017 -0.057752285 -0.068626136 0.06451094 -0.07934949
0.05644719 0.072137974 -0.0818262 -0.048867736 0.04524855 0.040339474 0.063710615 0.04766308
0.068722025 -0.09775571 -0.09409609 -0.016621578 0.023881055 0.003991186 0.055055212 0.061268553
0.045684963 0.0029650147 0.0028256115 -0.05111381 -0.06956341 -0.0059541734 -0.046687774 -0.06636054
-0.095067896 0.006698515 -0.024808172 -0.02237311 0.046566352 0.06362827 -0.06571547 0.06645301
0.23252405 -0.056892835 -0.2479724 -0.04604199 0.11603055 -0.05613452 0.3150263 0.090246774
0.035634536 0.05654428 -0.22632799 0.14169815 0.21400571 0.06290935 0.22886527 0.06772762
-1.8982673e-05 -0.097770035 -0.149683 -0.0527095 -0.031597603 0.13396779 -0.039652444 -0.21240643
0.029879952 -0.0741835 0.5891979 -0.29607248 -0.14217517 0.079591416 -0.04783914 -0.026856508
0.09536482 -0.028502861 -0.028435567 -0.32828942 -0.006233395 0.12516448 0.09922782 0.47362712
0.036568876 0.08435818 0.009077947 0.31674606 -0.1719499 -0.06436254 0.028289754 0.021806393
0.00544308 0.0760928 0.012163504 0.08163075 0.18390563 -0.00912059 -0.19206741 -0.009541164
-0.0011359015 0.27217832 0.03869255 -0.22713023 -0.06128785 -0.03173656 -0.0007789866 0.14444631
0.019432262 0.060069755 -0.078167275 0.008958315 -0.16777904 -0.09514269 0.013135127 0.061389174
0.091245815 0.021328289 0.024192084 0.0229564 -0.113551795 0.03782707 0.7450918 0.024629105
-0.029201433 0.16181843 -0.10980659 0.13612546 0.052359097 -0.29208568 0.035496246 0.1210845
0.056424372 -0.029046716 -0.13230108 -0.36024997 0.0830359 0.04201828 -0.018105727 -0.014335759
-0.100919574 -0.07372616 0.17728133 0.17892711 -0.070544295 0.05081247 0.07511826 0.05960289
-0.09274468 0.0022239422 0.07570803 -0.19563246 -0.088883474 -0.011433974 0.6997994 0.06174012
-0.14610921 0.03294116 0.2095308 0.023037445 -0.39995325 0.19760135 0.040230457 -0.0044537312
0.05864172 0.08200865 0.035078324 0.18212397 -0.010868974 -0.045626786 -0.036927998 0.052898213
00000000: 192e 71bd be81 b6bd 782d 913d f6e2 6bbd
00000010: c85d e23c 5caf 1c3d ce7d abba 6a0e b7bd
00000020: 3f34 dfbc 6eac 4c3d f0fd 09bd fc91 c2bd
00000030: 39dc 3e3d f918 8e3d 002c ac3b 1696 1ebc
00000040: 4d7c b8bd 2f9e 223c 084b 513c a02f 673d
00000050: 4dee 66bd 4e40 983d f846 debc 3055 babd
00000060: 84ca cabc 9a04 bb3c 6111 4cbd fb12 8abd
00000070: 5428 c5bc 4b66 c63c bdb2 933b cb1a 993d
00000080: 38bc d0bd 0189 9bbc a0bb 363d 15da 4cbd
00000090: 3a83 86bd 4ff1 0bbb f6cc 583c 6488 9b3c
000000a0: f17e b9bd 347b c53c e2b9 8cbd 0c24 333d
000000b0: 323d 163d 2637 323d c918 653d d78b 63bb
000000c0: f86c c2bd a1c3 83bd 5564 8a3d 29d3 3e3c
000000d0: 7847 c6bb c1da b9bd ebba a5bd 36df 38bd
000000e0: 3444 cbbc 2c3a 61bd 5ed5 0abd 385e bbbc
000000f0: d7c2 393d b305 20bb 569f 253c cf19 883d
00000100: fa42 323b e20d f5bc 461e 36bd 9b61 c7bd
00000110: c4bd eb3c c426 3cbd a652 bdbd f53d 85bd
00000120: bf07 f8bc 16e9 39bd 0758 de3c 9340 c23b
00000130: 7050 babd 5eae cbbd 3660 fc3b a5ce 5ebd
00000140: 7011 5fbd b94e c1bd 9c93 88bd 06d4 c1bd
00000150: 995b 7c3d 41d0 ff3c bd3d 8ebd 87b4 8dbd
00000160: fcef ff3c 61cf 073c 9cc2 013d fa11 b1bc
00000170: a98d 6cbd dc8b 8cbd 501e 843d fc81 a2bd
00000180: 2b35 673d 13bd 933d 7f94 a7bd 8929 48bd
00000190: 8b56 393d 013b 253d b67a 823d 5d3a 433d
000001a0: 22be 8c3d 2534 c8bd 73b5 c0bd fa29 88bc
000001b0: 34a2 c33c 7fc8 823b 9381 613d bcf4 7a3d
000001c0: 2820 3b3d b150 423b e52d 393b b75c 51bd
000001d0: 4377 8ebd 3a1b c3bb ae3b 3fbd 09e8 87bd
000001e0: f5b2 c2bd 377f db3b 823a cbbc d047 b7bc
000001f0: 5cbc 3e3d 8a4f 823d d595 86bd 8418 883d
00000200: c91a 6e3e 7608 69bd 7aec 7dbe 8796 3cbd
00000210: 6da1 ed3d 4fed 65bd 214b a13e 4dd3 b83d
00000220: 85f5 113d fa9a 673d 86c2 67be 5219 113e
00000230: 5024 5b3e 9ed6 803d a85b 6a3e c7b4 8a3d
00000240: fb3c 9fb7 a83b c8bd 8046 19be ebe5 57bd
00000250: 7d6c 01bd da2e 093e 9a6a 22bd 1281 59be
00000260: cdc6 f43c 85ed 97bd acd5 163f d096 97be
00000270: 5e96 11be d300 a33d f9f2 43bd 2e02 dcbc
00000280: a14e c33d d57e e9bc b5f1 e8bc 8d15 a8be
00000290: 8241 ccbb 1e2b 003e f537 cb3d 417f f23e
000002a0: 3fc9 153d fbc3 ac3d abbb 143c 8a2c a23e
000002b0: a213 30be 82d0 83bd eabf e73c 52a3 b23c
000002c0: dd5b b23b 8bd6 9b3d 6f49 473c 062e a73d
000002d0: c251 3c3e 876e 15bc 52ad 44be 8b52 1cbc
000002e0: 88e2 94ba f55a 8b3e 147c 1e3d d494 68be
000002f0: f808 7bbd 32fe 01bd e834 4cba bce9 133e
00000300: 6830 9f3c b40b 763d 2a16 a0bd e5c5 123c
00000310: 45ce 2bbe 2cda c2bd b734 573c 3773 7b3d
00000320: 16df ba3d aab8 ae3c 7a2e c63c 0f0f bc3c
00000330: d88d e8bd 8ff0 1a3d 56be 3e3f fac2 c93c
00000340: d837 efbc bbb3 253e 47e2 e0bd 7964 0b3e
00000350: 7e76 563d 418c 95be 8364 113d 26fb f73d
00000360: 3e1d 673d 61f3 edbc ef79 07be af72 b8be
00000370: ba0e aa3d 5c1b 2c3d 7652 94bc 88e0 6abc
00000380: ecae cebd befd 96bd 3d89 353e ab38 373e
00000390: 8779 90bd bd20 503d 9ad7 993d 2922 743d
000003a0: ecf0 bdbd 8fbf 113b d00c 9b3d e053 48be
000003b0: 8a08 b6bd 9055 3bbc 0e26 333f 35e3 7c3d
000003c0: a79d 15be 4fed 063d 3e8f 563e 06b9 bc3c
000003d0: acc6 ccbe 0258 4a3e b1c8 243d 9bf0 91bb
000003e0: 4d32 703d 27f4 a73d 4aae 0f3d b57e 3a3e
000003f0: c813 32bc 27e3 3abd d041 17bd ccab 583d

net.2.bias f4 [64]
-0.00020357444 -0.021728478 -0.14338666 0.08356377 0.03447809 0.18073624 0.07577651 0.12990154
0.21520019 -0.01658727 -0.05313778 -0.020878404 0.02955126 0.0662679 0.11837445 0.16417538
0.21866313 0.045007136 0.14253946 0.043365188 0.021520957 0.027953776 -0.017382422 0.084519975
0.0068597826 0.27677202 -0.13770445 0.07263316 0.060367066 0.20211363 0.02315482 0.010050154
0.1911275 0.08665344 0.12695155 0.10000563 -0.042356014 -0.013419281 0.06612232 -0.16031665
0.057932027 0.21313597 0.23979418 0.050939497 -0.120309055 0.0021442007 0.047274534 -0.052774474
0.1978825 0.06082881 0.08253039 0.092601836 0.2400859 0.08234323 0.18338785 -0.04948981
-0.038775872 -0.03966738 0.018719641 0.14339799 0.2822477 -0.06941138 0.12045472 0.14006433
00000000: 9976 55b9 ecff b1bc f4d3 12be 7b23 ab3d
00000010: e638 0d3d ec12 393e b730 9b3d e904 053e
00000020: 705d 5c3e 07e2 87bc 00a7 59bd 3009 abbc
00000030: 7c15 f23c 77b7 873d 4e6e f23d 971d 283e
00000040: 3ae9 5f3e 6759 383d ddf5 113e b29f 313d
00000050: b84c b03c 51ff e43c 9565 8ebc cf18 ad3d
00000060: 07c8 e03b 10b5 8d3e 6502 0dbe b2c0 943d
00000070: 7543 773d e0f6 4e3e 2daf bd3c 67a9 243c
00000080: edb6 433e 5c77 b13d 96ff 013e c0cf cc3d
00000090: 807d 2dbd 8bdc 5bbc 246b 873d 0c2a 24be
000000a0: 224a 6d3d 5140 5a3e 9b8c 753e efa5 503d
000000b0: 9864 f6bd b885 0c3b f1a2 413d 0c2a 58bd
000000c0: b6a1 4a3e a127 793d b105 a93d 08a6 bd3d
000000d0: 14d9 753e 91a3 a83d 06ca 3b3e d4b5 4abd
000000e0: 73d3 1ebd 437a 22bd ef59 993c ecd6 123e
000000f0: c582 903e 8e27 8ebd f7b0 f63d 066d 0f3e

net.4.weight f4 [32, 64]
-0.049793195 0.057448093 -0.7248917 0.02199352 -0.20145987 0.1059836 0.2135021 0.15292576
0.1067097 -0.08798947 0.063225366 -0.19571397 0.003543102 0.023067655 0.094954744 0.25567994
0.302675 -0.008888088 0.27123603 0.048780706 0.20766935 0.020615501 -0.76545256 -0.010509755
-0.05818317 -0.38010773 -1.0973496 -0.2731732 0.07260305 0.17801587 0.04058892 0.12931857
0.222747 0.10050931 0.082764775 0.061139 0.107731074 0.12597704 -0.07740954 -0.63868725
-0.03275346 0.23650543 0.33556437 0.26790333 -0.06338382 0.12326601 -0.11156032 0.07900971
0.2422945 0.3020151 0.31924036 0.24381182 -0.26309934 -0.13330032 0.0907182 0.07867084
0.079512574 -0.03476036 0.059893474 0.18648183 0.34590453 -0.14561312 0.019211872 -0.025454896
0.006809841 0.12157698 0.106327415 -0.062305026 -0.074800596 -0.0108101815 -0.10790022 0.12933937
0.055821408 0.02729881 0.07602043 0.07012909 -0.011500693 -0.13360436 -0.11492732 0.12677504
-0.0141635025 0.10919577 -0.074239075 -0.098224685 -0.09322865 0.12791203 -0.020061824 -0.043597907
-0.062348623 0.013945368 -0.11908301 0.06412439 -0.08415009 -0.031507093 0.0109815 0.0024159495
-0.028505301 -0.045720506 -0.06386321 -0.091324985 0.07827063 -0.08712839 -0.045061547 -0.06390114
0.041161146 -0.0050862706 0.03097475 -0.10303531 0.09779124 -0.1048271 -0.09922519 0.038989346
-0.055661168 -0.032740995 -0.047828045 -0.08014366 -0.047138423 -0.11236595 -0.07408958 0.05893001
0.062901035 0.004458899 -0.07415917 0.070101745 -0.08731281 -0.03902298 -0.025091572 0.10329711
-0.084815085 0.1832685 -0.49771065 0.05755167 -0.13285348 0.23547564 0.15794218 0.21108736
0.2747146 0.15292376 -0.09692063 -0.23965172 0.3102333 -0.056989975 0.28345698 0.21464497
0.13529669 -0.001060715 0.15958188 0.015806047 0.10930106 0.08776652 -0.2803652 0.11749863
0.043698207 -0.04584823 -1.3097054 -0.57163954 0.12414004 0.29109246 -0.0795088 -0.038025904
0.24917357 0.30590013 0.22218518 0.065993786 -0.037920486 -0.09701559 -0.04844334 -0.65584534
-0.36095625 0.21784665 0.28082374 0.14188787 -0.1217952 0.04400699 -0.095700055 -0.09386567
0.37426192 0.1870012 0.1359226 0.2923183 -0.5088963 -0.0547257 0.18052451 0.009407881
0.029557198 -0.05274235 0.15398248 0.20054474 0.21902025 -0.037721366 0.17731935 0.19822526
0.0064287996 0.059410583 -0.6547872 0.09519744 -0.6339771 0.44198152 0.35889584 0.25062534
0.29335567 0.9998657 -0.10260172 -0.114533335 0.4294823 0.07649539 0.21677671 0.45642284
0.35243398 -0.11092162 0.3666475 -0.023475839 0.39626765 -0.0945086 -0.27054468 -0.026046652
-0.089846544 -0.015073967 -0.3247056 -0.6842367 0.1644884 0.38068935 -0.008716042 -0.023436815
0.14116251 0.27912188 0.21745817 0.3360508 0.011922228 0.038095087 -0.08587347 -0.5415103
-0.6058822 0.38563532 0.4280649 0.6498378 -0.030482389 0.55410725 0.058715098 -0.07118444
0.40926254 0.17499067 0.41351098 0.13505633 -0.31641534 -0.03220069 0.35036212 0.027106931
-0.06441901 -0.060233988 0.3027293 0.3059753 0.49361247 -0.05763001 0.13007371 0.34032792
00000000: f3f3 4bbd b14e 6b3d 8192 39bf c12b b43c
00000010: 7f4b 4ebe ee0d d93d 4ba0 5a3e 9298 1c3e
00000020: 9d8a da3d d333 b4bd 4d7c 813d 3e69 48be
00000030: 6333 683b 61f8 bc3c a277 c23d 7be8 823e
00000040: 38f8 9a3e 589f 11bc 73df 8a3e 47ce 473d
00000050: 46a7 543e d7e1 a83c b3f4 43bf 1c31 2cbc
00000060: 7a51 6ebd 7b9d c2be f475 8cbf 5cdd 8bbe
00000070: e8b0 943d cb49 363e 9140 263d 166c 043e
00000080: ca17 643e d3d7 cd3d 9480 a93d e36c 7a3d
00000090: 1ca2 dc3d 2000 013e e588 9ebd 0281 23bf
000000a0: 7e28 06bd 7b2e 723e 18cf ab3e a02a 893e
000000b0: 60cf 81bd e472 fc3d bd79 e4bd d8cf a13d
000000c0: 0d1c 783e b9a1 9a3e 7973 a33e cea9 793e
000000d0: f5b4 86be e17f 08be 77ca b93d 2d1e a13d
000000e0: 7dd7 a23d e160 0ebd dc52 753d 18f5 3e3e
000000f0: 661a b13e 9b1b 15be 3762 9d3c c986 d0bc
00000100: 1625 df3b 5afd f83d 30c2 d93d 8e33 7fbd
00000110: 0e31 99bd 301d 31bc cafa dcbd 8a71 043e
00000120: fda4 643d c1a1 df3c 99b0 9b3d d79f 8f3d
00000130: 676d 3cbc 95cf 08be 045f ebbd 51d1 013e
00000140: 090e 68bc 08a2 df3d a80a 98bd 062a c9bd
00000150: aaee bebd 5ffb 023e b258 a4bc b893 32bd
00000160: 4561 7fbd 1d7b 643c cbe1 f3bd a653 833d
00000170: e256 acbd 950d 01bd c0eb 333c e854 1e3b
00000180: f383 e9bc 6d45 3bbd b7ca 82bd 9808 bbbd
00000190: 5a4c a03d 5f70 b2bd 7592 38bd 9ade 82bd
000001a0: 9798 283d bbaa a6bb c2be fd3c 2d04 d3bd
000001b0: c646 c83d 97af d6bd 9436 cbbd 4bb3 1f3d
000001c0: f7fc 63bd 6c1b 06bd 57e7 43bd 5c22 a4bd
000001d0: 3814 41bd 1f20 e6bd 47bc 97bd 9860 713d
000001e0: 42d2 803d f51b 923b c3e0 97bd 8191 8f3d
000001f0: 0fd1 b2bd 8fd6 1fbd d78c cdbc 6f8d d33d
00000200: 88b3 adbd bdaa 3b3e eed3 febe 4dbb 6b3d
00000210: be0a 08be 8720 713e 98bb 213e 4927 583e
00000220: 64a7 8c3e 0c98 1c3e 537e c6bd 4367 75be
00000230: e6d6 9e3e 526e 69bd 4621 913e e4cb 5b3e
00000240: 378b 0a3e b007 8bba 6f69 233e af7b 813c
00000250: 3cd9 df3d efbe b33d 078c 8fbe 1fa3 f03d
00000260: e4fc 323d 5bcb 3bbd 6da4 a7bf f856 12bf
00000270: 223d fe3d 120a 953e 82d5 a2bd 0dc1 1bbd
00000280: 5b27 7f3e f19e 9c3e 8384 633e c027 873d
00000290: 8352 1bbd 1cb0 c6bd 866c 46bd 7be5 27bf
000002a0: 42cf b8be 3113 5f3e 21c8 8f3e 0e4b 113e
000002b0: c36f f9bd ac40 343d 64fe c3bd a53c c0bd
000002c0: 429f bf3e 3e7d 3f3e 4b2f 0b3e bfaa 953e
000002d0: 0747 02bf 0e28 60bd 6bdb 383e 8323 1a3c
000002e0: f021 f23c 5d08 58bd 95ad 1d3e 9a5b 4d3e
000002f0: d846 603e b881 1abd 3493 353e 90fb 4a3e
00000300: aea8 d23b 8358 733d 22a0 27bf e0f6 c23d
00000310: 534c 22bf 674b e23e 32c1 b73e f751 803e
00000320: b732 963e 33f7 7f3f da20 d2bd 7490 eabd
00000330: 1be5 db3e 9da9 9c3d b7fa 5d3e 41b0 e93e
00000340: 3a72 b43e e02a e3bd 39b9 bb3e 6750 c0bc
00000350: 98e3 ca3e ba8d c1bd d584 8abe ca5f d5bc
00000360: 7701 b8bd cdf8 76bc d03f a6be 232a 2fbf
00000370: a66f 283e b7e9 c23e bbcd 0ebc 90fe bfbc
00000380: e88c 103e 10e9 8e3e 5bad 5e3e da0e ac3e
00000390: 7355 433c 9809 1c3d 6ede afbd 6ba0 0abf
000003a0: 191b 1bbf fe71 c53e 532b db3e c55b 263f
000003b0: 34b6 f9bc f9d9 0d3f 3e7f 703d 26c9 91bd
000003c0: dc8a d13e c130 333e b6b7 d33e 354c 0a3e
000003d0: 3101 a2be dfe4 03bd aa62 b33e 5b0f de3c
000003e0: 1dee 83bd eab7 76bd 56ff 9a3e cba8 9c3e
000003f0: c6ba fc3e 720d 6cbd 0b32 053e 763f ae3e

net.4.bias f4 [32]
0.16033407 0.052400168 0.24139145 0.07147412 0.11505351 0.07294845 0.029378504 -0.16078946
0.023574296 0.041143898 0.024935063 -0.08968687 0.08657005 0.11028895 0.1340948 0.06574359
0.009995025 -0.04772325 0.026148798 0.047264174 0.095731124 0.03303134 0.1974291 -0.13671258
-0.058183983 -0.03282663 -0.11484064 0.08234931 0.10572485 -0.1206348 0.16227208 0.08073931
00000000: 9d2e 243e 8fa1 563d 522f 773e 0661 923d
00000010: 2da1 eb3d ff65 953d 30ab f03c fea5 24be
00000020: e21e c13c 8186 283d 9e44 cc3c c0ad b7bd
00000030: a34b b13d 2cdf e13d 2650 093e 93a4 863d
00000040: 2cc2 233c 7479 43bd 0136 d63c 1498 413d
00000050: ae0e c43d df4b 073d db2a 4a3e 62fe 0bbe
00000060: 5452 6ebd 3775 06bd 9231 ebbd c1a6 a83d
00000070: 4586 d83d 610f f7bd a72a 263e a75a a53d

net.6.weight f4 [16, 32]
-0.17719625 0.073366866 -0.16543591 0.08818576 0.0077538835 0.1329586 -0.13319744 0.12305322
0.009852492 -0.019338809 -0.14419381 0.12091534 -0.16609228 0.041898992 -0.090736054 -0.049566504
-0.004864782 -0.059227053 0.05835762 0.026110176 -0.05540879 -0.12617067 -0.08984135 -0.05397003
0.045907676 -0.22215946 -0.0086300755 -0.083134495 0.08038038 0.09285053 -0.11969285 -0.05443265
-0.05998463 0.022799483 0.2848673 0.34706527 0.28217715 0.41548443 -0.15536231 0.9694838
-0.14375651 -1.5148412 0.3454196 -0.10671629 0.31460148 0.05279077 0.36004573 0.113703854
0.15402105 0.44345778 -0.12715559 0.35914132 0.1995432 -0.09162148 0.31133372 -0.18692657
-0.4276562 0.23233022 0.2993966 0.09971201 -0.07098038 0.29774958 0.34453848 -0.9188093
-1.1953033 -0.06088369 -1.2406384 -0.6765474 -1.2160385 -0.047576934 -0.058374576 0.2598953
0.07194583 -0.12111631 -0.016367039 -0.025251495 -1.123796 0.18145584 -1.1926405 -0.14385043
-0.2700461 0.04779457 0.7981079 0.16845876 0.15081955 0.05988342 0.19400638 -0.14928709
-0.33079267 0.3562051 0.14641576 -1.4390349 0.20830312 0.2540274 -0.98444474 -0.15078656
-1.8304659 -0.1403426 -0.8856698 -0.3620874 -0.9641019 0.0037333244 -0.06114047 -0.028377445
0.13969089 0.67106634 0.03920098 -0.036812842 -0.47901806 0.09747168 -1.0015852 -0.09039751
0.051556215 0.236623 0.25588635 -0.0659626 -0.010862979 -0.16057982 -0.01718199 0.09094435
0.18819593 0.09243285 0.251824 -1.5615623 0.05118439 0.22138754 -0.61238277 0.03788039
-0.296185 -0.07910059 -0.055042844 -0.14122488 -0.07174261 -0.053212978 0.06986064 0.3093813
0.0366329 -1.5919777 0.18740858 0.016857602 -0.24181166 0.11898575 0.09915234 -0.14033644
-0.06621445 0.2995532 0.33017224 0.32472712 0.23563664 0.034501463 0.13219354 -0.20995846
-0.37557003 0.17269707 0.36473295 0.05317653 0.14087395 0.041417975 0.17962927 -0.6066219
-0.40203208 -0.09110286 -0.07545769 -0.09121988 -0.2933767 0.21473455 -0.101864465 -0.06283979
9.01818e-05 1.3733313 -0.06270499 -0.013732195 -0.36691982 0.13630636 -0.31025717 0.13670416
0.2227459 -0.008369932 0.23867619 0.36334413 0.09529582 0.13379528 0.15526508 0.023080962
-0.9380433 0.36338255 0.1603929 -0.32188267 0.03704805 0.24226476 -0.29091954 1.2917037
-0.13634858 0.01568915 -0.42428306 -0.19805646 -0.6735943 0.6827274 -0.056463856 -1.9177519
0.09994229 0.7746037 0.11651884 -0.091446094 0.10623396 0.21958414 -0.8636253 0.008666967
-0.18672848 0.25070044 -0.0629015 0.41807124 0.5988168 -0.012533813 0.03123143 -0.13960811
0.13049908 0.5822307 0.2690497 -0.047060568 -0.9441814 0.7428681 -0.6863174 0.0730116
-0.0007516756 -0.17215393 -0.05434137 -0.15493357 0.096244045 0.045015622 0.07196287 0.023515593
-0.020089116 -0.15919124 -0.0779798 -0.04636871 -0.21748829 0.036967073 0.06084054 0.050444346
-0.09496215 -0.19426484 -0.17818525 -0.07386116 0.11276571 0.040758345 -0.09060578 0.043624695
0.1201754 -0.05183125 -0.07711348 0.08359665 -0.04636169 0.015391737 0.045323644 -0.10912882
00000000: ef72 35be 5e41 963d 0868 29be bc9a b43d
00000010: 4a14 fe3b 4d26 083e e964 08be 5403 fc3d
00000020: 596c 213c 6c6c 9ebc 8ba7 13be 76a2 f73d
00000030: 1814 2abe 479e 2b3d d3d3 b9bd 3f06 4bbd
00000040: c068 9fbb 1198 72bd 6608 6f3d 02e5 d53c
00000050: 54f4 62bd e232 01be befe b7bd ae0f 5dbd
00000060: b009 3c3d c57d 63be 2965 0dbc 6b42 aabd
00000070: 789e a43d 6b28 be3d 8621 f5bd c5f4 5ebd
00000080: 72b2 75bd fbc5 ba3c 20da 913e 8ab2 b13e
00000090: 8679 903e 60ba d43e 4c17 1fbe 1730 783f
000000a0: e834 13be 51e6 c1bf d6da b03e 128e dabd
000000b0: 7213 a13e 223b 583d ea57 b83e 91dd e83d
000000c0: b2b7 1d3e e60c e33e 1335 02be 5fe1 b73e
000000d0: 0d55 4c3e 0ba4 bbbd 2267 9f3e ae69 3fbe
000000e0: c1f5 dabe f9e7 6d3e 834a 993e cf35 cc3d
000000f0: 295e 91bd a272 983e 5967 b03e 1637 6bbf
00000100: b3ff 98bf 2d61 79bd 3dcd 9ebf 3632 2dbf
00000110: 26a7 9bbf 08e0 42bd 2e1a 6fbd ff10 853e
00000120: 5658 933d d40b f8bd 2b14 86bc 39dc cebc
00000130: 8cd8 8fbf 8fcf 393e 72a8 98bf 874d 13be
00000140: 7b43 8abe 3dc4 433d cd50 4c3f 7480 2c3e
00000150: 7170 1a3e 5148 753d 9ca9 463e b7de 18be
00000160: a85d a9be 8460 b63e 03ee 153e 4c32 b8bf
00000170: 6a4d 553e e10f 823e 9204 7cbf cb67 1abe
00000180: b54c eabf f8b5 0fbe 42bb 62bf 8563 b9be
00000190: 62cf 76bf caaa 743b 6e6e 7abd d177 e8bc
000001a0: 210b 0f3e 01cb 2b3f 3591 203d 10c9 16bd
000001b0: db41 f5be 3b9f c73d f233 80bf 5422 b9bd
000001c0: 9c2c 533d 4d4d 723e 8903 833e 6617 87bd
000001d0: a3fa 31bc 096f 24be 3fc1 8cbc 0841 ba3d
000001e0: 6fb6 403e 6f4d bd3d 13ef 803e 46e1 c7bf
000001f0: b9a6 513d 6ab3 623e 1ec5 1cbf 7828 1b3d
00000200: 8fa5 97be 7dff a1bd 9b74 61bd 419d 10be
00000210: caed 92bd daf5 59bd 1813 8f3d 3a67 9e3e
00000220: 610c 163d edc5 cbbf 09e8 3f3e f418 8a3c
00000230: 7a9d 77be cdae f33d 6210 cb3d 5bb4 0fbe
00000240: 719b 87bd 095f 993e 560c a93e a242 a63e
00000250: bb4a 713e 6851 0d3d be5d 073e 5aff 56be
00000260: b74a c0be 80d7 303e 47be ba3e a2cf 593d
00000270: 4341 103e e5a5 293d bcf0 373e 934b 1bbf
00000280: 26d7 cdbe 2394 babd 9089 9abd 7dd1 babd
00000290: 7935 96be 60e3 5b3e 519e d0bd 26b2 80bd
000002a0: fc1f bd38 52c9 af3f 796b 80bd 00fd 60bc
000002b0: eadc bbbe e593 0b3e 07da 9ebe 2dfc 0b3e
000002c0: 8017 643e 0a22 09bc 8867 743e 3e08 ba3e
000002d0: 742a c33d a101 093e cffd 1e3e 4914 bd3c
000002e0: 9b23 70bf 470d ba3e 093e 243e cecd a4be
000002f0: b2bf 173d 4114 783e 68f3 94be 8c56 a53f
00000300: f69e 0bbe 8886 803c a13b d9be 50cf 4abe
00000310: ad70 2cbf 39c7 2e3f a546 67bd e578 f5bf
00000320: 8bae cc3d 6e4c 463f 6ea1 ee3d 1748 bbbd
00000330: 3191 d93d aada 603e 8c16 5dbf e5ff 0d3c
00000340: c035 3fbe cf5b 803e 80d2 80bd 6f0d d63e
00000350: 0f4c 193f 9f5a 4dbc 0ed9 ff3c 6ef5 0ebe
00000360: 8da1 053e 120d 153f e2c0 893e 95c2 40bd
00000370: dfb5 71bf 9b2c 3e3f 7fb2 2fbf 1b87 953d
00000380: 180c 45ba 1f49 30be 0e95 5ebd e8a6 1ebe
00000390: 991b c53d 4d62 383d 4561 933d c6a3 c03c
000003a0: ee91 a4bc 0703 23be e0b3 9fbd 1eed 3dbd
000003b0: 40b5 5ebe c96a 173d ee33 793d bb9e 4e3d
000003c0: 847b c2bd 5ded 46be 3276 36be 8544 97bd
000003d0: b5f1 e63d 39f2 263d 868f b9bd cfaf 323d
000003e0: 851e f63d 014d 54bd aced 9dbd b834 ab3d
000003f0: c1e5 3dbd a02d 7c3c 49a5 393d ee7e dfbd

net.6.bias f4 [16]
-0.1729468 0.23397654 -0.08620201 -0.08205869 0.025416022 0.13185683 -0.17327024 0.055217396
0.08147102 -0.022352895 0.26399496 0.21135733 0.104629554 0.15536799 0.18720026 -0.14662357
00000000: f718 31be 8c97 6f3e ae8a b0bd 630e a8bd
00000010: 4335 d03c 7a05 073e c16d 31be a32b 623d
00000020: 47da a63d 6b1d b7bc 592a 873e 0e6e 583e
00000030: 0548 d63d c918 1f3e 6db1 3f3e 7d24 16be

net.8.weight f4 [9, 16]
0.1398679 -0.25221628 0.61229044 -0.98072016 0.0681824 -0.13238187 0.62762064 0.092974775
-0.14919083 -0.28484794 0.63856304 -0.3600893 -0.1305648 -0.35150564 -0.3999613 -0.40161237
0.10015493 -0.31338775 -0.030964207 -2.1176405 0.30629128 -0.01762939 0.2716169 0.13151456
0.2107483 -0.61030895 -2.2196398 -0.16738485 -0.06679315 -0.19749501 0.6815562 -0.22411236
0.057992406 -0.10249108 -1.1765704 0.17547815 -0.3963801 -0.20496479 -0.6128635 0.1285956
-0.12874375 -0.8713272 -0.4034237 -0.18618727 0.10234409 -0.18900801 0.031038567 -0.09507824
-0.15848748 -0.046699964 -0.37715304 -0.24330766 -0.47315308 -0.013050827 -0.27322522 0.14705116
-0.24075495 -0.39820722 -0.011116235 -0.31617364 -0.0980112 0.09630084 -0.24029127 0.054203898
0.11941234 -0.30976057 -0.04145347 -0.10407585 -0.0562772 -0.31788146 -0.42099333 0.028231047
-0.19304194 -0.25808695 0.12470993 -0.33406448 0.13267276 -0.13523757 -0.2586518 -0.3062792
-0.14983512 -0.06272633 -2.3558555 -0.1063665 -0.5804449 0.31391326 0.7903044 0.023199819
0.18469885 1.3036005 0.40160197 0.039405823 -0.04007866 -0.107025355 0.2229934 -0.07329893
-0.19707109 -0.12097687 -0.44695053 0.09477372 -0.42508122 -0.21660556 -0.2466917 -0.12479463
-0.08748131 -0.3215147 -0.0503995 -0.3752607 -0.2526236 -0.031307403 -0.13835056 0.08284215
-0.08581885 0.497409 -1.5038037 -0.16511914 0.1648097 -0.63183045 -1.5319843 -0.030797215
0.010187109 -1.4292924 -0.20716852 0.46170846 -0.1102457 -0.044350546 0.056911528 -0.055493683
-0.14224552 -0.3112812 1.4794102 0.8791875 0.21013795 0.13643071 0.14508902 -0.16480942
-1.1833321 -0.20143415 -0.1953075 -0.5609831 0.05913571 0.01603418 -0.681505 0.26082295
00000000: 8839 0f3e 7e22 81be 11bf 1c3f 7a10 7bbf
00000010: 37a3 8b3d 1d8f 07be bfab 203f 8f69 be3d
00000020: 7bc5 18be 97d7 91be de78 233f a05d b8be
00000030: c7b2 05be 8cf8 b3be bac7 ccbe 23a0 cdbe
00000040: 071e cd3d 5c74 a0be a6a8 fdbc 6c87 07c0
00000050: 36d2 9c3e 836b 90bc 5f11 8b3e c1ab 063e
00000060: 67ce 573e 353d 1cbf 940e 0ec0 ef66 2bbe
00000070: d9ca 88bd 223c 4abe 787a 2e3f b67d 65be
00000080: 7289 6d3d d8e6 d1bd dc99 96bf 8bb0 333e
00000090: 55f2 cabe 4ae2 51be 9fe4 1cbf 91ae 033e
000000a0: 67d5 03be 4d0f 5fbf 8d8d cebe e0a7 3ebe
000000b0: c799 d13d 518b 41be 9844 fe3c 61b8 c2bd
000000c0: 8b4a 22be 7648 3fbd 341a c1be a525 79be
000000d0: 1f41 f2be 23d3 55bc 2de4 8bbe 9494 163e
000000e0: 7788 76be d1e1 cbbe de20 36bc 83e1 a1be
000000f0: 19ba c8bd 6039 c53d ea0e 76be e804 5e3d
00000100: 758e f43d f098 9ebe 1dcb 29bd b825 d5bd
00000110: ec82 66bd 5cc1 a2be 708c d7be cc44 e73c
00000120: c9ac 45be f923 84be eb67 ff3d 800a abbe
00000130: 5edb 073e b87b 0abe 026e 84be a1d0 9cbe
00000140: 616e 19be a976 80bd 56c6 16c0 aed6 d9bd
00000150: 0998 14bf 3db9 a03e 6451 4a3f 8c0d be3c
00000160: b221 3d3e 62dc a63f c69e cd3e 0068 213d
00000170: 8529 24bd 1c30 dbbd 6258 643e c01d 96bd
00000180: 01cd 49be b9c2 f7bd b3d6 e4be b918 c23d
00000190: 3fa4 d9be d9cd 5dbe c09c 7cbe 5494 ffbd
000001a0: 6729 b3bd 939d a4be b56f 4ebd 2c22 c0be
000001b0: e157 81be 313c 00bd c5ab 0dbe 25a9 a93d
000001c0: cbc1 afbd 64ac fe3e a47c c0bf fe14 29be
000001d0: e0c3 283e a4bf 21bf 1018 c4bf 714a fcbc
000001e0: d5e7 263c 0ef3 b6bf fc23 54be 0d65 ec3e
000001f0: 7fc8 e1bd eba8 35bd 101c 693d 584d 63bd
00000200: cfa8 11be 4060 9fbe 505d bd3f 6f12 613f
00000210: 672e 573e 7eb4 0b3e 3792 143e cdc3 28be
00000220: 6d77 97bf c144 4ebe b0fe 47be 979c 0fbf
00000230: 4938 723d 1d5a 833c 1d77 2ebf 968a 853e

net.8.bias f4 [9]
0.00060499227 0.051411483 -0.27590778 -0.15565278 0.12942602 -0.17175277 -0.26388726 -0.03568339
-0.3049056
00000000: 5898 1e3a d994 523d c943 8dbe 7163 1fbe
00000010: 4188 043e f5df 2fbe 3b1c 87be bf28 12bd
00000020: 961c 9cbe
