MsPacman_PPO_DNN_.pth (torch, 57189 bytes, 10 tensors)

net.0.weight f4 [128, 16]
00000000: 933e eebd 6a20 873b c46b a5bd 1655 fcbe
00000010: 3009 183b ace3 71be 747c 453e aaef 4bbe
00000020: ac08 c1bd 0e1d afbd 4076 7bbe a996 babd
00000030: d4fd efbd 8dd1 96bd 728f 2e3f 22f0 2bbe
00000040: d07a a6be 8274 82be ce1d 323e adf2 c13e
00000050: fc73 a03d 1eaa 7d3e 1f4f 453e 88fb 66bd
00000060: f40a a5bd 7da5 21bf 7c9c 123e c0ed 9d3e
00000070: 80cf 1f3b 3b99 163d 83fd 42be 201f 9dbd
00000080: f5e7 8bbc 73f6 793e 5ca1 d03d 747f 803d
00000090: f0a7 213d 5433 853d f6f7 8abd 3823 8f3d
000000a0: 6e25 31be a8da 81bd 6e33 993e 394b 3b3e
000000b0: 9ce6 12be 32c6 073e 5a7b 513e 6044 39bc
000000c0: 62ea cdbd b99b 383e 42cd 613e 0617 9fbd
000000d0: 560a 26be 1080 e03d ffa3 873e 0012 25bc
000000e0: 0855 52bd ee72 2dbe 3403 f6bd 7adc 933d
000000f0: 8676 743e 15b8 803e c161 33bd f40e 723e
00000100: da56 d8be 8832 b8be b0b7 4f3d 4023 74be
00000110: 5d7e 143e 681c 0b3e fb71 45be 3232 1f3e
00000120: 40fd 5b3e c14b 423e 61d8 5dbd ba59 0dbf
00000130: f8a4 113d adf1 2bbe b888 10bd 0825 583d
00000140: 4911 e5bd 5ef8 c4bc 36ba 383e c33f 00be
00000150: f73f 73be 4088 7d3c 7b6b 72be 5c97 eebd
00000160: 00ec 0e3b 9e3a 80bc 6f46 e0bc b3dc d0bd
00000170: 6ce2 f53d cf31 843d 232b 0abd 80ba 0ebc
00000180: e045 323e caab 633e c02e 2f3c c77d 08be
00000190: 3d1d 47be b4a7 df3d 5ed2 b03d 08d3 3bbd
000001a0: ec2d cc3d 1337 10bf 19d5 6f3d 125d dcbd
000001b0: d262 3a3e 1870 623d 54ab 6d3e 70db a2bd
000001c0: cd95 17bd ce3f 81bc 001f 5f3b b4d0 31be
000001d0: 401b 853e 6226 1cbe 4e58 203e d8a1 6fbd
000001e0: 9832 4cbe 8aa4 87be e95f a23e 5d56 97be
000001f0: 307e 893c 796d b2bc 255f 7a3f 809c 0cbc
00000200: e3ed 1a3e a1af d43c d093 e13c d339 493e
00000210: ea03 b8bc 089e ce3d a3ed 07be 00ac 753c
00000220: 5066 e4bd 59b5 c73e bc1d 7dbe 64f8 aabe
00000230: d44a c73d 9048 16bc 236a d1be 0255 34be
00000240: d6b8 8bbe b120 90bd 4c3e c0bd e6fe e7bd
00000250: 75e1 e33d 2412 06be 9595 90be 2056 dabc
00000260: ccfa 0fbe 34ba 273d b5ff 40be 0083 3f3e
00000270: 88d2 75bd d289 503e 486e ceba d047 6bbd
00000280: c496 013a b878 98be 66f5 1dbe d6fa 2ebe
00000290: 3bdc 473b dce7 003e 1802 89be c2df 3fbe
000002a0: 2858 883d 55c8 223e 6d50 81bd d9a8 f23e
000002b0: 7e39 053e b048 20be 5587 75bd f876 033e
000002c0: 7894 8abd cb7e 323e 9057 583e fed7 2dbe
000002d0: 9ba1 733e 70f9 1c3d fe30 c2bd f0e4 83bd
000002e0: 302a ec3c a83a 9bbe 9f9d 9e3c a21b c0bd
000002f0: 6012 11be f4ea a13e 9845 e93c 7635 23be
00000300: ab49 62be 5292 b5bd e090 43bc 7685 473e
00000310: 2b88 ccbd ccaf 593e c45d 803e 040b 4ebe
00000320: 20f4 c2bd 1110 df3d 4b5f a93e 16a0 7abd
00000330: 7c72 febd 53bd 463d b461 f63c 50a2 353e
00000340: e0ad 223e c07e 323e e848 783e e6c4 313c
00000350: a53a 3c3e 4a95 00be 859e 5d3d 6c26 febd
00000360: 8a6b 263e 173f 8bbc d01d 29bd f32b a1be
00000370: 20ab 013c e9c6 fe3e c1f7 383e 24c3 d2bd
00000380: 7b37 f83d a3b7 903e 8013 40bc 7632 a4be
00000390: c90e 06be 20b3 15be cd8a acbc a053 29bd
000003a0: 8080 28be 6179 b93d 3337 b4bd 34f1 2ebf
000003b0: d64b 2dbe 66c0 ad3e 8d8c 08be 3628 3f3e
000003c0: ecbd 763e 255f 9b3d d03e a43c 855b 80bd
000003d0: a28f f73e 44ed 8b3d 3b0a 893e 90b1 38be
000003e0: a063 14bc 2d05 b5bd dafd bebc 5cc6 9f3c
000003f0: 7471 153e bdc3 ddbd 7810 663d 587c 6c3d
-0.11633029 0.004123737 -0.08077195 -0.49283665 0.0023198836 -0.23622006 0.19285756 -0.19915643
-0.09425482 -0.085504636 -0.24556828 -0.091107674 -0.11718336 -0.073641874 0.6818763 -0.16790822
-0.32515574 -0.25479513 0.17394182 0.3788046 0.07834622 0.24771926 0.19268464 -0.056392223
-0.0805873 -0.6314314 0.14317507 0.3084545 0.0024385154 0.036767226 -0.1904202 -0.07671952
-0.01707838 0.24410419 0.10187027 0.0627431 0.0394668 0.06503931 -0.06785576 0.06989139
-0.17299435 -0.063405335 0.2992205 0.18290414 -0.14345783 0.132592 0.20457211 -0.011307806
-0.100544706 0.18028153 0.22050956 -0.07768063 -0.1621488 0.10961926 0.26492307 -0.010075092
-0.051350623 -0.16938373 -0.1201233 0.07219787 0.23873338 0.25140443 -0.043794397 0.23638517
-0.42253762 -0.35976052 0.050712287 -0.23841572 0.14501329 0.13585055 -0.19281761 0.15546492
0.21483326 0.1897421 -0.054161433 -0.55215037 0.035557717 -0.1679141 -0.035286635 0.05276969
-0.111849375 -0.024044212 0.18039784 -0.12524323 -0.2375487 0.015474379 -0.23673813 -0.11649963
0.0021808147 -0.01565295 -0.027377335 -0.10198345 0.12006077 0.06454813 -0.033732545 -0.008711457
0.17409468 0.22233501 0.010692298 -0.1332923 -0.19444747 0.10920659 0.08633874 -0.045855552
0.099696964 -0.56334037 0.058552835 -0.10759939 0.1820176 0.055282682 0.23209888 -0.07952011
-0.037008096 -0.015777495 0.0034045577 -0.1736477 0.25997353 -0.15249017 0.15658686 -0.058503956
-0.19941175 -0.2649272 0.317138 -0.29558077 0.016783804 -0.021780716 0.9780143 -0.008582234
0.15129809 0.025962653 0.027536303 0.19650964 -0.022462804 0.10088736 -0.13274245 0.014994621
-0.11152327 0.39005545 -0.24718374 -0.33392632 0.09731069 -0.009172574 -0.40901288 -0.17610553
-0.27289456 -0.070374854 -0.09386882 -0.11327915 0.11126987 -0.13092858 -0.28239122 -0.026652396
-0.14060515 0.04094906 -0.18847544 0.18702316 -0.06001523 0.20365074 -0.0015749419 -0.057441533
0.00049434253 -0.297796 -0.15425643 -0.17087874 0.0030496258 0.12588447 -0.2675941 -0.187377
0.066574395 0.15896733 -0.06314168 0.47394446 0.13010213 -0.15652728 -0.059943516 0.12838352
-0.067665994 0.1743118 0.21127152 -0.16976926 0.23792116 0.03832382 -0.09482001 -0.06440151
0.02882871 -0.3031819 0.019362269 -0.093802705 -0.14167166 0.31624568 0.028475568 -0.15938362
-0.22098415 -0.08865799 -0.011936396 0.19484505 -0.099869095 0.21258467 0.25071537 -0.2012139
-0.095192194 0.10891736 0.33080515 -0.061187826 -0.1242418 0.048520397 0.030075885 0.17737699
0.1588664 0.17431164 0.24246562 0.010850167 0.18381746 -0.1255695 0.054106254 -0.12409672
0.1625196 -0.016997857 -0.041288197 -0.31478843 0.007914335 0.4976113 0.1806326 -0.10291126
0.12119957 0.28265104 -0.011723399 -0.3206975 -0.13091578 -0.14619112 -0.02106228 -0.041339517
-0.16455269 0.09056354 -0.08799591 -0.68336797 -0.1692346 0.3393585 -0.13334866 0.18667683
0.24095887 0.07586507 0.020049483 -0.06267456 0.4835177 0.06832364 0.26765618 -0.18036485
-0.009056956 -0.08838878 -0.023314405 0.019503765 0.1459406 -0.1082835 0.05616805 0.05773577

net.0.bias f4 [128]
00000000: 0003 e73d 01b5 e6bd 28c5 673d 8fcf 22be
00000010: 2a31 553e b719 1bbe bf05 8b3e 0d5c bbbe
00000020: a448 763e d717 033e f86d 5d3e 8bf8 143e
00000030: 5d7a 5fbd cccf 39be 0f0b 2abe afe8 24be
00000040: 56b3 86be 421c 8a3d a1da 813c de9a b73d
00000050: 79fe 71bc 1e4a f0bd 44cf 2ebc c238 82be
00000060: a3bf e4bc 4d77 38be 1c31 20bd 1139 103c
00000070: d6b2 96bc 539a 5abd 119b e7bd cbde 7b3e
00000080: baa8 e7bd f334 3a3e c131 9abd 250b 6fbd
00000090: 11d6 40be 2e65 073c f45c 843e 4ee8 b7bc
000000a0: 8ae1 01be bcfc 9abe 9f8c 3e3e c562 e2bc
000000b0: 2ef1 6f3e f767 4cbe 3441 46be a946 e3bd
000000c0: 0841 d4bb 4af5 7dbe c9c6 b23d fc98 513e
000000d0: f2de 13bd 3d2f e1bd 7239 2abe f4f2 79be
000000e0: d873 adbe 0605 34bb 47f2 983e 990e 7a3e
000000f0: 96d8 533e 3e4e 503e 3e17 aebc 3a16 44be
00000100: 9e43 ae3c 035b f13c cbea 99be bd96 b6ba
00000110: 0e10 5cbe 7a73 523e 4a5b 93bc 325c b4be
00000120: 575d a3be 0481 f8bd fb4a 283d f54b 72be
00000130: 8c84 a8be 2786 9bbd 0a29 ad3e 69a8 3dbe
00000140: 66d9 903e bc8e 08be b2c3 b43d 2abf c6bd
00000150: bb6a 673c 3962 d2be 439a e1bd 261d a13d
00000160: 04d7 08be d9d4 83be 3659 5d3e e1cf 9fbe
00000170: 26fc 99be 4eba b93e 58b4 4dbe dfe9 2dbe
00000180: 87d6 dc3d 577b ecbe e8d6 103e c315 77be
00000190: cb09 b13d 29d0 d13d a35e 5ebe 499c 87be
000001a0: a7b1 8fbe 2e0b 853c 8607 45bd 7d51 543e
000001b0: 455f e63d 933d 07be 37d9 6fbe cd33 fdbd
000001c0: da89 a1bd 8f3c 60be ceb5 3cbc 0b72 7ebe
000001d0: 94bc 94bd ba93 6fbe da84 83be d0b5 54bb
000001e0: 2e0f 01be 1e6a 053e b4a1 57be 7f0c d3bc
000001f0: f28e 20be aee7 63bd ceb3 a93d 9c6e 7abe
0.11279869 -0.112649925 0.056584507 -0.1589949 0.20819536 -0.15146528 0.2715282 -0.36593667
0.24051148 0.12802063 0.21623981 0.14547937 -0.054560054 -0.18145674 -0.16605781 -0.16104387
-0.26308697 0.06743671 0.01585132 0.089650854 -0.014770144 -0.11732887 -0.010669533 -0.25433928
-0.02792341 -0.1801426 -0.039109334 0.008802668 -0.018395822 -0.05336983 -0.113088734 0.24596708
-0.11311479 0.18184261 -0.07529021 -0.058360238 -0.1883166 0.008263869 0.25852168 -0.022449639
-0.12683693 -0.30270946 0.1860833 -0.027634988 0.23431846 -0.19961534 -0.1936081 -0.11097462
-0.006477479 -0.24800602 0.087293215 0.20468515 -0.03610129 -0.10995338 -0.16623476 -0.24409086
-0.33877444 -0.0027468815 0.29872343 0.24419631 0.2068809 0.20342347 -0.021251317 -0.19149104
0.021272477 0.029462343 -0.30061945 -0.0013930422 -0.214905 0.20551863 -0.017987866 -0.3522659
-0.3190715 -0.12133983 0.041087132 -0.23661788 -0.32913625 -0.07593947 0.33820373 -0.18521275
0.28290862 -0.13335699 0.088263884 -0.097044304 0.014124568 -0.41090563 -0.11015751 0.07866888
-0.13363272 -0.25748327 0.21616063 -0.31213287 -0.30075186 0.36274952 -0.20088327 -0.16983746
0.10783105 -0.4618785 0.1414448 -0.24129395 0.08644446 0.102447815 -0.21715789 -0.26486424
-0.28065225 0.016240682 -0.048102878 0.2073421 0.1124864 -0.13207082 -0.23422705 -0.12363396
-0.07887621 -0.21898101 -0.011517955 -0.24848191 -0.07262531 -0.23396197 -0.25687295 -0.0032457002
-0.12603447 0.13028762 -0.21057779 -0.025762795 -0.1567953 -0.05564087 0.08286248 -0.24456257

net.2.weight f4 [64, 128]
00000000: 458c f13d 95da b2bf 9c43 713d c883 04bf
00000010: a918 c73d b112 29bd abdd f73c e887 513f
00000020: 9a26 513b fc35 5fbe c5d5 37bf 8f5d 10be
00000030: 4356 d7bd 4281 083c 6569 723e 8da9 2dbe
00000040: 297f 243f 7b75 38be cb48 4dbd 84fe 82bb
00000050: bb4e 6c3e c1c5 3e3e 6aca 703e 1a05 03be
00000060: 9d0c 97be cde3 4c3e 80db 9dbe 508f c4be
00000070: 6d77 9a3e 74f2 b13d 16a0 663d 4f71 30bd
00000080: ca92 a7bc 3120 293d 5c76 75be c8fa 4bbf
00000090: 8c49 343e 6de4 503e fb3c 3ebf f731 543d
000000a0: 9b5a 693d 0ad0 cbbe b869 043d f7e8 693e
000000b0: 331a ff3d 9dd7 febe ea81 0cbf ce32 273f
000000c0: 07cf 02bd 5c0d 473e c30e 20be db6c 8abd
000000d0: ea74 5c3c 1802 953e 2de4 8ebd 6fd2 5a3c
000000e0: 34de 56bf 9715 9a3e 8354 1f3e 2306 b1bd
000000f0: 73dc e0be 00ee 53bf 3794 8abe d94d d13d
00000100: a2e8 083d 31dd dbbd 13ff 933e dd55 16be
00000110: f405 e73e 36f6 79bc 2c4f 423c a5bc 9e3e
00000120: cff0 013f 33ba 673e 6a18 d1bd 7e0e ccbf
00000130: 5ce2 673e d111 6dbe 8a58 eb3c b91a 293d
00000140: 4225 11be 1120 06be 97bb 2d3c 64ea 9b3d
00000150: 7621 4ebd 1ae0 a0bf cd14 0b3f a1f1 983d
00000160: 458d d1be 4b82 c33e 1bda 63be 49fb 18bc
00000170: e06e bd3d d739 86be 7099 9f3d b226 843e
00000180: a3ce 2dbf 6dba 43bc 9356 c6be 1ac0 00bf
00000190: 1575 a1bc cd11 fcbd dd0d 19be 2186 c83e
000001a0: 5b6b 8abd 4191 f6be c99e 9dbd 11f4 83be
000001b0: 55c9 e83a 0806 f93e 5228 85bd edea aebe
000001c0: 26c9 a53e cdc7 c43e 8ffa 07bd 795e b83d
000001d0: db2a 9e3d f343 823e 3c5c 953e a589 843e
000001e0: 83fe 273f 0c40 c63d 8fab f53e f8a9 c53e
000001f0: 6b58 b1bb 34ed 403d dd14 f1be 8cc1 953e
00000200: bc23 873d 4e28 0fbd 3b25 203d 6b38 4cbb
00000210: fa1a cd3e f936 683d 1736 963d c638 74bd
00000220: a194 d2be a3d7 8dbd 05c2 cd3c 7bdb 173e
00000230: af3f 8cbd cffb 5f3d 64ab 0ebf 3f75 ce3d
00000240: 8dc3 09bd 41a9 133d dce4 923d e318 51bd
00000250: b649 153e 358d 8e3f 351d 8c3d eb09 c93d
00000260: 060e 9d3d b490 373e c88d 983d 9b86 5c3e
00000270: 5d58 76bd a74c 503e 5e67 b33c f44c 2d3e
00000280: 5694 04bf d57e 70bc d6c1 d3bb c357 d7be
00000290: 82fa 583d 1f4f d6bd a202 62bc 94f0 0a3e
000002a0: 0893 bb3d 8525 8ebe 6c3b 59bc ad65 a53d
000002b0: a812 933e 74cb 013e 3d1e b93c 7231 37bf
000002c0: 0ea9 c03c c01e b53d f9f6 aa3a d752 14be
000002d0: 7bc4 8cbd bace d8bd 24bd 843e 22ba ce3c
000002e0: db0d cd3b b111 d43d cd5c 743e 3cf8 7c3c
000002f0: e76d 3ebd a144 f6bc 5d78 4cbe 0f50 e73a
00000300: 9482 d0bc f5e7 d13d 514c 91bd 81cc c7bd
00000310: b932 0b3e 0a72 3a3d d80f 033e e7b0 8b3e
00000320: a790 743e 4506 48be 9558 5d3d cc19 e6be
00000330: 3c78 843e da0c 3dbe 63e9 4e3e effb b1bd
00000340: d8f2 323e 024c a9be 022f 9ebb ecb2 1b3e
00000350: 4caa c43d ff07 efbe d3ba dcba 3061 1dba
00000360: 83a2 bb3e 17c6 353d c9c3 0d3e 52e3 1c3e
00000370: 71a0 603e 5e5f 713e 4e54 1c3f d079 aa3d
00000380: 9826 d3bc 771b a43e ce12 88bd c020 91bc
00000390: 6870 03be 2546 0ebe 2d72 02bd d556 efbd
000003a0: 9a2f c3be fc98 f1be 3182 aa3d 1e45 363d
000003b0: fc58 e43d de59 e0bd 2109 643d e403 bfbe
000003c0: 5553 5fbe 05bc 103e 2b14 37be dac4 ac3d
000003d0: b19e 84bd af5e 563d d510 62bb 14ef e03e
000003e0: 5b0e 453d 25c2 ecbe 0109 babe 7638 6d3d
000003f0: c62f bd3d cf95 bfbc 41a5 febc 90e7 13be
0.117943324 -1.3972956 0.058902368 -0.5176358 0.097215004 -0.04127759 0.030257067 0.81848
0.0031913877 -0.21797937 -0.7181056 -0.1409819 -0.105145 0.008331599 0.23673017 -0.1695921
0.6425653 -0.18013565 -0.05011825 -0.003997626 0.23076908 0.18630125 0.23514715 -0.12794915
-0.2950181 0.20008774 -0.30831528 -0.3839059 0.3016924 0.086888224 0.056305014 -0.04307681
-0.020455737 0.041290466 -0.23970932 -0.79679537 0.17606181 0.20399638 -0.743118 0.051805463
0.056971174 -0.3980716 0.032327384 0.22842775 0.12456169 -0.49773875 -0.54885733 0.65311897
-0.031935718 0.1943869 -0.15630631 -0.06759044 0.013455609 0.2910316 -0.06977115 0.013355835
-0.83932805 0.30094597 0.15559582 -0.086437486 -0.4391819 -0.82785034 -0.27066204 0.102199264
0.03342498 -0.10735548 0.28905544 -0.14681192 0.4512173 -0.015256455 0.011859696 0.310033
0.5075807 0.22629623 -0.10209735 -1.5941923 0.22644943 -0.23151328 0.028728742 0.04128525
-0.14174369 -0.1309817 0.010603807 0.07613066 -0.05032488 -1.256839 0.54328614 0.07467962
-0.40928093 0.38185343 -0.2225117 -0.009337255 0.09249663 -0.26216003 0.07792938 0.25810772
-0.6789343 -0.011946303 -0.38737926 -0.50293124 -0.01970915 -0.12308083 -0.14946695 0.39164832
-0.06758758 -0.48157695 -0.076963015 -0.25772145 0.0017760197 0.48637414 -0.06501831 -0.3416361
0.32380027 0.38433686 -0.033197936 0.09002394 0.07723018 0.25442466 0.29171932 0.25886264
0.6562273 0.09680185 0.4798245 0.38606238 -0.0054121516 0.047101215 -0.4708623 0.29249227
0.06598613 -0.034950547 0.039098006 -0.0031161557 0.40059644 0.05669305 0.073345356 -0.059624456
-0.4112902 -0.06925895 0.02511693 0.14829819 -0.06848084 0.054683503 -0.5573027 0.10080957
-0.033633757 0.036050085 0.07172558 -0.051049124 0.145789 1.1136843 0.06841508 0.09816345
0.076686904 0.17926294 0.074489176 0.21535723 -0.060142864 0.2034174 0.021899875 0.16923887
-0.5178884 -0.014678677 -0.006462316 -0.42059144 0.052973278 -0.1046431 -0.013794573 0.13568336
0.09158903 -0.27763 -0.013258796 0.08076034 0.2872517 0.12675267 0.022597427 -0.7155982
0.023518112 0.08843756 0.0013043574 -0.14484726 -0.06873413 -0.10586305 0.25925553 0.02523524
0.006257755 0.10354937 0.23863526 0.015440043 -0.04649153 -0.030062022 -0.1996779 0.0017647761
-0.02545289 0.102493204 -0.07094634 -0.09755803 0.13593568 0.045518912 0.12799013 0.27283403
0.23883305 -0.19533642 0.054039557 -0.44941556 0.25872982 -0.18461934 0.20206217 -0.08690631
0.1747545 -0.33065802 -0.004827381 0.15204972 0.09602794 -0.46685788 -0.0016840346 -0.0006003557
0.36647424 0.044378366 0.13844217 0.15321091 0.21936204 0.23571536 0.6106614 0.08324015
-0.025775239 0.32052204 -0.06644212 -0.017715812 -0.12835848 -0.13893946 -0.031847168 -0.11686484
-0.38122255 -0.4718703 0.08325613 0.04449951 0.11149785 -0.10954641 0.05567277 -0.37307656
-0.21809132 0.14134224 -0.17878787 0.08435984 -0.064755805 0.05233639 -0.0034494896 0.43932402
0.048109394 -0.4624187 -0.36334994 0.057915173 0.09237628 -0.023386864 -0.031084659 -0.14443803

net.2.bias f4 [64]
00000000: 6bac 32be 003f 383e dc06 4ebd a6f6 f2bc
00000010: 4b8a a73d 0c6a b5bc e77c febb 5de2 ccbd
00000020: a134 b63d 86e6 efbc 86a3 cc3d 531b 463c
00000030: ea7e 34bd 4560 9abd 36b6 32bd c80b 1d3d
00000040: 3aad b33d 950e fcbd a4b5 ebbd d6fc c23d
00000050: 6e0a 993d 4cbc 76bd 457a ea3d b866 0c3e
00000060: a91f 22be 1412 4abc 1a83 5fbe b965 9b3d
00000070: 49ec 1bbd 2d06 95bc 38c1 9fbd 45d1 32be
00000080: 0957 983c eefb 3fbd 269f 91be bc9d b73d
00000090: d842 673c fa3f 643d da37 ef3d 8956 6bbb
000000a0: e134 c8bc ba14 913c 4948 6f3d 0bff f239
000000b0: 3bab 0a3e 377b 67be c6df b03d 2a4e ca3b
000000c0: 9029 2cbe c8fd 1c3e 81a1 af3c 3518 d4bd
000000d0: 2695 643e 44e9 f7bd 2080 67bd 00ef 333d
000000e0: 9485 2abd af5c 393d f7b8 2c3d b917 c93d
000000f0: ab2f 69be a949 4c3d dfff c1bc 5070 f73d
-0.17448585 0.17992783 -0.05029951 -0.029658627 0.08180674 -0.022145294 -0.0077663544 -0.10004113
0.08896757 -0.029284727 0.09992127 0.012091476 -0.044066347 -0.07537893 -0.0436308 0.038341314
0.08773275 -0.12307469 -0.115092546 0.09520881 0.074726924 -0.060238168 0.11449102 0.13711059
-0.1583239 -0.012333412 -0.21827355 0.075877614 -0.038067136 -0.018191421 -0.078005254 -0.17462642
0.01859619 -0.04687112 -0.28441733 0.08965632 0.014115058 0.055725075 0.11680575 -0.0035909733
-0.024439277 0.017710079 0.058418546 0.0004634786 0.13541882 -0.22605596 0.086364314 0.0061738687
-0.1681273 0.15331185 0.021439316 -0.103561796 0.2232252 -0.12105039 -0.056518674 0.0439291
-0.041631296 0.045254406 0.042168584 0.09818978 -0.2277209 0.049874935 -0.02368158 0.12081969

net.4.weight f4 [32, 64]
00000000: 7b84 643f ca3f 453e db98 8ebd ddbb 3a3e
00000010: 7e1b 0fbd 01c7 d839 0055 d73c b1d5 0b3f
00000020: 9273 ca3e 0ec2 033e b815 8abd 17c8 f13d
00000030: b364 223e 0b25 9bbd 8c5c 113f e1bc be3e
00000040: 68bc bc3c 3540 a33e 8b4e 1e3e 5200 40bc
00000050: dbbe 1d3e 9d2d 1fbc 15c1 543e 99c4 b0bc
00000060: bb3a c4bc 17de 003e 2d2f 9a3e cb98 953e
00000070: f5fe 81be 4114 97bc a5c3 a0bd 0d3f 3e3e
00000080: d072 823d ae67 fcbc 3bd0 15be 7481 62bd
00000090: 05da 063e 6906 203f 07c6 0dbe 6ffb 83bd
000000a0: 27c9 0d3e efe4 9bbd ceb8 d7bd 1e3b 263e
000000b0: 5514 64be 8166 183f 9c5e 46be e4c9 0c3d
000000c0: 5660 84be e02c edbd 8d6e 0d3f 8462 e83d
000000d0: 8a0e dcbd 254b 993e 9d66 42bc d0b4 243c
000000e0: ffce 123d 7421 983c a993 cabd 6dfc 89bd
000000f0: 0cbb 083f fe79 d33e b38b 403e 752f cebd
00000100: 9440 e3be 08ab 4f3e d1d9 f03b 0955 8abd
00000110: 4bca 183e 93e1 f2bd 9a3c f33c c7e5 b9bd
00000120: 63a4 59be 4f2e 11bd 29c6 f73d 2563 ba3d
00000130: 2be3 e6bd 4488 e13d f52d 91be fb43 633e
00000140: 3d40 90bd 1d3d 903e 661b 96bd ad34 c63e
00000150: 3e7d 3b3e 4ed7 053e 1484 ea3e 74cc 10be
00000160: e04d 6ebd b4ee e0bc e79e 9cbd 98e1 113f
00000170: 29a4 cfbd 7b8b 173d 7ad4 a13d 4be4 bdbe
00000180: 6d62 a33e 9667 5c3e e93a b2be d5f9 4f3e
00000190: 810c cbbe 0153 3a3f 58bc 4e3e c822 3abe
000001a0: d8d2 1a3e 5e50 8e3d 99e1 bfbd fe5a de3d
000001b0: a459 ed3d 9ae7 80be 0899 0a3e 025a 2dbd
000001c0: 662e b1be c726 9bbe 71dc 3b3f a553 aabd
000001d0: dd9b e8bd c264 793d f9f6 31be eca0 e13c
000001e0: e52f 36bd 9260 2bbe 303a 7bbd 59e2 bbbe
000001f0: ed9a 99be 35f6 47be 922e 4e3e 74dc 853d
00000200: 771d f2be c581 213e b02f 533d f873 7fbd
00000210: 6306 233e 7097 593d 4387 963d 9638 debd
00000220: 943f 65be 1a08 69bd 0bda dd3d 9c63 383e
00000230: c39f 763e f1c8 093e fa97 a8be 3e8c 373e
00000240: 956e 573d 1108 9d3d 9ec1 fc3c ca98 c93e
00000250: e3e6 e93a d0af 7cbc a056 ca3e 4a78 8f3d
00000260: 0123 8ebd 3ee8 08be 9fa9 88be b699 403f
00000270: ff7f 6c3d 213f 253c ecc8 3f3d 28e7 aebe
00000280: 6afb 253e ec2f 893e a62a 69be 97bd 153e
00000290: 253e 99be 16d7 b83e 8fc0 973d fe81 16bd
000002a0: fd36 c63d 6f34 2abb b719 84bc ce83 b53e
000002b0: 5f0c 19bc 5a2b b3be 1e92 543c f4de a9bd
000002c0: 19f3 23be 0a19 a3be 73bf 323f f510 393e
000002d0: 3648 2a3d 2178 5a3d 9dd6 e8bc 965b dbbd
000002e0: 307d 133e 7ed6 6dbd 9b2b 32bd 9797 0ebf
000002f0: 22c0 01bf 9fe2 4dbe f834 853e 3ae6 a63d
00000300: d6d7 373f ee25 383e 9966 f33d 29df bfbc
00000310: dc19 f3bb 84f5 9d3d 393e c43d 7bc1 443f
00000320: d3d1 273e a3b5 b5bc e92a 3abd 5b0a 893d
00000330: 8210 8d3c c662 d13d 4fb7 843e ad28 e13c
00000340: 8894 13be 230a e23d 5b96 093d 3cbf 5dbd
00000350: 104e dabc a0e2 88bd 8229 cf3c 43ab 13be
00000360: 0ae7 b8bd 3cfb 74be bf2f ed3d 1e9b 363c
00000370: 3727 c6bd 289b 03be 8875 d93d 3184 193e
00000380: d3fa 2b3e 4904 d3bc 19ba 613e c421 ecbd
00000390: dc68 e8bb c6bf 483e 1ea4 57be 6d08 7bbe
000003a0: 963d 9d3d 2d0d 25be 9aa1 d03d 1696 29bd
000003b0: b8a4 69be 4c7a 9b3e e70a 09be e2f8 bf3c
000003c0: 20b2 bb3e b851 da3e f9e5 fd3d e798 c03d
000003d0: 46d4 49be 8cc2 7a3e 9624 c23c 6e0e ee3b
000003e0: 24fa ecbd eb73 bdbe a148 e63d b23e 053c
000003f0: 61e5 8a3e b4dd 603f 0254 153e 7ac3 1abe
0.8926465 0.19262615 -0.069627486 0.18235727 -0.034938328 0.00041347 0.026285648 0.5462294
0.39541298 0.12866995 -0.06742424 0.11805742 0.15858726 -0.07575425 0.5678184 0.37253478
0.023039058 0.31884924 0.1545965 -0.011718826 0.15404837 -0.009715465 0.2077678 -0.02157812
-0.023953786 0.1258472 0.30114117 0.29218134 -0.2538983 -0.018442275 -0.07849816 0.1857874
0.06369555 -0.030811157 -0.14630215 -0.055299237 0.13169105 0.6250978 -0.13845073 -0.064444415
0.13846265 -0.07612025 -0.105332956 0.16233489 -0.22273381 0.5953141 -0.19372028 0.034372225
-0.25854748 -0.11580825 0.5524681 0.11346915 -0.107449606 0.29940143 -0.011865285 0.010052875
0.035841938 0.01857064 -0.09891445 -0.067375995 0.5341041 0.4130401 0.18803291 -0.100676455
-0.44385207 0.20280087 0.0073501845 -0.067545004 0.14920919 -0.11859431 0.029691983 -0.0907703
-0.21254115 -0.035444554 0.12098343 0.091009416 -0.112737976 0.11012319 -0.28355375 0.22193901
-0.070435025 0.28171626 -0.073294446 0.38712063 0.18309495 0.13070413 0.45803893 -0.14140493
-0.058179736 -0.027457573 -0.07647496 0.56984854 -0.10138733 0.036998253 0.07901855 -0.37088236
0.3191103 0.2152389 -0.3481057 0.20310147 -0.39657977 0.72782904 0.20189035 -0.1817733
0.15119493 0.069489226 -0.09369201 0.10857199 0.11589363 -0.25176698 0.1353494 -0.042322166
-0.34605712 -0.30303022 0.7338324 -0.08316735 -0.113578536 0.060887106 -0.17379369 0.027542554
-0.04447927 -0.16736057 -0.06133479 -0.36696127 -0.30001011 -0.19527514 0.20134953 0.06536189
-0.47288105 0.1577216 0.05155915 -0.062366456 0.15920405 0.053122938 0.07350018 -0.10850637
-0.22387534 -0.056892492 0.10832604 0.18006748 0.24084382 0.1345556 -0.3292845 0.17924592
0.052595694 0.07667554 0.030854043 0.3937438 0.0017845299 -0.015422776 0.39519215 0.07005365
-0.0694027 -0.13369843 -0.2669191 0.75234544 0.057739254 0.010085852 0.046822473 -0.34160733
0.16209188 0.26794374 -0.22770175 0.14623104 -0.29930225 0.36101598 0.074097745 -0.036745064
0.09678457 -0.0025971194 -0.016125543 0.35452121 -0.009341328 -0.34994012 0.01297429 -0.08294478
-0.16010703 -0.3185504 0.6982338 0.18072875 0.041572772 0.05333722 -0.028422648 -0.10710828
0.14403224 -0.058065884 -0.043498617 -0.5570006 -0.50683796 -0.2010598 0.26016974 0.08149381
0.71813715 0.17983219 0.11884803 -0.02342184 -0.007418854 0.07712844 0.095821805 0.7685773
0.16388635 -0.022181338 -0.04545108 0.06691428 0.017219786 0.10223918 0.25921103 0.027485216
-0.14412129 0.1103709 0.033590656 -0.054137453 -0.026648551 -0.0668385 0.025288347 -0.144208
-0.09028442 -0.23923963 0.115813725 0.011145381 -0.096754484 -0.12852156 0.106181204 0.14991833
0.167949 -0.02575888 0.22043647 -0.11529878 -0.0070925783 0.19604406 -0.210587 -0.24514933
0.07677762 -0.16118307 0.10187073 -0.0414029 -0.22816741 0.30366743 -0.13383065 0.023434106
0.36659336 0.4264047 0.123973794 0.09404164 -0.19709882 0.24488276 0.023699086 0.0072649037
-0.11571148 -0.370025 0.112443216 0.0081326235 0.27128127 0.8783829 0.14582828 -0.15113631

net.4.bias f4 [32]
00000000: 1cb1 2cbe a300 2d3e 19cd 773e 14ce 81be
00000010: 1c6d bb3d 285d 0cbe 7320 843d b95f 74ba
00000020: 51f5 bdbd 13e8 1d3e e514 8bbd 416c 953c
00000030: b81f 073e dca1 6fbd 217c 9a3d 3c7b 353e
00000040: 463d 1e3d 7e80 0f3e 0b04 793e 5b1c 8e3b
00000050: e307 353e fc62 8f3d 8654 4a3b 3ff5 963c
00000060: ad73 8a3e d832 1e3e a99c e5bd 7ef1 483e
00000070: 290c 113e 621f 9a3d 7fa5 a33d 0012 cebd
-0.16864437 0.16894774 0.24199332 -0.25352538 0.0915167 -0.13707411 0.06451502 -0.0009322125
-0.09275306 0.1542056 -0.06791095 0.018240096 0.13195693 -0.05850397 0.07543207 0.17722791
0.038632654 0.1401386 0.24317949 0.0043368763 0.1767879 0.07001302 0.0030873134 0.01842749
0.2704138 0.15449083 -0.11211521 0.19623372 0.14164795 0.07525517 0.0799055 -0.10062027

net.6.weight f4 [16, 32]
00000000: 61e7 9f3e df3a 3c3e 49c7 ce3e 9e0b 9ebe
00000010: dec3 b8bd cfb4 973c f1b7 8dbd 7ffd 8ebd
00000020: 844e fc3d b2e2 3b3e 6e8f df3d 7633 51be
00000030: 20de a63e 1507 283e a1e5 c6be 69d2 933e
00000040: 3741 a43d 64a9 993e 2765 be3e cc81 aa3e
00000050: 7768 c43e b922 fa3c 1381 14bf a856 1c3e
00000060: 6ebb 933e e66c 1f3e 7243 ebbd 1eb0 e43e
00000070: 8afb c83d 203e 9d3e f4e5 e73c 1edd ce3d
00000080: 4a78 a33e 35d5 f5bd 34c2 a7be 91a2 7e3e
00000090: d9de 07bd 0ec5 cc3e a172 09bc 1c9e 6a3d
000000a0: 1568 373e a7cc 9b3e 2f95 1cbc 7e8d ac3e
000000b0: c51b 5c3d 8751 8d3e 66aa 32be 45c4 2d3d
000000c0: b8bd babd b4b0 68be 88f4 bfbc a162 7b3d
000000d0: 7be1 9cbe b49c 3cbd 4e06 1ebf 443f d6bd
000000e0: dcc6 6dbd fadb 9a3d e010 ec3e abf3 513d
000000f0: f490 9d3d 0f97 65be 52fc d4bc de1c f93e
00000100: fb94 403e 0696 033f 1c7c 593f 8512 e9bd
00000110: 2751 063e 7d96 7fbe 96be a8bd 03ba 8bbc
00000120: 0e67 7d3e 42ba cc3e 2f1a d7bd a431 563e
00000130: 3b6d 873e 51ff 87bd a2f3 133f 8e07 5f3d
00000140: c2d7 8abb b6a2 383d 02af 823e 3ca6 82be
00000150: b44a 7a3e 6524 24bd 0f65 273f 8f59 cd3b
00000160: 2564 1bbd 654f 3cbd d92f 92be 475d d53e
00000170: 1a79 7b3e 7c0b 223e 693d 1bbe 2c3d e7be
00000180: 7d0f cd3e b34f 263e 8a09 4a3d 70b3 0c3f
00000190: 00b1 833d 5466 503d 6790 2fbd e2f3 7ebd
000001a0: 63ad c23e b068 1a3d f1cf e83c 9e4f 193f
000001b0: e45e 853d 07ff 1c3e 58ea fd3e 2909 c8be
000001c0: 47a9 f73c 4299 aebd f79d d1bd f5b8 20be
000001d0: c63e 3abe 2eb4 c6bd cf59 063f 2f2d 45be
000001e0: 8b16 c7be e4ef dc3b 81d5 af3e d9d8 ed3d
000001f0: 6904 b33e a83f 9fbe 5d7b a7bd 1cc9 cb3e
00000200: bd24 023d 5f50 e83d 7a21 d23e d74e 36be
00000210: cb78 3abd 61e5 72be 0447 83bd 2443 c43b
00000220: 3926 9cbd 0811 133e dd62 94bd 426e 473e
00000230: 0ae6 4c3c 78d9 133e 8082 e03e 19d5 6d3e
00000240: 36ea 5bbd f586 443d 0a6a 1b3e f983 abbe
00000250: b958 f33c 624c 88bd f0ad 173f 549b c6bb
00000260: 8cfc 033e 8dfa 0f3e 934a d3be 28cd 4f3e
00000270: 2800 e63d 33ed 323e a965 18bd 98d2 81be
00000280: 1946 c73d f426 9f3e 6c35 303f f33c 1e3e
00000290: dd2a 0a3e bf47 ebbd 11a3 05be 55c0 75bd
000002a0: f384 a7bd 9f4d 213e c37c 6d3d 0552 0a3e
000002b0: af47 7f3e af0c 53bd d9ad 343f 548e 783e
000002c0: b843 20be 1ae1 b73c 90db 883e 2203 83be
000002d0: d039 9f3c 0d7e dbbc c65a 333f 1678 d9bb
000002e0: d6ac 0bbd 32bc 42bd 31b8 71bd f990 3e3e
000002f0: a331 3a3e e678 113e 336a 283e f638 f4bd
00000300: 9251 863e 213e d93e ed47 48bd d450 bbbe
00000310: 9837 71be dbde a13e fd70 ec3c e60e 613c
00000320: cfa2 713e 5004 5f3e 2c77 843d 0f0e a6be
00000330: 2240 873e 0523 6d3e 28b4 fdbe afd3 e23e
00000340: ab40 c4bd 853b b83e 9a97 623e efd9 223f
00000350: b4e4 1e3e 689f 92bd 4866 3fbf a15e 603c
00000360: a37b d53e f2b2 903e 9620 6bbc facb aa3d
00000370: 53fb f93d 34a8 a83e c27c c5bc 03bf 7ebe
00000380: fe1b 033e c8c5 9fbd 867d 76be c666 d83c
00000390: ef5a 1a3e 76fb cbbd e2fb a43a 80db 03bb
000003a0: 51f9 f93c cd1d 473d f9c6 79bd 694e c23d
000003b0: 6e72 af3d 381a 253d 6329 8fbe 06d9 2d3c
000003c0: 5ad6 3bbd 88a5 af3b 752a 883d 8f44 d33d
000003d0: 3b5c d3bd f47c 0fbe 21dc 08be 6a38 9bbe
000003e0: 625c 08be 2e87 5bbd af8c 283e d09a 073d
000003f0: 996d a23d 6223 f4bd b6ce fd3d 4978 cbbd
0.31231216 0.18381833 0.40386418 -0.30868238 -0.09021734 0.018518833 -0.0691985 -0.06981944
0.12319663 0.18348196 0.10916029 -0.20429787 0.32591343 0.16408952 -0.38847068 0.28871468
0.08020251 0.30012047 0.37186548 0.33302152 0.3836095 0.030534135 -0.5800945 0.15267432
0.28853935 0.15568885 -0.114874735 0.44665617 0.09813602 0.3071146 0.028307892 0.101007685
0.3192771 -0.12003557 -0.32765353 0.24866702 -0.03317151 0.3999409 -0.008389146 0.05727969
0.17910798 0.30429575 -0.0095570525 0.337017 0.05373742 0.27601263 -0.17447814 0.042423505
-0.09118217 -0.22723657 -0.023432031 0.061373357 -0.30640778 -0.04604788 -0.6172837 -0.10461286
-0.058050975 0.075614884 0.46106625 0.05125777 0.07693663 -0.22420906 -0.025999222 0.48654836
0.18806832 0.5140079 0.84955 -0.113804854 0.13116895 -0.2495975 -0.082394764 -0.01705647
0.24746343 0.39985853 -0.10503041 0.20917374 0.26450524 -0.066404946 0.5779363 0.054450564
-0.004237146 0.04507705 0.25524145 -0.25517452 0.2444256 -0.04007377 0.6538858 0.0062667797
-0.037937302 -0.045974154 -0.2855213 0.41672727 0.24557915 0.15824693 -0.15160145 -0.45163858
0.4005088 0.1624134 0.049325503 0.549613 0.064302444 0.050878838 -0.042862322 -0.062244304
0.3802291 0.037697494 0.028419467 0.5988711 0.065122396 0.1533166 0.49592853 -0.3906949
0.030232085 -0.08525325 -0.102352075 -0.15695556 -0.18188009 -0.09702335 0.5248079 -0.19255517
-0.38884386 0.0067424644 0.34342578 0.11613626 0.34964302 -0.31103253 -0.081778266 0.39801872
0.031773318 0.113434546 0.41041166 -0.17803513 -0.045525353 -0.23720314 -0.064100295 0.005989449
-0.07624478 0.14361966 -0.07245419 0.19475654 0.012506017 0.14438426 0.43849564 0.23225822
-0.053690158 0.047980268 0.1517717 -0.33499125 0.029705392 -0.06655194 0.5924978 -0.006060997
0.12889308 0.14060421 -0.41267833 0.20293105 0.112304986 0.17473297 -0.037206326 -0.25355983
0.09730167 0.31084406 0.68831515 0.15452938 0.13492914 -0.11488294 -0.13050486 -0.059997875
-0.08179655 0.15752266 0.05798031 0.1350785 0.24929689 -0.051525768 0.7057777 0.24273044
-0.15650833 0.022446204 0.26730013 -0.25588328 0.019436747 -0.026793504 0.70060384 -0.00663663
-0.034100376 -0.04754276 -0.05901355 0.1860999 0.18182997 0.14206275 0.16446762 -0.11924927
0.26234108 0.42430213 -0.04889672 -0.36585104 -0.23556364 0.31615338 0.02886247 0.013736462
0.23597263 0.21778989 0.06468043 -0.324326 0.26416117 0.2315789 -0.4955151 0.44302127
-0.09582647 0.3598291 0.22128144 0.6361379 0.15516931 -0.071593106 -0.74765444 0.013694436
0.4169589 0.28261524 -0.014351031 0.08339687 0.122061394 0.3294083 -0.02410734 -0.24877553
0.12803647 -0.07801396 -0.24071321 0.026416194 0.15073751 -0.09960072 0.0012587274 -0.0020119846
0.030514391 0.048612405 -0.06098077 0.09487612 0.085667476 0.040308207 -0.27961263 0.010610824
-0.04585872 0.005360309 0.06648723 0.10315811 -0.10320326 -0.1401251 -0.13365223 -0.30316478
-0.13316491 -0.053595714 0.16459917 0.033106625 0.0793106 -0.11920811 0.123929426 -0.09935052

net.6.bias f4 [16]
00000000: 27aa 523e 481f 91be f262 623e cb3c 5bbd
00000010: f7a7 be3e 1aed 373e de85 683e c793 b0be
00000020: edfb 62bc 4d54 81be f997 2dbe cdef 8b3e
00000030: 5f5e 45bd 43f8 873e 0db4 433e 07b8 8e3e
0.2057272 -0.28344178 0.22108057 -0.053524774 0.37237522 0.17961541 0.22707316 -0.34487745
-0.013854009 -0.2525963 -0.16952504 0.2733139 -0.048185702 0.26556596 0.19111653 0.27874777

net.8.weight f4 [9, 16]
00000000: 0f4b bfbd 87f3 8bbd cc53 423e 3ad6 663e
00000010: 1738 503d fe11 363e 200e a8bf 948f 29bf
00000020: d552 193e dcdb a4bf bf6e 98be 726e 7fbe
00000030: bb4d d53d 6705 633f 3fa3 a13e a40e a0bd
00000040: 6f33 4dbf e265 aabe 44df 05bf 41c0 c4be
00000050: fc3c 93be 06ab debe 95bd 59bf 08e0 64be
00000060: acaf edbd 9d8e f1bd 0c12 aa3d 684b 89bf
00000070: d13f bcbe e15f 2fbe 8aa5 5dbf 9c56 cebe
00000080: bc51 0abf cd49 21bf 7dab eabe 041b c0be
00000090: 777a 83be 783d acbe cc8a 81bf 15cf efbe
000000a0: 0855 6a3d 89cd f3be d3af 7b3e 0982 38bf
000000b0: be65 12bf 0f31 033e cb17 d1bf 9174 d7be
000000c0: ef38 4cbf 18fa 2cbf d181 09bf 4f9a e9be
000000d0: a506 85be 59e7 acbd 622b 53bf 458f 63be
000000e0: dc20 223e d85a 88be 3452 e0bd 9bbe 54bf
000000f0: 80e1 2abe 8188 fbbc f80e d2bf 47fa 63be
00000100: 9fbf 4cbf d4cb 17bf 4bfc b3be dfd8 c9be
00000110: ec25 e9bd 1398 e0be e2dd 28bf ccbc 01bf
00000120: 88fa efbd 7d05 8abe 0004 8d3d 9397 8ebf
00000130: b6a3 93bd d680 2abd 3852 cebf b202 baba
00000140: 6e65 d8bb 15e7 e93e 904f 61be 579f 103e
00000150: b4fe 87be f2ad 98be a87e a73e e0c7 273e
00000160: 099a 693e ad79 8f3e 11f7 63be 38bc a03e
00000170: cad1 c23e 568a b4be a28a 00c0 a31c f1be
00000180: 19a8 743e 3fc6 3abe faa8 dc3e 06a1 f5be
00000190: ee37 be3e ef49 883e c8f8 8e3e f8c9 c33d
000001a0: 0469 b7bd 0d54 78be c430 41bd 9cb4 af3e
000001b0: 5c2d 20bf d108 d5be 94fd e8bd 49f3 ab3e
000001c0: 4853 82bf 8dd8 9c3d 4f60 813e fa63 023f
000001d0: df58 9c3e 7ffd bf3e 8c3d 9ebf fe0f 8bbd
000001e0: d2ce 673d 85c9 ff3e ba5c 41be 2ca1 83bf
000001f0: 723a fdbd abd0 a43d d45f b5be 5e81 0b3f
00000200: 0619 c03d ec1f 0ebe 5d85 90bf df07 20bf
00000210: 8f0f 12be 225f 34bf 2104 2a3e 76e2 84be
00000220: 8fc4 4ebe 66dc 03bf d8e9 15be c710 173e
00000230: 79cd 263f d8c5 283f 3509 683e 3cf4 55bf
-0.09340488 -0.068335585 0.18977278 0.22542658 0.05083474 0.17780301 -1.3129311 -0.6623471
0.14973004 -1.2879596 -0.29771993 -0.24944475 0.104152165 0.8868012 0.3156986 -0.078152925
-0.80156606 -0.33280855 -0.522938 -0.38427928 -0.28757465 -0.43489856 -0.85054904 -0.22351086
-0.116057724 -0.117947794 0.083042234 -1.0726137 -0.36767438 -0.17126419 -0.8658072 -0.40300453
-0.54030967 -0.63003236 -0.4583396 -0.3752061 -0.2567937 -0.33640647 -1.0120482 -0.4683768
0.05721 -0.47617748 0.2457879 -0.7207342 -0.57186496 0.12811683 -1.6335386 -0.4208112
-0.79774374 -0.6756911 -0.5371371 -0.4562554 -0.25981632 -0.084425636 -0.8248807 -0.22222622
0.15832847 -0.26631808 -0.10953179 -0.8310334 -0.16687584 -0.030704739 -1.6410818 -0.22263442
-0.7997989 -0.5929539 -0.35153422 -0.39423272 -0.11384186 -0.43866023 -0.65963566 -0.50678706
-0.11717707 -0.26957312 0.068855286 -1.1140007 -0.0720896 -0.041626774 -1.6118841 -0.0014191477
-0.0066038882 0.45684114 -0.22003007 0.14123283 -0.2656151 -0.2982021 0.3271382 0.1638484
0.22812666 0.2802252 -0.22262217 0.313936 0.3805068 -0.35261792 -2.0084615 -0.4709216
0.23892249 -0.18239687 0.4309767 -0.47974414 0.37152046 0.26618907 0.2792418 0.09560007
-0.08955577 -0.24250813 -0.047165647 0.34317482 -0.6256921 -0.4160829 -0.11376491 0.3358405
-1.0181665 0.07658491 0.2526879 0.509338 0.30536553 0.3749809 -1.2362533 -0.0679016
0.056593724 0.49958435 -0.18883029 -1.0283561 -0.12364663 0.08047613 -0.35424674 0.54494274
0.09379773 -0.13879365 -1.1290699 -0.6251201 -0.14263748 -0.7045766 0.16603138 -0.25954026
-0.20192169 -0.51508176 -0.14639986 0.14752494 0.65157276 0.65926886 0.22659762 -0.835758

net.8.bias f4 [9]
00000000: 9ad5 fdbe 1b39 a0be fea5 a8be ebea 31be
00000010: c5bd f0bd cc42 51bd 8a07 eebd 3f14 1cbd
00000020: 28ec be3c
-0.49577028 -0.31293568 -0.32939142 -0.1737477 -0.11754946 -0.051089093 -0.11622532 -0.038105246
0.023305967
