MsPacman_DQN_DNN_.pth (torch, 57189 bytes, 10 tensors)

net.0.weight f4 [128, 16]
0	0xbe610e82	-0.2197819
1	0xbeb87f19	-0.36034468
2	0x3e38925d	0.18024583
3	0x3dd43567	0.10361748
4	0xbe9a4810	-0.30133104
5	0xbe2f5c1c	-0.1712498
6	0xbc8ebb9c	-0.017423443
7	0x3ef99bac	0.4875158
8	0xbd509d52	-0.050931282
9	0xbf1102da	-0.56644976
10	0xbe265539	-0.16243447
11	0x3ed5b61d	0.41740504
12	0xbc4d380f	-0.012525572
13	0xbea83c41	-0.3285847
14	0xbe8e2210	-0.27760363
15	0x3e55d4b9	0.20881929
16	0xbbb82730	-0.005619906
17	0xbeb88037	-0.3603532
18	0x3c675390	0.014119044
19	0xbe9ee820	-0.31036472
20	0x3e228b44	0.15873438
21	0xbdaca5c6	-0.08430056
22	0xbe93eb6f	-0.2889056
23	0x3f1af653	0.6053211
24	0xbd0c8f42	-0.03431631
25	0xbeb467da	-0.35235482
26	0x3f075086	0.52857244
27	0xbec7edff	-0.39048764
28	0xbe0238f9	-0.12717046
29	0xbea0a3a1	-0.3137484
30	0x3bb87e12	0.005630263
31	0xbe8f7226	-0.28016776
32	0x3c8ae305	0.016953954
33	0xbec81847	-0.39081022
34	0xbea118d3	-0.31464252
35	0xbe42ae86	-0.19011888
36	0xbe81f586	-0.25382632
37	0xbeabc547	-0.33548948
38	0x3d84b38a	0.06479557
39	0xbf33fc76	-0.703071
40	0xbe014597	-0.12624203
41	0xbecef2bf	-0.40419576
42	0x3e96d5c4	0.29459965
43	0x3ebea051	0.37231687
44	0x3e481ebe	0.19542977
45	0x3e63cd5c	0.22246307
46	0x3c376084	0.011192445
47	0xbd245396	-0.040118776
48	0x3e4e2424	0.20130974
49	0xbdb5a4b2	-0.08869304
50	0x3e6f1da0	0.23351145
51	0x3ed0b514	0.40763152
52	0xbdf194a4	-0.11795929
53	0x3e125b32	0.14292601
54	0x3e82a192	0.25513893
55	0x3fa7d34b	1.3111356
56	0xbdff89d7	-0.12477463
57	0xbebfd4d3	-0.3746706
58	0xbe7b18e6	-0.24521217
59	0x3cdb0ce8	0.026739553
60	0x3d635bb0	0.055507362
61	0x3d88d1e2	0.06680657
62	0xbeb599a5	-0.35468784
63	0xbdf0cfb9	-0.1175837
64	0xbe1e6ef6	-0.15472016
65	0xbe992f5a	-0.2991894
66	0xbe482269	-0.19544376
67	0x3dec3987	0.1153441
68	0xbeab3a2b	-0.33442816
69	0x3bf5aed1	0.0074976464
70	0xbebc397a	-0.367626
71	0x3f0142cc	0.5049255
72	0xbe6e51e8	-0.23273432
73	0x3e0fb11c	0.14032406
74	0x3ea57b4c	0.3232063
75	0x3e0e2d3f	0.13884448
76	0xbd8781f8	-0.066165864
77	0xbf2eaba2	-0.6823064
78	0x3e4b6e27	0.19866239
79	0x3c80924c	0.01569476
80	0xbcbf3df5	-0.023344973
81	0xbe536b96	-0.2064651
82	0xbecd204d	-0.40063706
83	0xbcfe97d5	-0.031078259
84	0xbd0ae591	-0.033910338
85	0xbe540631	-0.20705487
86	0xbcf50d82	-0.029913668
87	0x3efe15a6	0.4962589
88	0xbebde609	-0.37089565
89	0xbdb0a5de	-0.08625387
90	0x3f04e411	0.519105
91	0xbbf42508	-0.0074507035
92	0xbebbac02	-0.3665467
93	0xbe6616c7	-0.22469626
94	0xbd151b89	-0.036403213
95	0xbe1ee48f	-0.15516876
96	0x3e1322df	0.14368771
97	0xbddf01d7	-0.10889023
98	0x3ecbbeb9	0.39793947
99	0xbe37de65	-0.1795593
100	0xbe38bd34	-0.18040925
101	0xbbd654bd	-0.0065408633
102	0x3d19a480	0.037510395
103	0xbe5703e6	-0.20997581
104	0x3cfa628e	0.030564573
105	0xbede170e	-0.43376964
106	0xbe78d3ae	-0.242995
107	0x3e736d18	0.23772085
108	0xbec1101b	-0.377076
109	0xbd995c2e	-0.07488285
110	0x3e59bbca	0.21263042
111	0xbb43cf5c	-0.0029878234
112	0x3dc9de87	0.09856897
113	0x3db8817c	0.09009072
114	0xbec1632a	-0.3777097
115	0xbe90543d	-0.2818927
116	0x3ddec5f6	0.10877602
117	0x3c330b76	0.0109280255
118	0xbd77a6f9	-0.060461972
119	0x3e5eb685	0.21749313
120	0xbdc94f3a	-0.098295644
121	0xbe06e203	-0.13172154
122	0x3eeee3af	0.46658084
123	0x3e8807ed	0.26568547
124	0x3ef66b7d	0.48128882
125	0xbe308891	-0.17239596
126	0x3e321cd1	0.17393805
127	0x3ea28e2f	0.31749102
128	0x3d6618ee	0.05617612
129	0xbeaceaf4	-0.33773005
130	0x3e2a4ab4	0.1663006
131	0xbe87d6e8	-0.26531148
132	0xbeb5e1f4	-0.3552395
133	0x3e4a6ee2	0.19768861
134	0xbc83c744	-0.016086228
135	0x3e7331fc	0.23749536
136	0x3d9dda64	0.0770767
137	0xbea3eefe	-0.32018274
138	0xbf2812cc	-0.6565368
139	0xbc59a7b7	-0.013284615
140	0xbc3d3308	-0.011547811
141	0xbe708a96	-0.23490366
142	0xbd914305	-0.07092861
143	0xbe452b91	-0.192549
144	0xbeab419d	-0.33448496
145	0xbe8da882	-0.27667624
146	0xbe9efc65	-0.31051937
147	0xbe93608f	-0.28784606
148	0x3defddde	0.1171224
149	0xbd6170e4	-0.0550393
150	0x3e041ac2	0.12900832
151	0x3ef25c7e	0.4733619
152	0xbd563b2a	-0.052302517
153	0xbe557311	-0.20844676
154	0x3ec8fd27	0.3925564
155	0xbe75e3c1	-0.24012662
156	0xbecbc326	-0.39797324
157	0xbd68c6a2	-0.056830056
158	0xbef14431	-0.47122338
159	0xbdaf1556	-0.085489914
160	0x3d606949	0.054787908
161	0x3decb177	0.11557286
162	0xbec57a63	-0.38569936
163	0xbdfdd942	-0.12394954
164	0x3e179d9a	0.14806214
165	0x3da45c97	0.080254726
166	0xbf07b42b	-0.5300929
167	0xbe399467	-0.18123017
168	0x3f0bf79c	0.54674697
169	0x3edc211c	0.4299401
170	0x3dd2d9e7	0.10295468
171	0x3e802fac	0.2503637
172	0xbe04eac2	-0.12980178
173	0xbef20281	-0.47267535
174	0xbe1f610d	-0.15564366
175	0xbd854324	-0.06506947
176	0xbe05cb8c	-0.13065928
177	0xbd09b18e	-0.033616595
178	0xbc7a2b78	-0.015269153
179	0xbd5f6e65	-0.05454864
180	0x3eaee9a5	0.34162632
181	0xbd37a150	-0.044831574
182	0xbe6b1439	-0.22956933
183	0x3e05173e	0.12997147
184	0xbeb6b015	-0.35681215
185	0x3dcdcf91	0.10049356
186	0xbdc2a3ac	-0.09503874
187	0xbeafb63e	-0.34318727
188	0x3e3b169e	0.18270347
189	0xbc2e3be7	-0.010634399
190	0x3e141a36	0.14463124
191	0xbe6177c8	-0.22018349
192	0xbe2a4f66	-0.1663185
193	0xbcb45a39	-0.022015678
194	0x3dc67b1c	0.0969145
195	0xbdfec206	-0.12439351
196	0xbd54210d	-0.051789332
197	0xbee53068	-0.44763494
198	0xbc048af8	-0.008089773
199	0x3ec52b51	0.3850961
200	0xbe1a00fd	-0.1503944
201	0x3e03869b	0.12844317
202	0x3eeb404e	0.45947498
203	0x3e151683	0.14559369
204	0xbe0d680d	-0.13809223
205	0x3e90c335	0.2827393
206	0xbd7abd6e	-0.06121581
207	0x3d42e9a0	0.047586083
208	0xbcf4c65b	-0.02987974
209	0x3cf5830f	0.02996972
210	0xbe2308d1	-0.15921332
211	0xbe69ea5c	-0.22843307
212	0xbdd2d66e	-0.102948055
213	0xbf1b8b31	-0.60759264
214	0xbe9030c2	-0.281622
215	0xbf0d6025	-0.5522483
216	0xbe8159d4	-0.25263846
217	0xbd374543	-0.044743787
218	0x3d04e956	0.03244909
219	0x3e96731b	0.29384694
220	0xbdeb0f6b	-0.1147755
221	0xbece2878	-0.4026525
222	0x3e69b81d	0.2282414
223	0xbe8f275f	-0.27959725
224	0xbb8ebb06	-0.004355791
225	0x3e803d82	0.25046927
226	0x3ce177f9	0.027523028
227	0x3c8858ee	0.016643967
228	0xbf2f5fd5	-0.68505603
229	0xbe108e67	-0.14116822
230	0x3dae1652	0.08500351
231	0x3f9171ce	1.1362855
232	0xbe61a8a8	-0.22036994
233	0x3da5b86f	0.080918185
234	0x3dcdd100	0.10049629
235	0x3e85cad7	0.26131317
236	0xbe8f3896	-0.2797286
237	0xbe13caf9	-0.14432897
238	0xbe1cc0a4	-0.15307862
239	0x3e41ff7c	0.18945116
240	0x3e9589dd	0.29206744
241	0xbe6ce3b0	-0.23133731
242	0xbe8fa3c4	-0.2805463
243	0xbe24274f	-0.1603062
244	0x3e141e4e	0.14464685
245	0x3d46b7d6	0.048515163
246	0xbc4306eb	-0.011903505
247	0xba79a67a	-0.0009523403
248	0xbd5f0706	-0.054450057
249	0x3e976a5c	0.29573333
250	0x3ee5b090	0.4486127
251	0xbe6aa168	-0.22913134
252	0xbdf90a47	-0.121601634
253	0x3df3eb33	0.11910095
254	0xbe4634b5	-0.19356044
255	0xbe9328f9	-0.28742197

net.0.bias f4 [128]
0	0x3e8a0fdb	0.26965222
1	0x3ec531eb	0.38514647
2	0xbe9c2e78	-0.30504203
3	0x3e302bd3	0.17204218
4	0x3eaececa	0.34142143
5	0x3e2f55b2	0.17122534
6	0xbe9c7c10	-0.30563402
7	0x3e1b0fb5	0.1514271
8	0x3e131002	0.14361575
9	0x3c9338b9	0.017971383
10	0x3e8baab7	0.27278683
11	0x3e02ac63	0.12761073
12	0x3e47d62c	0.19515294
13	0x3d9cfa99	0.07664985
14	0xbe2d1402	-0.16902164
15	0x3ea85b05	0.32881942
16	0xbe8408b6	-0.25787896
17	0xbd33ecfa	-0.04392717
18	0xbe5c9441	-0.2154093
19	0x3e16925b	0.14704268
20	0x3c07c651	0.008287028
21	0x3d7b4da8	0.061353356
22	0xbdf401da	-0.11914416
23	0xbcd988af	-0.026554434
24	0xbdbb09f0	-0.09132755
25	0x3e8eb1e2	0.2787009
26	0xbe932caa	-0.28745013
27	0x3e2f1b94	0.17100364
28	0x3d2e7481	0.042591576
29	0x3e9142b5	0.28371206
30	0x3e08e217	0.13367496
31	0xbe9dcbbc	-0.308195
32	0x3d475629	0.048666153
33	0xbe030e0d	-0.12798329
34	0x3e1efa3f	0.15525149
35	0x3d620ea3	0.05518974
36	0xbdac686a	-0.08418353
37	0xbc006d6f	-0.007838591
38	0xbeb2642b	-0.34842047
39	0x3dfc1a87	0.12309747
40	0x3ddb2872	0.10701074
41	0xbe867295	-0.26259294
42	0xbee9b84d	-0.45648423
43	0xbe9989cb	-0.2998794
44	0x3eab0c9b	0.33408055
45	0xbe5b6292	-0.2142432
46	0x3dc7c846	0.09754996
47	0x3ce7280e	0.028217342
48	0xbe5a7822	-0.2133489
49	0x3d40c45a	0.047062255
50	0xbc9020c5	-0.01759375
51	0x3e867106	0.26258105
52	0x3d59f882	0.05321551
53	0x3e6298e1	0.22128631
54	0x3d0d56de	0.03450667
55	0xbed13954	-0.4086405
56	0xbd950387	-0.072760634
57	0x3ea69d00	0.32541656
58	0x3ea7168c	0.3263439
59	0xbf00f9d1	-0.5038119
60	0xbd1a82ba	-0.037722327
61	0xbe31f6b9	-0.17379273
62	0x3ea0ece1	0.31430724
63	0xbe2f25b4	-0.17104226
64	0x3e0dea9d	0.13859029
65	0x3d2929d4	0.041299656
66	0x3e82162b	0.25407538
67	0xbebfdcd6	-0.37473172
68	0xbde7dcd8	-0.113214195
69	0x3c8a9000	0.016914368
70	0x3b05fa80	0.00204435
71	0xbe842aad	-0.2581381
72	0xbe5a13f6	-0.21296677
73	0xbe5ace17	-0.2136768
74	0x3e057640	0.1303339
75	0x3cef15ff	0.029185293
76	0x3eb0426d	0.3442568
77	0xbed5109a	-0.41614228
78	0x3ddeec86	0.10884957
79	0x3e0cdef3	0.13756923
80	0xbebca67a	-0.36845762
81	0x3e3bd300	0.18342209
82	0xbda78d39	-0.08181233
83	0x3e48a068	0.1959244
84	0xbdcc701e	-0.09982322
85	0x3e4c60ed	0.19958849
86	0xb9b45943	-0.0003439878
87	0x3e885c7f	0.2663307
88	0x3d3951e9	0.04524413
89	0x3e03a8a6	0.12857303
90	0xbdb01fbf	-0.08599805
91	0xbce22459	-0.027605223
92	0xbd9ba529	-0.07599861
93	0xbe2fbeed	-0.17162676
94	0xbda7c191	-0.08191217
95	0x3eb88814	0.3604132
96	0x3e874406	0.26419085
97	0x3e76fd3b	0.24120037
98	0x3e2a2bcf	0.16618274
99	0x3e3025b7	0.17201887
100	0x3b8e7696	0.0043476326
101	0x3e161645	0.14656933
102	0x3d0dbb02	0.034602173
103	0x3eb643f6	0.35598725
104	0x3eb248b5	0.34821096
105	0x3be815fd	0.0070826993
106	0x3d1a4c33	0.037670325
107	0x3d3f5750	0.046714127
108	0x3e48fcd4	0.19627696
109	0x3d9b8f74	0.07595721
110	0xbe37c7f9	-0.17947377
111	0xbc8119bd	-0.015759343
112	0x3d055501	0.03255177
113	0xbe1eff63	-0.1552711
114	0x3dbe700e	0.092987165
115	0x3e3d8b44	0.18510157
116	0xbe5e93f7	-0.21736132
117	0x3e6f50c8	0.2337066
118	0xbde9fe13	-0.11425414
119	0xbf214638	-0.6299777
120	0xbe502121	-0.20325138
121	0x3e3f1e9e	0.18664023
122	0xbd2d0ca4	-0.042248383
123	0xbdd2a2ef	-0.10284983
124	0xbd1ace10	-0.037794173
125	0x3e959b92	0.29220253
126	0xbdfaecbe	-0.12252186
127	0xbe262e03	-0.1622849

net.2.weight f4 [64, 128]
0	0x3e954fa3	0.2916232
1	0x3e9f2225	0.31080738
2	0xbe53b1e1	-0.20673324
3	0x3e98ea62	0.2986632
4	0x3e976a8c	0.29573476
5	0x3ee40407	0.44534323
6	0x3b8de54a	0.004330312
7	0x3df880ec	0.12133965
8	0x3d825d91	0.063655026
9	0x3f012f96	0.50463235
10	0x3e0b3788	0.13595402
11	0x3d01e217	0.031709757
12	0x3e56bfb3	0.20971565
13	0x3aa67ac5	0.0012701383
14	0x400be12d	2.1856186
15	0x3eabae31	0.33531335
16	0xbe61e1df	-0.22058819
17	0xbf8170da	-1.0112565
18	0xbebf60ed	-0.37378636
19	0xbd38b33d	-0.04509281
20	0x3e85fc31	0.2616897
21	0x3e06b620	0.13155413
22	0xbe2c1c8c	-0.16807765
23	0x3e9393e9	0.28823784
24	0xbe58d533	-0.21175079
25	0x3eafc743	0.34331712
26	0x3d47e158	0.04879889
27	0xbe80948c	-0.25113332
28	0xbcfa814c	-0.030579232
29	0x3e59ed39	0.212819
30	0x3c4ec2b4	0.012619663
31	0x3ef58a37	0.47957012
32	0xbeafeec4	-0.3436185
33	0xbd5db53d	-0.05412792
34	0x3d55b2b4	0.052172378
35	0xbdcc66ca	-0.09980543
36	0xbdcd3c76	-0.10021298
37	0xbfa2a335	-1.2706057
38	0xbe5d013f	-0.21582507
39	0x3de1b453	0.11020722
40	0x3e84cabc	0.25935924
41	0xbeb8bf9c	-0.36083686
42	0xbdcf4c92	-0.101220265
43	0x3d1a79f7	0.03771397
44	0x3de51536	0.11185686
45	0x3ea7d340	0.32778358
46	0xbdbac3c1	-0.09119368
47	0x3f90655f	1.1280936
48	0xbdab76e9	-0.0837229
49	0x3e8ca411	0.27468923
50	0xbce93291	-0.028466495
51	0x3e8deac4	0.27718174
52	0xbe861e5c	-0.26195037
53	0x3de64689	0.11243922
54	0xbe501a11	-0.20322444
55	0x3dfaa38b	0.122382246
56	0xbef7b942	-0.48383528
57	0x3b2fbde7	0.0026816071
58	0x3d99f2a8	0.07516986
59	0xbd4ee472	-0.05051083
60	0x3e8ffd48	0.28122926
61	0xbe56eff9	-0.2098998
62	0x3e9e5b9e	0.30929273
63	0x3ea21248	0.31654572
64	0x3ec8cc56	0.39218396
65	0xbe477a32	-0.19480208
66	0x3e86644b	0.26248392
67	0x3e8708d9	0.26373938
68	0xbed17eaa	-0.4091695
69	0xbd01a889	-0.03165487
70	0x3df9c2a9	0.121953316
71	0xbda9bb7c	-0.08287713
72	0x3dc4dd41	0.09612513
73	0xbbfe1ece	-0.007755137
74	0x3f47afd5	0.78002673
75	0xbdf45815	-0.11930863
76	0x3e974714	0.29546416
77	0xbf220251	-0.63284785
78	0x3e84b34e	0.2591805
79	0x3e2719f8	0.163185
80	0xbcf2a8e3	-0.029621547
81	0x3e57543a	0.21028224
82	0xbe949092	-0.29016548
83	0x3e2476a0	0.16060877
84	0x3e8a9de9	0.270736
85	0x3e66e9fd	0.22550197
86	0x3ecbe8af	0.3982596
87	0xbdf634a0	-0.12021756
88	0xbf0d57c9	-0.55212075
89	0x3e24723b	0.160592
90	0x3deb4b2c	0.11488947
91	0x3c8efff2	0.017456029
92	0xbea8ad7f	-0.32944867
93	0xbe3d1d2b	-0.18468158
94	0xbea2f8ed	-0.3183054
95	0x3ea4f5c8	0.32218766
96	0x3cf345b0	0.029696316
97	0x3d3c0021	0.04589856
98	0x3eb9a893	0.36261424
99	0xbdcb3b16	-0.09923379
100	0x3e0231cd	0.1271431
101	0x3eb97e60	0.3622923
102	0x3d1a50d8	0.037674755
103	0x3e6b3d74	0.22972661
104	0x3f0d7e90	0.55271244
105	0xbc1b65a0	-0.0094846785
106	0xbe8f2f9f	-0.2796602
107	0xbd1a7313	-0.0377074
108	0x3dbcc1a5	0.09216622
109	0x3ed3d302	0.41371924
110	0xbdbe8e4e	-0.09304486
111	0xbf05ea1c	-0.5231035
112	0x3eeec4ca	0.46634513
113	0x3ec57028	0.3856213
114	0x3ebe798b	0.37202105
115	0xbe3d2b47	-0.1847354
116	0x3e60c228	0.21949065
117	0xbed2052d	-0.41019574
118	0x3ba31e08	0.0049779452
119	0x3e82e935	0.25568548
120	0xbca3f78c	-0.0200155
121	0xbe18eb02	-0.14933398
122	0xbe499950	-0.1968739
123	0xbf84bd27	-1.0370225
124	0x3ca4e633	0.020129299
125	0x3da543f6	0.08069603
126	0x3d1637e2	0.036674388
127	0x3eeb4dd1	0.45957807
128	0x3e419e4d	0.18908043
129	0x3e612a0a	0.21988693
130	0xbeec6471	-0.4617038
131	0x3ecac868	0.39606023
132	0xbf443579	-0.7664409
133	0x3eccbdf0	0.3998866
134	0xbe997754	-0.29973853
135	0xbf05298d	-0.52016526
136	0x3ea263cb	0.3171676
137	0x3f07b91e	0.5301684
138	0x3f08eaa7	0.5348305
139	0x3e82c1c4	0.25538456
140	0xbe3e9456	-0.18611273
141	0x3d294334	0.041323856
142	0xbf1355d2	-0.57552826
143	0xbdfc8829	-0.12330658
144	0xbe24fa10	-0.16111016
145	0xbefaac9b	-0.48959813
146	0xbe0cb674	-0.13741475
147	0xbdb4d23e	-0.08829163
148	0x3ddfe785	0.10932831
149	0x3c51866a	0.0127883945
150	0x3d3e02de	0.046389453
151	0x3f1589e3	0.58413523
152	0x3d818297	0.06323736
153	0x3ee662f4	0.4499737
154	0x3e8ad8a6	0.27118415
155	0x3eb2d3cf	0.34927222
156	0x3e1c0d13	0.15239362
157	0xbf0dc87d	-0.55384046
158	0xbe4b0253	-0.19825105
159	0x3daa4501	0.08313943
160	0xbe35681a	-0.17715493
161	0xbe8c3bdb	-0.27389416
162	0xbe048a8f	-0.12943481
163	0xbd2c4834	-0.042061046
164	0xbe2645b0	-0.16237521
165	0x3d305f16	0.04305943
166	0xbe9fe01c	-0.3122567
167	0x3e9a48d3	0.30133685
168	0x3ee53883	0.44769678
169	0xbf090d1b	-0.5353562
170	0x3c88426d	0.016633237
171	0x3e322a1a	0.17398873
172	0x3e1a6cb5	0.15080531
173	0xbd2f2643	-0.0427611
174	0x3e1d947e	0.15388677
175	0x3fb734e2	1.4313014
176	0x3d8cbd90	0.06872094
177	0x3db73650	0.08945906
178	0x3e86859c	0.2627381
179	0x3c18c333	0.009323883
180	0x3e983192	0.2972532
181	0xbedf5250	-0.43617487
182	0x3e49151a	0.19636956
183	0xbe8af193	-0.27137432
184	0xbe2d29b0	-0.16910434
185	0xbd937d03	-0.072015785
186	0xbcbb5744	-0.02286876
187	0x3ec45a44	0.38350117
188	0xbe6eeb2f	-0.23331903
189	0xbf704c37	-0.93866295
190	0x3f0cf56d	0.5506199
191	0xbec74ac9	-0.38924244
192	0x3e6de1ec	0.23230714
193	0xbf0d38f6	-0.5516504
194	0x3efc62bb	0.49294075
195	0x3ea127da	0.31475717
196	0x3e5f654a	0.21815982
197	0x3e71f948	0.2363025
198	0x3df6bf2f	0.12048184
199	0x3e816d63	0.25278768
200	0xbf9723e0	-1.1807823
201	0x3d0ddd0d	0.03463464
202	0x3ea04cc7	0.31308576
203	0xbd5c639d	-0.053805936
204	0x3d13147c	0.035908207
205	0x3bf355c4	0.0074259955
206	0xc0035ab7	-2.0524118
207	0x3d3e5615	0.046468813
208	0x3d0edd95	0.034879286
209	0xbdf81ac9	-0.12114484
210	0xbcec7151	-0.028862627
211	0xbe93fda2	-0.28904444
212	0x3df0f032	0.117645636
213	0x3e85ce54	0.26133978
214	0x3ebf87b1	0.37408212
215	0x3f309b81	0.6898728
216	0x3ec0c97b	0.37653717
217	0x3ea556b0	0.322927
218	0x3d09fb7a	0.033687092
219	0xbd4dc4af	-0.0502364
220	0x3dd98f48	0.10623032
221	0x3dea88e3	0.1145189
222	0x3e8572ac	0.2606405
223	0x3ed62d97	0.41831657
224	0x3e3dc346	0.18531522
225	0xbe0f83a5	-0.14015062
226	0x3dc3e020	0.09564233
227	0xbc5f993f	-0.013647377
228	0x3f054c64	0.5206969
229	0xbf9b536d	-1.2134835
230	0xbf69f634	-0.913913
231	0xbe935953	-0.28779086
232	0x3f336a17	0.70083755
233	0xbeda3dd4	-0.42625296
234	0x3d86a5fa	0.06574626
235	0xbea44e15	-0.32090822
236	0xbe340240	-0.17578983
237	0x3cf1ceaa	0.02951749
238	0xbe532cb8	-0.20622528
239	0xbf1171b9	-0.5681415
240	0xbdd37449	-0.10324914
241	0xbf228047	-0.63476986
242	0x3ebb1143	0.36536607
243	0x3e1581cd	0.14600296
244	0x3f2e0115	0.679704
245	0xbe4ef847	-0.20211898
246	0xbe4ab41f	-0.19795273
247	0xbdbfabb3	-0.09358921
248	0x3e1b5256	0.15168127
249	0x3e368fe4	0.17828327
250	0xbdbdb3f6	-0.092628404
251	0xbf1dcf0a	-0.6164404
252	0xbe9097e5	-0.28240886
253	0x3d2cbc4e	0.04217177
254	0xbe278bfa	-0.1636199
255	0x3d2d340a	0.042285956

net.2.bias f4 [64]
0	0xbbee8994	-0.007279584
1	0x3ea4d496	0.3219344
2	0xbd22d5fe	-0.03975486
3	0xbd18a5a8	-0.037267357
4	0x3e643f9c	0.2228989
5	0xbdc79fe0	-0.097472906
6	0xbbaaa975	-0.005208189
7	0x3d7d0f0d	0.06178193
8	0xb9ba0914	-0.00035483448
9	0x3e9a824a	0.30177528
10	0x3e13427f	0.14380835
11	0x3e18da54	0.14927036
12	0x3c253060	0.010082334
13	0x3df3d420	0.11905694
14	0x3cd258b4	0.025677063
15	0x3e761029	0.24029602
16	0x3dd68394	0.10474315
17	0x3df428b6	0.119218275
18	0x3e025d86	0.12730989
19	0xbe0979ce	-0.13425371
20	0x3e3260be	0.17419717
21	0x3c89aafc	0.016805165
22	0x3e3f3f16	0.18676409
23	0xbc1504a7	-0.0090953475
24	0x3daa9c56	0.083306
25	0x3d0bb48e	0.034107737
26	0x3d4ee74c	0.05051355
27	0xbd8b76b5	-0.06809751
28	0x3e262938	0.16226661
29	0x3d99c458	0.07508153
30	0x3cde77df	0.027156768
31	0x3d83f4c1	0.064431675
32	0x3e4d563f	0.20052432
33	0x3d099475	0.033588845
34	0x3e099777	0.13436686
35	0x3e703b83	0.23460202
36	0xbdbd25d0	-0.09235728
37	0x3dcb9fea	0.099426106
38	0x3b8a8904	0.0042277593
39	0x3e4d004f	0.20019649
40	0x3dffc7c0	0.12489271
41	0xbc36a3a3	-0.0111474125
42	0xbd971df5	-0.07378761
43	0x3e0f5113	0.13995771
44	0x3d36447c	0.044498906
45	0x3e512cf6	0.20427307
46	0x3d4eb0d2	0.050461598
47	0x3e66bcb8	0.22532928
48	0x3d4b0fae	0.0495755
49	0x3de9cb33	0.1141571
50	0x3d182331	0.037142936
51	0xbda9b7a8	-0.08286983
52	0xbdbf154f	-0.09330236
53	0x3c9a5b2e	0.018842306
54	0x3cb5155e	0.022104915
55	0x3da68bb0	0.08132112
56	0xbdbafdf8	-0.09130472
57	0x3e50568d	0.20345517
58	0x3c844b47	0.016149176
59	0x3df84925	0.12123326
60	0x3d3e6c93	0.046490263
61	0x3d2d605b	0.04232822
62	0x3dfa01be	0.122073635
63	0x3ddb5b8f	0.10710823

net.4.weight f4 [32, 64]
0	0x3df31853	0.11869874
1	0x3ec6edf2	0.38853413
2	0x3e08fa89	0.13376822
3	0x3d01ca79	0.031687234
4	0x3e991441	0.29898265
5	0x3de278a2	0.11058165
6	0x3e9f399f	0.3109865
7	0x3e80c0d9	0.2514713
8	0x3e35e1b6	0.17761883
9	0x3e7a9f6d	0.24474879
10	0xbe1b6ba5	-0.15177782
11	0xbd8f43e3	-0.0699537
12	0xbdc0567c	-0.093914956
13	0x3d25cbec	0.04047768
14	0x3a666745	0.0008789192
15	0x3e3df5dc	0.18550819
16	0x3d7e41e3	0.062074553
17	0x3e429314	0.19001418
18	0xbd9bfb0d	-0.076162435
19	0x3ec97154	0.39344275
20	0x3ece6928	0.40314603
21	0xbdb23b7b	-0.08702751
22	0x3d9ce964	0.07661703
23	0x3c858b02	0.016301636
24	0x3ed238b4	0.41058886
25	0x3e237a12	0.15964535
26	0x3d6554cc	0.05598907
27	0x3de1e5c2	0.11030151
28	0x3efc0d5f	0.4922895
29	0x3e7f8ece	0.2495682
30	0x3dc08901	0.094011314
31	0xbd9f6cdb	-0.077844344
32	0x3ecfbdd5	0.40574518
33	0xbe38dcc5	-0.18052967
34	0xbe2f3cb1	-0.17112996
35	0x3f26d1ef	0.65164083
36	0x3da396ed	0.07987771
37	0x3d42b3f6	0.047534905
38	0x3d4027d2	0.046912976
39	0xbd98c444	-0.0745931
40	0x3d197949	0.037469182
41	0x3e49a14d	0.19690438
42	0xbcb630cb	-0.022240063
43	0x3e5addad	0.21373625
44	0xbe8b5d7e	-0.27219766
45	0x3e989330	0.29799795
46	0x3d8df57f	0.0693159
47	0xbea045b0	-0.31303167
48	0x3d9ca78d	0.07649145
49	0x3d897e80	0.06713581
50	0x3eb4b1cf	0.35291907
51	0xbd63a5a2	-0.05557788
52	0x3d6a10cc	0.057144925
53	0x3e5c74fa	0.21528998
54	0xbeb88e27	-0.36045954
55	0x3dee049f	0.11621975
56	0xbe62fea9	-0.22167458
57	0xbcd03773	-0.025417065
58	0x3edea3e4	0.43484414
59	0x3ecf385f	0.40472695
60	0xbe0f2f73	-0.13982944
61	0x3ee7de67	0.45286867
62	0x3ddc0928	0.10743934
63	0x3e9ca589	0.30595043
64	0xbebf01b3	-0.37305984
65	0x3e69acdf	0.22819851
66	0xbe4fb3c3	-0.20283417
67	0xbe575ce1	-0.21031524
68	0x3ca78917	0.020451112
69	0xbd15fb52	-0.03661663
70	0xbd588e22	-0.052869923
71	0x3e45c6ea	0.19314161
72	0x3e70ecdd	0.23527856
73	0x3c1ddb37	0.009634784
74	0xbed7234f	-0.42019126
75	0x3cb6f90b	0.02233555
76	0x3e4513d5	0.19245847
77	0xbdc68881	-0.09694005
78	0xbc04d82f	-0.008108183
79	0x3d0a5b41	0.033778433
80	0x3cbf03aa	0.023317177
81	0xbe8354c3	-0.25650606
82	0xbdafe9de	-0.085895285
83	0xbc43870d	-0.011934054
84	0xbe0d9372	-0.13825777
85	0xbdce6864	-0.10078505
86	0x3e1a143e	0.15046784
87	0x3c67a0f7	0.014137498
88	0xbe32b331	-0.17451169
89	0x3e315b5c	0.17320007
90	0xbf3e1639	-0.7425266
91	0x3d79d200	0.060991287
92	0x3dcbfb23	0.0996001
93	0xbd290e66	-0.041273497
94	0x3e467a4e	0.19382593
95	0xbd8988bf	-0.06715535
96	0x3e5cdf54	0.21569568
97	0x3e75c657	0.24001442
98	0x3de76f23	0.113004945
99	0xbdf07bb2	-0.11742343
100	0xbdd86cbb	-0.10567614
101	0xbded60cf	-0.115907304
102	0x3c777088	0.015102513
103	0xbdf2dbd5	-0.11858336
104	0x3cda9102	0.026680473
105	0x3e2cff5e	0.1689429
106	0x3cc7f354	0.02440802
107	0x3d681823	0.056663644
108	0xbcf60bb8	-0.030034885
109	0xbe27e3f4	-0.16395551
110	0xbe024fdb	-0.12725775
111	0x3e263150	0.16229749
112	0x3e508218	0.20362127
113	0xbbd8ae85	-0.006612601
114	0xbda0460a	-0.07825859
115	0x3d44bb1d	0.048030008
116	0x3d1ccc82	0.03828097
117	0xbe762ef0	-0.24041343
118	0x3e3269df	0.17423199
119	0xbef04281	-0.46925738
120	0x3e82417f	0.25440595
121	0xbe583d9e	-0.21117255
122	0xbda1024d	-0.07861767
123	0xbe1ef281	-0.15522195
124	0x3b8fa14b	0.0043832413
125	0xbe3baa79	-0.18326749
126	0xbe962e86	-0.2933237
127	0x3e287280	0.16449928
128	0x3f6dbbff	0.92864984
129	0x3ec7ae5c	0.39000213
130	0x3e041789	0.12899603
131	0x3f1659b4	0.58730626
132	0x3e0a997b	0.1353511
133	0x3d387bc2	0.0450399
134	0x3e3f92c9	0.18708338
135	0x3ec418da	0.3830021
136	0x3e8473a8	0.2586949
137	0x3c616495	0.013756891
138	0x3e2a12ff	0.16608809
139	0x3db9b748	0.09068161
140	0x3d0d58e0	0.034508586
141	0x3d790dc7	0.060804155
142	0xbe456905	-0.19278343
143	0x3c130524	0.008973394
144	0x3e3fab95	0.18717797
145	0x3e580154	0.21094257
146	0x3e3daa43	0.18521981
147	0xbe4679c7	-0.19382392
148	0x3edfc55b	0.43705258
149	0x3d261f64	0.04055728
150	0x3bdc87cb	0.006730055
151	0x3da77c4a	0.08178003
152	0x3d839372	0.06424607
153	0x3ec1c286	0.37843722
154	0x3dbbb346	0.09165053
155	0x3d9eeebf	0.07760381
156	0x3e885ec4	0.266348
157	0x3da626c4	0.08112863
158	0xbbc0356e	-0.0058657443
159	0x3e3bb82a	0.18331972
160	0x3ebda152	0.3703714
161	0xbe4746c1	-0.19460584
162	0xbe1f9637	-0.15584646
163	0x3e461220	0.19342852
164	0xbdcda143	-0.10040524
165	0x3e449730	0.19198298
166	0x3ca97139	0.020683872
167	0x3e07344b	0.13203542
168	0x3dda2972	0.10652436
169	0xbdf5826a	-0.11987765
170	0x3de1d105	0.110261954
171	0x3f0334a4	0.512522
172	0xbd9d08cd	-0.07667694
173	0x3e1d1bdb	0.15342657
174	0xbcb7682e	-0.022388544
175	0xbe986fab	-0.29772696
176	0x3da1a237	0.07892268
177	0xbd2d35f2	-0.042287774
178	0x3da3db7a	0.08000846
179	0xbdcd9c54	-0.10039583
180	0x3e1c68d8	0.1527437
181	0x3d896665	0.06708983
182	0xbe930e6a	-0.28721935
183	0x3e6ac236	0.22925648
184	0x3e0e9c1c	0.13926739
185	0xbde231a3	-0.11044624
186	0x3d87a8f7	0.06624024
187	0x3ea64546	0.32474726
188	0x3dc1956f	0.0945233
189	0x3d299b37	0.04140779
190	0x3e39fba2	0.18162397
191	0x3e1b57d9	0.1517023
192	0xbfa38314	-1.2774377
193	0xbeb87de3	-0.36033544
194	0xbe913e5d	-0.28367892
195	0x3da35f21	0.07977129
196	0xbd807218	-0.06271762
197	0x3f215d4f	0.63033
198	0x3e231c2c	0.15928715
199	0x3e61860d	0.22023793
200	0xbead93b0	-0.3390174
201	0xbf2b7c7d	-0.6698683
202	0x3f51f02b	0.8200709
203	0xbf47babb	-0.78019303
204	0x3e8dfa96	0.27730244
205	0xbf6ab46b	-0.91681546
206	0x3e83b599	0.25724486
207	0x3d8fd0d8	0.07022256
208	0xbebaadf4	-0.3646084
209	0xbf1f746c	-0.6228702
210	0x3ebf6b4f	0.37386557
211	0x3eba0003	0.36328134
212	0xbec4f6fb	-0.3846968
213	0x3d56bcf8	0.05242631
214	0xbdbc5d75	-0.09197513
215	0xbdaf8751	-0.085707314
216	0xbf2da1bf	-0.6782493
217	0x3e5c2955	0.21500142
218	0x3ee32803	0.44366464
219	0x3dcac108	0.09900099
220	0xbf9f47ab	-1.2443746
221	0x3ee068ef	0.43830058
222	0xbcfeed90	-0.031119138
223	0x3ea694bf	0.3253536
224	0xbeb7437c	-0.35793674
225	0x3eaad062	0.33362108
226	0xbe5d94e7	-0.21638833
227	0xbf32e94a	-0.6988722
228	0xbb8fd257	-0.004389088
229	0x3ed73788	0.42034554
230	0x3d98428d	0.074345686
231	0xbea7357f	-0.32658002
232	0x3ca24435	0.019807914
233	0xbebf5699	-0.37370756
234	0xbdda8894	-0.106705815
235	0xbf8d2624	-1.1027265
236	0x3e9bfda9	0.30466965
237	0xbe5f7b4d	-0.2182438
238	0x3b0368fa	0.0020051585
239	0xbf2befd0	-0.671628
240	0x3e6cab63	0.23112254
241	0xbf87aa8b	-1.059892
242	0xbebbc94c	-0.36677015
243	0xbd704540	-0.058659792
244	0xbdf64ee8	-0.12026769
245	0xbe84aca8	-0.25912976
246	0x3eb9a472	0.36258274
247	0xbd5837eb	-0.052787703
248	0x3e986091	0.29761174
249	0xbe0d81a8	-0.13818991
250	0xbdb8eb62	-0.09029271
251	0xbf9cc86a	-1.2248662
252	0xbe588a80	-0.21146584
253	0xc02c3487	-2.690706
254	0xbec45a51	-0.38350156
255	0xbd1fae99	-0.03898487

net.4.bias f4 [32]
0	0x3dd54b27	0.10414725
1	0xbdc3d790	-0.095626
2	0x3cd2ae70	0.025717944
3	0xbeb00053	-0.34375247
4	0xbc124f06	-0.0089299735
5	0x3e8df1bf	0.277235
6	0x3e2cefaf	0.16888307
7	0x3e2a73f0	0.16645789
8	0xbcbbf222	-0.022942606
9	0x3d6451d3	0.055742096
10	0x3e2553dd	0.16145273
11	0x3d8fe099	0.070252605
12	0xbdab92cb	-0.08377608
13	0x3def0ad6	0.11671989
14	0xbcd4751c	-0.025934748
15	0x3e083047	0.13299666
16	0x3ba2bd18	0.0049663894
17	0x3da80336	0.082037374
18	0x3c3e4db1	0.011615203
19	0x3dcbb674	0.099469095
20	0xbe0d8841	-0.13821508
21	0x3dafcdbc	0.085841626
22	0x3d07ec02	0.03318406
23	0xbd14ff60	-0.036376357
24	0xbdcf4da7	-0.10122233
25	0xbde872f6	-0.11350052
26	0x3c3fece5	0.011714195
27	0xbdeef1ea	-0.11667235
28	0x3de69ef2	0.11260785
29	0x3e545b1f	0.20737885
30	0xbd96dff5	-0.07366935
31	0x3d5cd87c	0.053917393

net.6.weight f4 [16, 32]
0	0x3e5c9164	0.21539837
1	0xbee10937	-0.43952343
2	0x3ebed269	0.37269905
3	0xbf7822b0	-0.9692793
4	0x3d8307ed	0.06397996
5	0xbe9d28a2	-0.30695063
6	0xbe81a630	-0.25322104
7	0xbef8fb27	-0.48629114
8	0x3f0386b1	0.513774
9	0xbebeb82d	-0.3724989
10	0xbedb8c4d	-0.42880479
11	0x3ec8e415	0.39236513
12	0x3f34483b	0.70422715
13	0x3d118890	0.035530627
14	0x3ef8bb5a	0.48580438
15	0xbdb85377	-0.09000295
16	0xbef7d517	-0.48404762
17	0x3dcc3b0f	0.09972202
18	0x3e5f7a58	0.21824014
19	0xbd8afead	-0.06786857
20	0x3cc3662d	0.023852432
21	0x3e84e9e8	0.25959706
22	0xbd8c5a9f	-0.06853222
23	0x3e5d1235	0.21588977
24	0x3d09d457	0.03364977
25	0x3e41249c	0.18861622
26	0x3d63af43	0.055587064
27	0x3d7446b4	0.05963774
28	0xbeb59310	-0.35463762
29	0x3e99512c	0.29944742
30	0x3eac2609	0.3362277
31	0xbda90e51	-0.08254684
32	0x3eaca0b7	0.33716366
33	0xbe8b281e	-0.27179044
34	0x3dead3b7	0.11466163
35	0x3f17ccb4	0.5929673
36	0x3eeed3be	0.4664592
37	0xbdc1289e	-0.09431575
38	0xbe0d0320	-0.13770723
39	0x3eb797d5	0.35858026
40	0xbe2107a2	-0.15725568
41	0xbe09661b	-0.13417856
42	0xbdfdefbe	-0.12399243
43	0x3e959e15	0.2922217
44	0x3e14e3ee	0.14540073
45	0xbe967465	-0.29385677
46	0x3dfbcf9a	0.12295456
47	0xbdc5931a	-0.09647198
48	0xbe5db082	-0.21649364
49	0xbace60d8	-0.0015745414
50	0xbd0cb705	-0.03435423
51	0x3ea7ae75	0.32750288
52	0x3dbb78e9	0.09153921
53	0x3e314a4d	0.173135
54	0x3eb43d70	0.35203123
55	0x3e228444	0.15870768
56	0xbe2bf7c5	-0.16793735
57	0xbe0f32d9	-0.1398424
58	0x3f2e32d8	0.6804633
59	0x3f2a4c5e	0.6652278
60	0x3ddfdd1d	0.10930846
61	0xbeae637e	-0.34060282
62	0xbdce6fd1	-0.10079921
63	0x3e07b80a	0.13253799
64	0xbe3b8d43	-0.18315606
65	0x3e67bf0d	0.22631474
66	0x3eb65578	0.35612082
67	0x3f5f4dab	0.87227887
68	0xbe41cb54	-0.1892522
69	0x3dae6533	0.08515396
70	0x3e79aab0	0.24381518
71	0xbd2e18d6	-0.042504154
72	0xbde0dfa8	-0.10980159
73	0x3f10035d	0.5625513
74	0x3e81b7a4	0.2533542
75	0x3e8e93cc	0.27847135
76	0x3f307237	0.6892428
77	0x3f6eb378	0.932426
78	0x3eb955e5	0.36198345
79	0x3e8f69f0	0.2801051
80	0xbe5f5610	-0.21810174
81	0x3e95a751	0.29229215
82	0x3dbf24d5	0.09333197
83	0x3e017ac0	0.12644482
84	0x3b988c85	0.004655423
85	0xbd8f223d	-0.06988952
86	0x3e46407e	0.1936054
87	0x3ea6c861	0.32574752
88	0x3e0a47c7	0.13503943
89	0x3ed01baa	0.40646106
90	0xbf4506d5	-0.7696355
91	0xbd7e10e7	-0.062027838
92	0xbf67195e	-0.9027308
93	0xbcdec3d1	-0.027192982
94	0x3eb264fd	0.34842673
95	0xbe08b4f6	-0.13350281
96	0xbd9c000b	-0.07617196
97	0xbe45fa36	-0.19333729
98	0x3df73ecc	0.120725244
99	0xbe3498ef	-0.17636465
100	0xbe12c019	-0.14331092
101	0x3d2ff7d5	0.04296096
102	0xbab9a008	-0.0014162073
103	0xbe355867	-0.17709504
104	0x3e0802dc	0.13282341
105	0xbd3979be	-0.045282118
106	0xbe018141	-0.12646963
107	0x3dc455a0	0.09586644
108	0x3cec3611	0.028834375
109	0x3e061bc7	0.13096534
110	0xbe3982e3	-0.18116336
111	0x3cb1bf62	0.021697704
112	0xbe6812e7	-0.2266346
113	0xbcda37be	-0.026637908
114	0xbd811253	-0.06302323
115	0x3dec875c	0.11549255
116	0xbda8c385	-0.082404174
117	0xbe3d60d9	-0.18493976
118	0x3d32efd4	0.04368575
119	0xbe0d36a0	-0.13790369
120	0x3e05d377	0.13068949
121	0x3b9fa909	0.0048724455
122	0xbd3b7967	-0.045770075
123	0xbdfb430c	-0.122686476
124	0xbe3edc14	-0.1863864
125	0x3d91dcdc	0.07122204
126	0xbe6f5e16	-0.23375735
127	0xbe08fd38	-0.13377845
128	0x3eddb957	0.43305466
129	0x3e881715	0.2658011
130	0x3be56055	0.007000009
131	0xbf8f8a23	-1.1214031
132	0xbe6a4e22	-0.22881368
133	0x3d2574d4	0.04039462
134	0x3ef1032e	0.47072738
135	0xbf1f444f	-0.62213606
136	0x3eb98e66	0.36241454
137	0x3f3ee033	0.7456085
138	0x3eacf608	0.33781457
139	0x3e0b52dc	0.13605827
140	0xbf503439	-0.81329685
141	0x3f1eb88e	0.6200036
142	0xbe33584b	-0.1751415
143	0x3e3882f5	0.18018706
144	0x3ec4f850	0.38470697
145	0xbe1bc924	-0.15213448
146	0x3de7f2ea	0.11325629
147	0xbecb0b8a	-0.3965724
148	0xbe173daf	-0.14769624
149	0x3efa53e7	0.48892137
150	0x3d5afd84	0.053464428
151	0x3e62a3fc	0.22132868
152	0x3e29acad	0.16569777
153	0x3e6fccff	0.23418044
154	0xbdb0e23c	-0.08636901
155	0xbec62623	-0.3870097
156	0x3d914ff1	0.07095326
157	0x3c9a7283	0.018853432
158	0xbea070b2	-0.3133598
159	0xbdf05d85	-0.117365874
160	0xbd20eae9	-0.039286528
161	0x3e006d1f	0.12541626
162	0xbe2227ad	-0.15835448
163	0xbe7c586a	-0.24643102
164	0x3e8a90fe	0.27063745
165	0x3f1baad3	0.6080753
166	0x3f033ee9	0.5126787
167	0x3f04bd3c	0.5185125
168	0x3e789a07	0.24277507
169	0x3e90de69	0.28294685
170	0x3ed9afdb	0.4251698
171	0xbdd5488f	-0.1041423
172	0xbf170ea8	-0.5900674
173	0x3e7b505a	0.2454237
174	0xbea400aa	-0.32031757
175	0x3eca66ad	0.3953146
176	0x3eb9d3b6	0.36294335
177	0x3e86f3aa	0.26357776
178	0xbc9abdf3	-0.018889403
179	0x3f0e40aa	0.5556742
180	0x3dbb48d3	0.091447495
181	0xbdc8362f	-0.0977596
182	0x3e203bcd	0.15647812
183	0x3e39c623	0.1814199
184	0x3c8ce9ed	0.017201388
185	0x3daa36f6	0.08311264
186	0xbe1a58e1	-0.15072967
187	0x3e0ed92d	0.13950033
188	0xbca4769b	-0.020076087
189	0xbe073fb0	-0.13207889
190	0x3e4466b8	0.19179809
191	0x3daa4786	0.08314423
192	0x3ecc59bc	0.39912212
193	0x3d35389b	0.044243436
194	0x3e043e3f	0.1291437
195	0x3e9a530c	0.30141485
196	0x3da2d16a	0.07950099
197	0xbe970e05	-0.29502884
198	0xbeb5fb6b	-0.3554338
199	0x3f09bb17	0.538011
200	0xbee4726d	-0.4461855
201	0x3ec8a7df	0.39190575
202	0xbe58cdcf	-0.2117226
203	0x3e98bb7e	0.29830545
204	0x3e994dc2	0.29942137
205	0x3e329f3e	0.17443559
206	0x3ecade66	0.39622802
207	0x3d42317d	0.047410477
208	0xbeb76e66	-0.35826415
209	0x3e3ba44a	0.1832439
210	0xbe0f2c21	-0.13981678
211	0xbc8000e4	-0.015625425
212	0x3e0a05af	0.1347873
213	0x3e89fc9f	0.26950547
214	0xbe538b17	-0.20658527
215	0x3e3aa0d9	0.18225421
216	0xbd244ced	-0.040112425
217	0x3da75284	0.081700355
218	0x3ba6a8b7	0.0050860303
219	0x3e133e36	0.143792
220	0xbefae112	-0.4899984
221	0xbee87971	-0.45405152
222	0xbd001d15	-0.031277735
223	0x3ce2ef96	0.027702134
224	0xbe868949	-0.26276615
225	0xbd48389c	-0.048882112
226	0xbe83ed8a	-0.25767165
227	0xbeac5111	-0.336556
228	0x3e6a31f6	0.22870621
229	0x3ed51037	0.41613933
230	0x3e9b0a02	0.30281073
231	0x3eb0fb37	0.34566662
232	0xbed37e2b	-0.41307196
233	0x3cfd5a43	0.03092683
234	0x3e9effb0	0.3105445
235	0x3e06c8d6	0.1316255
236	0x3e31a0fd	0.17346568
237	0x3e642476	0.22279534
238	0xbddd3d5e	-0.108027205
239	0x3eaad3cb	0.3336471
240	0x3cc425b9	0.023943769
241	0x3eb4db2e	0.3532347
242	0xbe014e25	-0.12627466
243	0x3f43d4bd	0.7649649
244	0x3e0be98e	0.13663313
245	0xbee38cfb	-0.44443497
246	0x3e54e09e	0.2078881
247	0x3e25141e	0.16120955
248	0xbe0e30e9	-0.13885845
249	0x3efb52b4	0.49086535
250	0xbf2c7c5b	-0.6737725
251	0x3e15b5df	0.1462016
252	0x3c0c0448	0.008545943
253	0xbbbe662f	-0.005810521
254	0x3ede3c42	0.43405348
255	0x3d8b2ec7	0.067960314

net.6.bias f4 [16]
0	0x3d671688	0.05641797
1	0x3e05c170	0.13062072
2	0x3d56982c	0.052391216
3	0xbe012050	-0.12609982
4	0x3e2e8b21	0.17045261
5	0x3ea080e0	0.31348324
6	0xbe2d2d73	-0.16911869
7	0x3d03e30d	0.032198954
8	0x3d29594a	0.04134492
9	0xbd4d4212	-0.050111838
10	0x3e3e4bc1	0.18583585
11	0x3d2a3564	0.041554824
12	0xbe13076a	-0.14358297
13	0xbdd5397d	-0.10411356
14	0xbd7f0236	-0.062257968
15	0x3e800227	0.25001642

net.8.weight f4 [9, 16]
0	0xbf324263	-0.6963255
1	0xbe0affd7	-0.13574158
2	0xbf6ce61f	-0.92538637
3	0x3e25d83f	0.16195773
4	0x3e9701d5	0.29493585
5	0x3e908025	0.28222767
6	0x3e2f3a2a	0.17112032
7	0xbf1beaf3	-0.6090538
8	0x3eaf002a	0.34179813
9	0x3e5febbc	0.2186727
10	0xbe4aab46	-0.19791898
11	0xbe79d3fb	-0.2439727
12	0x3eba91a5	0.36439243
13	0xbfa51221	-1.2896158
14	0x3e88f065	0.26745906
15	0xc0701aeb	-3.751643
16	0xbf5df998	-0.86708975
17	0x3e84d4c4	0.25943577
18	0xbe08ff91	-0.13378741
19	0xbe075c35	-0.13218768
20	0x3e5fafcf	0.2184441
21	0x3dab089d	0.08351252
22	0x3d47bfbb	0.048766833
23	0xbfb28b9e	-1.3948858
24	0xbf4a441d	-0.7901018
25	0x3e3fe122	0.18738225
26	0x3d63fd60	0.05566156
27	0xbe1016ce	-0.140712
28	0xbfd4d373	-1.6627029
29	0x3efbecfe	0.49204248
30	0x3e878148	0.2646582
31	0xbf38688f	-0.72034544
32	0xbfba86ca	-1.4572384
33	0xbd1356ed	-0.03597157
34	0xbec9915d	-0.39368716
35	0xbe1f1d0a	-0.15538421
36	0xbdb36a39	-0.08760495
37	0x3e9c878b	0.3057216
38	0xbf9f1cf8	-1.2430716
39	0x3dfc0f48	0.12307602
40	0x3f00c06d	0.5029362
41	0x3e3d946b	0.18513648
42	0xbf3629a3	-0.7115728
43	0x3edbfba8	0.42965436
44	0xbfe44c25	-1.7835737
45	0x3e75335f	0.23945378
46	0x3dcdfb5f	0.10057711
47	0x3eba7191	0.3641477
48	0xbe83ec71	-0.25766328
49	0x3ec8fd95	0.39255968
50	0xbf243efa	-0.64158595
51	0xbc517498	-0.012784146
52	0xbf929363	-1.1451229
53	0x3c8de76f	0.01732227
54	0xbafd60b9	-0.0019331194
55	0xbf866414	-1.0499291
56	0x3de6f7dd	0.11277745
57	0xbee26d1f	-0.44223878
58	0x3eb50c1c	0.353608
59	0xbd8a0402	-0.06739046
60	0x3d856d98	0.06515044
61	0xbea6e054	-0.32593024
62	0x3daf689e	0.08564876
63	0xbd5b45e8	-0.053533465
64	0x3eea4db8	0.4576242
65	0xbe25d79d	-0.16195531
66	0xbf6f7117	-0.93531936
67	0xbe0f6904	-0.14004904
68	0x3e689bf6	0.22715744
69	0xbd649031	-0.055801574
70	0x3e4b7de8	0.19872248
71	0x3f235aa5	0.6381019
72	0xbcae99e0	-0.021313608
73	0xc07c9d7d	-3.9471123
74	0x3e434f97	0.1907333
75	0x3e73327f	0.23749731
76	0xbff19da2	-1.8876231
77	0x3e40002d	0.18750067
78	0xbee9822b	-0.45607123
79	0xbfd9ea22	-1.7024577
80	0xbd711862	-0.058861144
81	0x3da8a4c0	0.082345486
82	0x3e81ff67	0.2539017
83	0xbe2238e0	-0.15842009
84	0xbfba1ad0	-1.4539433
85	0x3eb75f5a	0.35814935
86	0xbeec0682	-0.46098715
87	0x3ef4ffce	0.47851413
88	0xbe7fb167	-0.24970017
89	0x3e74f21a	0.2392048
90	0x3f1ead33	0.6198303
91	0xbf4a9154	-0.79128003
92	0x3f86403e	1.0488355
93	0xbe933acb	-0.28755793
94	0xbf5977ec	-0.8494861
95	0x3dfc00d5	0.12304846
96	0x3e749975	0.23886664
97	0x3ec193bf	0.37808034
98	0x3cfe2b2d	0.031026447
99	0xbe377a2b	-0.17917697
100	0xbf0b91f0	-0.5451956
101	0xbeda0fd0	-0.4259019
102	0x3ec3adc9	0.38218525
103	0xbdbaf25e	-0.09128259
104	0x3e233288	0.15937245
105	0x3f02abf1	0.5104361
106	0xbe5e123c	-0.21686643
107	0xbe1ac40b	-0.15113847
108	0xbd2ff37d	-0.042956818
109	0x3e84eb99	0.25960997
110	0xbec66f8e	-0.38756984
111	0xbd998f1b	-0.07497998
112	0xbf032266	-0.5122436
113	0xbf677557	-0.9041342
114	0x3ef86e66	0.48521727
115	0xbe5d92bf	-0.2163801
116	0x3e113f0a	0.14184204
117	0x3eb3b548	0.35099244
118	0xbd91207a	-0.070862725
119	0x3e4effa0	0.202147
120	0xbf2e286b	-0.6803042
121	0xbead0db3	-0.33799514
122	0xbead1ea9	-0.33812454
123	0xbf00133a	-0.5002934
124	0x3e868b04	0.26277936
125	0xbdb9a20e	-0.090641126
126	0x3e672521	0.22572757
127	0xbf610292	-0.87894547
128	0x3ec06a0d	0.3758091
129	0x3a045689	0.0005048295
130	0x3e6d5200	0.23175812
131	0xbe0754f2	-0.13215998
132	0x3d02063d	0.03174423
133	0xbf8b7940	-1.0896378
134	0xbeccd480	-0.40005875
135	0xbed4db23	-0.41573438
136	0xbe725039	-0.23663415
137	0xbf889d91	-1.0673085
138	0x3c20526c	0.009785276
139	0xbdd5a290	-0.10431397
140	0xbf47f384	-0.7810595
141	0x3ea320a6	0.31860846
142	0x3ebae8f8	0.36505866
143	0x3f93f6dd	1.1559712

net.8.bias f4 [9]
0	0x3ddefd1c	0.108881205
1	0xbe1a35e7	-0.15059625
2	0x3c6a9310	0.014317289
3	0xbe58006a	-0.21093908
4	0xbdd89440	-0.105751514
5	0xbeaabb54	-0.33346045
6	0x3e46d9a5	0.19418962
7	0x3e84de1d	0.2595071
8	0x3e09e246	0.13465223
