RoadRunner_PPO_DNN_.pth (torch, 197189 bytes, 10 tensors)

net.0.weight f4 [256, 16]
0.055859666 -0.40864974 0.36707363 -0.22429739 0.052225772 -0.090967506 -0.5038708 0.29692855
-0.84990567 0.29799363 -0.093528084 0.4226315 -0.21279413 -0.048582852 0.0028052854 0.033053085
0.03731463 -0.20042711 -0.5294866 -0.09651488 0.008356866 0.14739019 0.060293257 -0.019735998
0.07422622 0.040047824 -0.010419612 0.06850206 -0.15249817 0.12965202 -0.045843296 0.03529171
-0.085655645 0.6193434 0.0019660338 -0.007950962 0.15864474 -0.075695455 0.17434278 0.1393276
-0.75218165 -0.09938423 -0.04035494 -0.1958037 -0.31095606 0.2301366 0.06902859 -0.6073513
0.34543207 0.6048958 0.38131422 0.02096497 0.06745572 -0.24206418 0.122412756 0.16398619
-0.7692028 0.44700164 -0.30809334 0.4896292 0.63960505 0.06463331 -0.27591124 -0.56243443
0.112680756 0.32655707 0.20046358 0.032548234 0.21728322 0.18967009 -0.49706194 -0.074459374
-0.5807816 0.08650011 -0.05117496 0.031995133 -0.37710595 0.24916404 0.051036205 0.04626477
0.5316954 0.12280753 0.17327623 -0.2113984 -0.06348932 -0.11723292 -0.051195852 -0.023203757
-0.6380093 0.22407036 -0.16834898 -0.5064099 -0.47085473 0.103373766 0.017489517 -0.00013179661
-0.17942384 0.10340248 -0.23419741 0.13812664 -0.062301263 0.07406747 0.19352196 -0.0335994
-0.12323422 0.7082342 -0.058209244 0.3207247 -0.87907493 -0.18053144 0.20572147 0.031880036
0.29073358 0.37803233 0.44558343 -0.23145674 0.044174936 -0.19023502 0.27697775 0.37094387
-0.26808515 0.2608112 -0.17629237 0.5646811 0.034106396 -0.074555546 0.19340652 -0.564953
-0.019534009 -0.053971298 0.81981426 0.07523451 0.027339034 0.037176132 0.19571234 0.013056625
0.34789434 -0.31227696 -0.074243486 -0.11009228 -0.36948082 -0.07953575 -0.01723537 -0.025970556
-0.036512505 -0.11481418 -0.4290041 0.028745966 0.30382094 -0.1521151 -0.6213854 0.45111093
0.43191886 0.033492133 -0.017775334 -0.3989766 0.8667426 -0.22830313 0.13574849 -0.2757541
0.030005334 -0.06162313 0.6601644 -0.062725045 -0.12654762 0.02714774 -0.024945093 -0.038351174
0.116132535 -0.22126813 -0.05106587 -0.3091636 -0.22523004 0.10507727 -0.08581115 0.043130934
-0.4207601 -0.30556062 -0.33942518 -0.028135955 0.25458983 -0.21084535 0.33920354 -0.14478704
0.13566831 -0.10350623 -0.10216167 -0.19283402 -0.38630006 -0.18115786 -0.104949206 0.31633946
-0.40348744 0.12227487 0.8670992 0.03429367 -0.23208135 0.21015143 -0.30876282 -0.081970975
0.22012931 0.11560035 0.074317895 -0.37212044 0.09580087 0.031109542 0.36761615 0.056778114
-0.4020892 -0.08054678 0.10752022 -0.12724788 0.26489437 0.010548323 0.15481983 0.21466853
0.46163473 -0.44356218 -0.027894624 0.32798883 0.39818898 -0.16293702 -0.0510647 0.07960986
0.47761312 0.16665468 -0.043905597 -0.14717531 -0.072474934 -0.14416093 -0.89672035 0.4161034
0.5145015 0.00854409 -0.08764739 -0.24234925 0.517757 -0.12797979 -0.22743611 -0.5892289
-0.07630573 0.049620014 -0.023971714 0.019779067 0.25645822 0.042948157 -0.06276084 -0.2545142
-0.46209922 0.094839655 -0.1876496 -0.2408652 -0.7715141 -0.2134982 -0.17336403 -0.29705268
00000000: 1bcd 643d 8a3a d1be 13f1 bb3e 37ae 65be
00000010: b1ea 553d 2c4d babd adfd 00bf 0507 983e
00000020: 6b93 59bf 9f92 983e a78b bfbd 2863 d83e
00000030: b4e6 59be d0fe 46bd e1d8 373b ac62 073d
00000040: 3ad7 183d c43c 4dbe 6f8c 07bf 98a9 c5bd
00000050: 3deb 083c 74ed 163e 10f6 763d 63ad a1bc
00000060: eb03 983d 3009 243d 05b7 2abc cf4a 8c3d
00000070: 7b28 1cbe 80c3 043e 2ec6 3bbd 0a8e 103d
00000080: 3a6c afbd 4a8d 1e3f 93d8 003b c044 02bc
00000090: c473 223e 3806 9bbd ea86 323e e5ab 0e3e
000000a0: fa8e 40bf f689 cbbd 394b 25bd c480 48be
000000b0: a235 9fbe eea8 6b3e dd5e 8d3d 607b 1bbf
000000c0: 79dc b03e 73da 1a3f 9e3b c33e bbbe ab3c
000000d0: 3926 8a3d acdf 77be 8ab3 fa3d ffeb 273e
000000e0: 7aea 44bf 66dd e43e 69be 9dbe aeb0 fa3e
000000f0: 28bd 233f 785e 843d 3d44 8dbe b4fb 0fbf
00000100: 2bc5 e63d 7d32 a73e 5346 4d3e 4c51 053d
00000110: 7e7f 5e3e e038 423e e77e febe 287e 98bd
00000120: 1aae 14bf f826 b13d d69c 51bd 540d 033d
00000130: 0814 c1be dc24 7f3e 570b 513d 2180 3d3d
00000140: 311d 083f 8482 fb3d 536f 313e d278 58be
00000150: b006 82bd d017 f0bd beb2 51bd ce15 bebc
00000160: 9454 23bf b372 653e ad63 2cbe 14a4 01bf
00000170: df13 f1be a0b5 d33d 2d46 8f3c e232 0ab9
00000180: e2ba 37be aec4 d33d 72d1 6fbe 1271 0d3e
00000190: 9c2f 7fbd b0b0 973d 9f2a 463e 869f 09bd
000001a0: 3962 fcbd d64e 353f d16c 6ebd 0736 a43e
000001b0: 0e0b 61bf 3cdd 38be a6a8 523e a494 023d
000001c0: 08db 943e 748d c13e 8323 e43e ff02 6dbe
000001d0: c7f0 343d f8cc 42be 07d0 8d3e 5bec bd3e
000001e0: 7542 89be 0c89 853e fd85 34be f18e 103f
000001f0: 26b3 0b3d 94b0 98bd 5c0c 463e c3a0 10bf
00000200: c905 a0bc 0211 5dbd 59df 513f 8d14 9a3d
00000210: 1cf6 df3c 0046 183d d168 483e 74eb 553c
00000220: 351f b23e c4e2 9fbe f80c 98bd 1078 e1bd
00000230: 972c bdbe a4e3 a2bd 3131 8dbc 34c0 d4bc
00000240: 238e 15bd b223 ebbd 6da6 dbbe a97c eb3c
00000250: 6b8e 9b3e 10c4 1bbe 1d13 1fbf 03f8 e63e
00000260: 7824 dd3e 0c2f 093d 949d 91bc a946 ccbe
00000270: d8e2 5d3f 4cc8 69be a701 0b3e a42f 8dbe
00000280: bfcd f53c 8968 7cbd 8900 293f fd75 80bd
00000290: b395 01be f064 de3c a759 ccbc 1f16 1dbd
000002a0: e5d6 ed3d 1d94 62be 722a 51bd b14a 9ebe
000002b0: b4a2 66be c032 d73d c2bd afbd 10aa 303d
000002c0: de6d d7be 7172 9cbe 23c9 adbe 607d e6bc
000002d0: 9959 823e d8e7 57be 16ac ad3e 0e43 14be
000002e0: a2ec 0a3e 13fb d3bd 233a d1bd 4876 45be
000002f0: 1fc9 c5be 7281 39be 9cef d6bd 3ff7 a13e
00000300: e895 cebe 3f6b fa3d 37fa 5d3f 8577 0c3d
00000310: bca6 6dbe f031 573e 2916 9ebe 66e0 a7bd
00000320: 9469 613e e0bf ec3d fb33 983d 9286 bebe
00000330: 3f33 c43d 70d9 fe3c 2f38 bc3e 2b90 683d
00000340: a3de cdbe b6f5 a4bd 9033 dc3d 454d 02be
00000350: 3ca0 873e e0d2 2c3c 1789 1e3e 11d2 5b3e
00000360: 635b ec3e 951a e3be 4483 e4bc 27ee a73e
00000370: 6ddf cb3e f6d8 26be 3829 51bd 7f0a a33d
00000380: b589 f43e 86a7 2a3e 5bd6 33bd 20b5 16be
00000390: bd6d 94bd ec9e 13be 778f 65bf 810b d53e
000003a0: 5fb6 033f 83fc 0b3c 7a80 b3bd 672a 78be
000003b0: b98b 043f 220d 03be 03e5 68be b5d7 16bf
000003c0: 2e46 9cbd 5b3e 4b3d 5460 c4bc b607 a23c
000003d0: 7e4e 833e 68ea 2f3d c188 80bd af4f 82be
000003e0: 4598 ecbe 4b3b c23d 3727 40be 5ea5 76be
000003f0: f381 45bf 469f 5abe 5786 31be 4a17 98be

net.0.bias f4 [256]
-0.040723003 -0.23266084 0.045219794 0.1321022 -0.10499809 -0.08779315 -0.035854585 -0.04213384
0.14219671 -0.27437896 0.04084079 -0.3328614 0.0005544761 0.051263493 -0.1698073 -0.32145417
0.061672375 -0.23371251 -0.24028975 0.015147405 -0.5529779 0.2917406 0.25424215 -0.018561339
-0.2539133 0.01671811 0.12260491 0.33823794 -0.2712635 0.37152627 0.17941995 0.33714053
-0.20926204 0.031938184 -0.11327785 -0.38137546 0.31635144 0.022126159 0.2653229 0.20681553
0.20688999 -0.04454389 -0.044498343 -0.5389762 -0.116075784 0.2128362 -0.05469368 0.18408667
0.10342364 0.25352815 -0.2334632 0.14762267 0.056508258 -0.04948883 0.25652736 0.3317091
0.16134103 0.09965675 -0.3356876 0.18517444 -0.07525818 -0.18627915 0.26291224 0.11355524
0.23081851 0.19168636 -0.07508935 -0.0061968276 0.013649616 0.017964028 -0.2194757 -0.3071496
0.35483178 0.13922182 0.21047857 -0.06198737 -0.24072911 0.141279 0.22092532 0.1291637
-0.13564599 -0.6390855 -0.19644977 -0.16599979 -0.012306954 0.084213674 -0.6997068 -0.29362136
0.09267508 0.07843582 0.051450353 0.3815819 0.11048236 -0.20460317 -0.29930723 0.0079761725
0.21548921 -0.30697173 -0.16508871 -0.10196369 0.21079905 0.42127886 -0.07164826 -0.14644527
0.0073869787 -0.284839 -0.28213567 -0.07943722 -0.23857039 0.11903026 0.2015938 0.113398425
-0.21048832 -0.21843134 0.16839334 0.048272714 0.14976113 0.2828462 -0.17931695 0.24259317
-0.10819266 0.27206993 -0.3319208 0.13836423 0.032955848 0.22031598 -0.3320095 0.12434809
-0.11727181 0.10072506 -0.2352193 -0.015016435 0.34875825 0.25770155 -0.1713919 0.1824845
-0.31237924 -0.4022828 0.13714522 -0.06883977 -0.18269445 0.18424736 0.16447811 0.28798035
0.12920038 -0.33848274 0.1547452 0.122216254 0.030412389 -0.24353872 0.08189606 -0.29468784
0.012450072 -0.1602013 -0.028544087 -0.18672392 -0.5573701 -0.049261525 0.15248518 -0.12779279
0.20557311 -0.011722619 -0.2506585 0.07988581 -0.037408296 0.34514588 -0.15833196 -0.33319634
-0.216184 -0.33846062 -0.010149636 0.09370836 -0.1034918 -0.37551495 0.21515034 -0.17398281
0.22944684 0.13504395 -0.06362919 0.025083123 0.1661775 -0.24348515 0.097117096 -0.33522564
0.20487168 -0.028999642 0.01775533 -0.2161828 0.08331655 0.010562646 0.07136684 0.004371297
0.14364503 -0.25176233 -0.5294181 0.103463985 0.25792906 0.039293323 0.21983066 0.3816464
-0.14312701 0.16285329 -0.1578367 0.23398867 -0.17260559 -0.27619565 0.3587936 0.04232704
-0.06728329 -0.25739667 -0.25699094 0.12763962 -0.32327077 0.10564825 -0.19136986 0.016772876
0.1739391 -0.03486612 0.10941061 -0.19606851 0.05917616 0.18709439 0.01619845 -0.24699226
-0.1186925 -0.085506745 0.18891998 0.38982448 0.119625434 -0.07391707 0.17885743 -0.0046824617
0.032844674 0.21154949 0.027819531 -0.47742647 0.01663059 -0.20544451 -0.22449738 0.03824003
0.17470555 -0.25023943 0.037212193 -0.099785976 -0.101595394 -0.18542755 0.21545702 -0.07389648
-0.13611114 0.10084537 0.14226195 -0.51438725 0.003241898 0.0033811817 -0.28723782 -0.11158157
00000000: 2acd 26bd a53e 6ebe 6438 393d cd45 073e
00000010: 3d09 d7bd e5cc b3bd 42dc 12bd 8994 2cbd
00000020: 049c 113e 667b 8cbe ac48 273d cf6c aabe
00000030: 435a 113a abf9 513d f7e1 2dbe a495 a4be
00000040: 2c9c 7c3d 5552 6fbe 840e 76be d22c 783c
00000050: f68f 0dbf 065f 953e 072c 823e f30d 98bc
00000060: ed00 82be 6bf4 883c 4818 fb3d 862d ad3e
00000070: 0de3 8abe b138 be3e ddb9 373e af9d ac3e
00000080: ca48 56be 9dd1 023d 38fe e7bd a543 c3be
00000090: d1f8 a13e eb41 b53c 67d8 873e 73c7 533e
000000a0: f8da 533e a773 36bd e543 36bd 58fa 09bf
000000b0: 24b9 edbd bcf1 593e 7b06 60bd 3781 3c3e
000000c0: c6cf d33d 71ce 813e fa10 6fbe 662a 173e
000000d0: 3475 673d cdb4 4abd 8e57 833e c6d5 a93e
000000e0: 9536 253e d718 cc3d 3fdf abbe 5e9e 3d3e
000000f0: f620 9abd f6bf 3ebe 6f9c 863e a68f e83d
00000100: b05b 6c3e 6e49 443e 72c8 99bd c20e cbbb
00000110: a4a2 5f3c 4c29 933c 3dbe 60be b642 9dbe
00000120: 83ac b53e 2a90 0e3e b287 573e 78e6 7dbd
00000130: b181 76be 71ab 103e 3f3a 623e 7d43 043e
00000140: c8e6 0abe 1b9b 23bf 212a 49be d9fb 29be
00000150: 1ba3 49bc 3878 ac3d fc1f 33bf 8a55 96be
00000160: 6fcc bd3d f6a2 a03d 9bbd 523d b45e c33e
00000170: 9344 e23d 7e83 51be cc3e 99be 7eae 023c
00000180: 34a9 5c3e 662b 9dbe 040d 29be 57d2 d0bd
00000190: b5db 573e ddb1 d73e 53bc 92bd c0f5 15be
000001a0: 780e f23b 6bd6 91be 1674 90be fbaf a2bd
000001b0: cc4b 74be 23c6 f33d 9b6e 4e3e 6f3d e83d
000001c0: 408a 57be 77ac 5fbe 4e6f 2c3e 9cb9 453d
000001d0: fb5a 193e 38d1 903e dd9e 37be 586a 783e
000001e0: 1d94 ddbd c04c 8b3e 86f1 a9be 5aaf 0d3e
000001f0: b6fc 063d 839a 613e 26fd a9be 36aa fe3d
00000200: 342c f0bd f148 ce3d 54dd 70be 7e07 76bc
00000210: 7190 b23e 75f1 833e 5c81 2fbe 37dd 3a3e
00000220: 2cf0 9fbe 03f8 cdbe cc6f 0c3e defb 8cbd
00000230: 4114 3bbe 57ab 3c3e f36c 283e 2972 933e
00000240: 1b4d 043e 9c4d adbe 8775 1e3e 844c fa3d
00000250: 6723 f93c 3762 79be 1fb9 a73d 53e1 96be
00000260: 63fb 4b3c cf0b 24be 4ad5 e9bc 8e34 3fbe
00000270: cfaf 0ebf 74c6 49bd 1325 1c3e 1ddc 02be
00000280: c281 523e 3a10 40bc 5056 80be 2c9b a33d
00000290: 7139 19bd f6b6 b03e c621 22be b698 aabe
000002a0: 575f 5dbe b64a adbe a94a 26bc 2bea bf3d
000002b0: 82f3 d3bd 7f43 c0be 5f50 5c3e 8d28 32be
000002c0: 1df4 6a3e f648 0a3e 0550 82bd 1f7b cd3c
000002d0: 6f2a 2a3e 2c54 79be 54e5 c63d b2a2 abbe
000002e0: e2c9 513e a890 edbc a073 913c 065f 5dbe
000002f0: dea1 aa3d f30e 2d3c c728 923d 193d 8f3b
00000300: af17 133e fee6 80be f287 07bf ede4 d33d
00000310: 470f 843e 09f2 203d 4a1b 613e 2867 c33e
00000320: e38f 12be 03c3 263e f29f 21be ba9a 6f3e
00000330: 85bf 30be 8469 8dbe cbb3 b73e 1e5f 2d3d
00000340: d2cb 89bd 7fc9 83be 5194 83be f6b3 023e
00000350: bf83 a5be 1c5e d83d 76f6 43be 4567 893c
00000360: 171d 323e c7cf 0ebd ab12 e03d 2fc6 48be
00000370: b362 723d ac95 3f3e 9db2 843c 8aeb 7cbe
00000380: 0e15 f3bd 291e afbd 3d74 413e 1397 c73e
00000390: 2efe f43d d561 97bd 6726 373e 566f 99bb
000003a0: 2388 063d 6ea0 583e c9e5 e33c 3e71 f4be
000003b0: e03c 883c 0c60 52be a4e2 65be 94a1 1c3d
000003c0: 03e6 323e 621f 80be d06b 183d 975c ccbd
000003d0: 3f11 d0bd b8e0 3dbe c4a0 5c3e 0a57 97bd
000003e0: b860 0bbe 0488 ce3d 1ead 113e e2ae 03bf
000003f0: 0676 543b d196 5d3b d610 93be e184 e4bd

net.2.weight f4 [128, 256]
0.26380834 -0.11936592 0.22648226 -0.19509664 -0.08306447 0.20910999 0.35883337 -0.12303611
0.54807943 -0.2307087 0.38882458 -0.3799572 0.5214871 0.18997546 -0.6955033 0.5084311
0.5381507 -0.26234892 -0.14453167 -0.08607375 0.083035395 -0.08698902 0.1300416 -0.3414468
0.11156759 -0.18857518 -0.45756418 0.041772135 -0.24925199 -0.3810496 0.32416362 0.6555318
0.034885146 0.40491527 0.15140954 -0.26234493 0.030080702 -0.2035941 0.0071273553 0.2612826
0.33029163 -0.071904756 0.12825696 -0.0043407977 -0.19227122 0.242384 -0.70072365 -0.07283787
-0.74005187 0.053253047 -0.16953819 0.037472185 0.2782704 0.07736306 0.17077927 -0.123505026
0.17591387 -0.117534526 -0.7825792 -0.18944012 0.026118923 0.06632992 0.5584697 0.16126889
0.34664354 -0.0187233 -0.15255886 -0.21510121 0.06073573 -0.42484325 -0.2230877 0.058159184
0.1657192 0.04530255 -0.028438117 -0.12787025 0.34258518 0.04884518 0.34527934 0.06882911
0.038494285 -0.21994644 -0.15941387 0.06680239 0.35628787 0.6542535 -0.5052618 0.48417068
0.23622854 0.42110923 -0.015630333 -0.39425611 -0.0013858993 -0.2621643 -0.14881477 -0.16482449
0.5909698 0.0114581855 -0.30020702 -0.51405674 0.3954962 -0.1298055 -0.44644406 0.30324623
0.31885847 -0.11425018 0.35421282 0.38097182 0.2269292 -0.26594192 -0.29071668 0.091307074
-0.1648643 0.06937179 -0.36354336 0.2072988 0.33850947 -0.2547826 0.029790223 0.10291187
-0.05560309 -0.29310757 -0.17723446 -0.114980035 -0.09250969 -0.50839823 -0.025126064 -0.3131496
-0.23366864 0.027603587 0.03207648 -0.24950948 0.029670095 0.1498613 -0.16196276 0.024662623
0.52246755 -0.30042088 -0.23614575 0.36125237 0.114190996 0.0670197 0.2771348 0.22184925
0.30219135 -0.11924913 -0.18725176 0.5067643 0.058821976 -0.21011442 0.1454441 -0.38273245
0.10299453 -0.24961713 -0.23776767 0.20356329 -1.0499787 -0.16353893 0.22367923 -0.290969
0.17498319 -0.17170835 -0.08715981 -0.45842654 0.26467693 0.20793796 0.23466778 -0.13284211
0.12405932 -0.36339092 -0.45818302 0.08445385 -0.081287876 -0.053788085 -0.2490421 0.4478911
0.061543465 0.34585387 0.16304015 0.04968588 0.15140474 -0.42017654 -0.8476544 0.13316187
0.25761914 -0.058290098 -0.18434678 0.09506101 -0.043374408 0.0036212285 -0.046399817 0.2994601
0.4140903 0.02498714 0.06908785 -0.09972266 -0.06351651 -0.088158965 -0.17333218 -0.6218942
-0.0013171623 0.22117156 -0.42277163 0.38719437 0.5046796 -0.9938051 0.20498848 -0.20531835
-0.43424842 0.35739675 -0.030558735 0.10624351 -0.34128806 -0.10458838 -0.16134554 -0.19213478
0.16164674 -0.56038094 0.18881957 -0.17822853 0.6338436 -0.26340067 0.41576967 -0.19710396
0.004313839 0.19356945 -0.26601958 0.11804516 0.32051942 -0.4417124 -0.032960273 -0.32859161
0.1323324 0.054821618 -0.024672447 -0.15536733 0.040905412 -0.06492514 -0.11221426 -0.5133336
-0.052008353 0.21637428 -0.0011626001 -0.25289583 -0.22226271 0.42113698 0.3577194 -0.14864382
-0.28809747 0.04595881 0.11063026 -0.23331285 -0.009041126 -0.35394147 0.11038907 0.2189586
00000000: e311 873e 1f76 f4bd f7ea 673e 6ac7 47be
00000010: b41d aabd ee20 563e 02b9 b73e 5bfa fbbd
00000020: ef4e 0c3f e73e 6cbe 0414 c73e c089 c2be
00000030: 2e80 053f ed88 423e 810c 32bf 8a28 023f
00000040: 3fc4 093f 9952 86be 1c00 14be 6f47 b0bd
00000050: 760e aa3d 4d27 b2bd a029 053e 1dd2 aebe
00000060: 8c7d e43d da19 41be da45 eabe 4219 2b3d
00000070: ea3b 7fbe ef18 c3be c6f8 a53e efd0 273f
00000080: bae3 0e3d 0e51 cf3e 1a0b 1b3e 1352 86be
00000090: ce6b f63c f97a 50be 978c e93b d5c6 853e
000000a0: fc1b a93e cd42 93bd cb55 033e 403d 8ebb
000000b0: bfe2 44be 8333 783e a062 33bf 052c 95bd
000000c0: 0a74 3dbf de1f 5a3d 6b9b 2dbe 6f7c 193d
000000d0: 7579 8e3e 8670 9e3d c3e0 2e3e 34f0 fcbd
000000e0: c422 343e f1b5 f0bd 1c57 48bf 97fc 41be
000000f0: 5af7 d53c fbd7 873d dff7 0e3f ac23 253e
00000100: 437b b13e 9b61 99bc 6438 1cbe 7e43 5cbe
00000110: 07c6 783d 0e85 d9be 1a71 64be 5338 6e3d
00000120: 4bb2 293e 2b8f 393d 0ef7 e8bc 6bf0 02be
00000130: 5367 af3e e211 483d 74c8 b03e 47f6 8c3d
00000140: 2fac 1d3d a439 61be 643d 23be b1cf 883d
00000150: 5d6b b63e 287d 273f d658 01bf 38e5 f73e
00000160: e5e5 713e a19b d73e 2f0b 80bc f0db c9be
00000170: 10a7 b5ba 663a 86be e662 18be c0c7 28be
00000180: cc49 173f 1dbb 3b3c bcb4 99be 3999 03bf
00000190: 7a7e ca3e bceb 04be 5194 e4be 1743 9b3e
000001a0: 6b41 a33e 00fc e9bd 625b b53e bd0e c33e
000001b0: 2160 683e 8a29 88be d1d8 94be 34ff ba3d
000001c0: 30d2 28be cc12 8e3d 5b22 babe 2346 543e
000001d0: 1d51 ad3e dd72 82be a00a f43c 75c3 d23d
000001e0: 11c0 63bd 3212 96be f37c 35be a77a ebbd
000001f0: b875 bdbd 6326 02bf 2dd5 cdbc 2555 a0be
00000200: d546 6fbe eb20 e23c a162 033d 6a7f 7fbe
00000210: b30e f33c 3e75 193e 91d9 25be 4509 ca3c
00000220: 6fc0 053f c4d0 99be 31d0 71be 12f6 b83e
00000230: f8dc e93d a041 893d 9de4 8d3e 732c 633e
00000240: d3b8 9a3e e338 f4bd edbe 3fbe 4ebb 013f
00000250: 50ef 703d 3c28 57be 4cef 143e 82f5 c3be
00000260: ccee d23d a29b 7fbe 5e79 73be e572 503e
00000270: b465 86bf c076 27be 2b0c 653e e4f9 94be
00000280: cb2e 333e 50d4 2fbe d880 b2bd e2b6 eabe
00000290: bc83 873e b0ed 543e c04c 703e c307 08be
000002a0: d012 fe3d 600e babe f796 eabe 24f6 ac3d
000002b0: 427a a6bd e550 5cbd e404 7fbe fb51 e53e
000002c0: 0015 7c3d c213 b13e fff3 263e 6c83 4b3d
000002d0: d809 1b3e 6121 d7be e1ff 58bf 965b 083e
000002e0: a8e6 833e 99c1 6ebd 67c5 3cbe 59af c23d
000002f0: 5da9 31bd 2252 6d3b bc0d 3ebd d652 993e
00000300: a503 d43e d5b1 cc3c ee7d 8d3d 653b ccbd
00000310: f214 82bd b08c b4bd fe7d 31be 7534 1fbf
00000320: a2a4 acba cc7a 623e 8675 d8be 573e c63e
00000330: af32 013f 036a 7ebf 80e8 513e f93e 52be
00000340: cf55 debe b5fc b63e 5056 fabc 3396 d93d
00000350: 4fbd aebe 6f32 d6bd c437 25be fbbe 44be
00000360: b986 253e 2075 0fbf eb59 413e 8a81 36be
00000370: 9343 223f 74dc 86be c3df d43e 9fd5 49be
00000380: 1b5b 8d3b 1237 463e b833 88be a9c1 f13d
00000390: 1f1b a43e 2128 e2be 5a01 07bd 293d a8be
000003a0: 2582 073e a28c 603d df1d cabc 9d18 1fbe
000003b0: 6f8c 273d 79f7 84bd 97d0 e5bd d569 03bf
000003c0: b606 55bd 3891 5d3e 6362 98ba 907b 81be
000003d0: d698 63be 449f d73e ff26 b73e 1636 18be
000003e0: 8381 93be 4e3f 3c3d 1e92 e23d 90e9 6ebe
000003f0: 3b21 14bc d137 b5be aa13 e23d af36 603e

net.2.bias f4 [128]
0.18696284 0.31086513 -0.025639936 -0.053488385 0.01126632 0.069332644 -0.051050607 0.086874366
-0.060550313 0.27814326 0.1468109 0.010431781 0.09984482 -0.035308678 0.000117415875 0.09051693
0.10040122 0.043032594 0.053818014 0.12247349 -0.012419868 0.09372072 0.04429261 0.023020398
0.21372508 0.10149122 0.105230376 -0.021798518 0.08013806 -0.0036466958 -0.037262686 0.033634234
0.14926943 0.045191705 -0.006219033 0.14187673 0.023567745 0.0482973 0.045234676 0.261563
-0.062110465 -0.0062037203 0.1303852 0.2034188 0.07427148 -0.1341579 0.14677583 0.06731
0.045953073 0.106365666 -0.01504366 -0.04507035 -0.14206272 0.118867375 0.014046963 0.077173375
0.0717619 0.04541923 -0.048501957 0.21288721 0.10503503 0.18351759 -0.03477787 0.15568292
0.054060403 0.075274445 0.10592517 0.08688057 0.020058267 -0.04444073 0.29295394 0.16586545
0.0023673929 0.14093292 -0.011371982 -0.025428155 0.01966134 0.23512891 0.080531426 0.059039347
0.2306607 0.22703531 0.06840243 0.103197455 0.1134159 0.06389542 0.20469885 0.009622407
0.102000356 0.21917298 0.1335502 -0.0076575484 -0.061360482 0.20653865 0.037336413 0.055375267
0.13140689 0.026852492 0.23042713 0.08376641 0.18618742 -0.06935931 -0.02328275 -0.042261817
-0.008399945 0.26819745 0.1029668 0.081705935 0.12626961 0.09364152 0.20704818 0.16389036
0.0807154 -0.050330617 -0.0317877 0.028293801 -0.094903596 0.08352277 -0.28680083 -0.0792195
0.15245433 0.107079394 0.04082811 0.042450562 0.2919919 -0.063798994 0.043874204 0.116271876
00000000: 3073 3f3e b729 9f3e d80a d2bc a316 5bbd
00000010: 5f96 383c 46fe 8d3d 711a 51bd 30eb b13d
00000020: 9b03 78bd cb68 8e3e 9955 163e 10ea 2a3c
00000030: 717b cc3d d59f 10bd 2b3d f638 f160 b93d
00000040: 289f cd3d f242 303d 4770 5c3d 62d3 fa3d
00000050: b47c 4bbc a6f0 bf3d 2b6c 353d 4695 bc3c
00000060: bfda 5a3e a1da cf3d 0683 d73d ce92 b2bc
00000070: 6c1f a43d 67fd 6ebb c2a0 18bd 0dc4 093d
00000080: 16da 183e f01a 393d 08c9 cbbb 2248 113e
00000090: 2511 c13c 64d3 453d ff47 393d 96eb 853e
000000a0: 8b67 7ebd 9448 cbbb b383 053e 054d 503e
000000b0: a51b 983d b060 09be 674c 163e d3d9 893d
000000c0: 4a39 3c3d 3ed6 d93d af79 76bc b09b 38bd
000000d0: e478 11be bd70 f33d 3c25 663c 130d 9e3d
000000e0: e7f7 923d 8409 3a3d fda9 46bd 1bff 593e
000000f0: 9b1c d73d 09ec 3b3e 3d73 0ebd 586b 1f3e
00000100: 716e 5d3d 7d29 9a3d 4cef d83d 71ee b13d
00000110: 3c51 a43c 7c07 36bd 0ffe 953e a2d8 293e
00000120: 4326 1b3b b850 103e 8d51 3abc b54e d0bc
00000130: d210 a13c a2c5 703e a9ed a43d 3ed3 713d
00000140: 5232 6c3e f27b 683e 9316 8c3d 3059 d33d
00000150: 9846 e83d 9adb 823d 939c 513e 4da7 1d3c
00000160: 90e5 d03d e26e 603e 62c1 083e 2cec fabb
00000170: 2155 7bbd de7e 533e 11ee 183d 2dd1 623d
00000180: 878f 063e c2f9 db3c 17f5 6b3e b98d ab3d
00000190: eaa7 3e3e 410c 8ebd 77bb bebc ba1a 2dbd
000001a0: ec9f 09bc 2d51 893e 42e0 d23d 7155 a73d
000001b0: d24c 013e 20c7 bf3d 7004 543e e0d2 273e
000001c0: 1e4e a53d 7a27 4ebd d233 02bd 67c8 e73c
000001d0: d15c c2bd fc0d ab3d 8fd7 92be d53d a2bd
000001e0: fd1c 1c3e 714c db3d 603b 273d a4e0 2d3d
000001f0: f67f 953e 0ca9 82bd 70b5 333d f31f ee3d

net.4.weight f4 [64, 128]
-0.16007906 0.045562837 0.04172985 -0.121728584 -0.056282695 0.21683745 -0.05998857 0.008555588
-0.31369784 0.07764695 -0.14171542 0.076776415 -0.12154081 0.021053968 0.07752032 0.05095042
0.072249755 0.3687835 -0.08285674 0.08372309 -0.14101751 0.34281433 0.054244548 -0.17993575
0.117619276 0.2100706 0.1877702 0.16687874 0.19184825 0.13549308 0.21019363 0.29278013
0.2702273 0.04100139 -0.23447701 0.084908865 0.1057163 -0.17384554 -0.017521923 0.06589825
0.38523206 -0.57626104 0.15498805 -0.19713312 0.20503773 0.098303996 0.011211971 0.055507172
-0.034325812 0.061137836 0.083828375 -0.38302967 -1.9744866 -0.13046119 0.008483213 0.17279628
0.020267228 0.00083667383 0.06318041 0.12313103 -0.110118456 -0.06076245 -0.066857025 -0.27106142
-0.1941685 0.37165862 -0.2787922 0.0046885326 0.5529051 -0.13659 0.39492163 0.2831589
-0.4343694 0.07711893 -0.017242536 -0.085929506 0.022676492 -0.15359724 -0.29340145 -0.0644717
-0.074117385 0.057539955 -0.054386575 0.015567069 0.07570483 -0.16979696 0.2954794 0.15645115
-0.9683412 0.05622073 -0.4003368 0.07932593 -0.18845448 -0.08335794 -0.047183637 0.06602671
0.16287069 0.056289203 -0.051355027 -0.09147958 0.38430947 0.01252891 -0.023052039 -0.34046614
0.021582492 0.033365563 0.52565205 0.33396676 0.033913232 0.021827204 0.19543746 0.18901913
-0.020118535 -0.030791722 0.13784756 -0.06351349 0.0068830955 -0.05481796 0.10799823 0.060123008
0.4495114 0.25251117 -0.20131518 -0.35256928 -0.84764117 0.07641756 0.14529586 0.19140275
-0.039806176 -0.017940002 0.00255815 -0.025903635 -0.040445346 -0.05447181 0.06449894 -0.030552268
-0.019334603 -0.04833081 0.057574112 -0.015643504 0.045457568 -0.020986363 0.045604132 -0.064357534
-0.09140053 0.0489046 -0.11823129 -0.053106483 0.006240615 0.032038532 -0.0958847 -0.048488293
0.003450714 0.05672233 -0.06829182 0.07667894 -0.04581196 -0.067995384 -0.067070544 -0.032787237
0.015440544 0.001973745 0.022408038 -0.06293919 -0.07834243 0.06784298 -0.01178286 0.07751375
-0.093098976 -0.06118611 -0.070026904 0.06574064 0.01923119 -0.0772431 -0.07373953 0.03671366
0.06311798 -0.0069320714 0.04287774 0.042036165 -0.039783865 0.06523513 0.02053985 -0.032349903
-0.0458847 0.028316136 0.049748696 -0.072457924 -0.038154893 -0.06821686 -0.008509528 -0.083335996
0.075702295 0.0002627649 -0.033811864 -0.08518843 -0.088609196 -0.031115662 0.044298716 0.020409781
-0.05799482 -0.064341694 -0.05515834 -0.024012536 0.0009939699 -0.046127163 -0.08793552 0.0013154071
0.051088203 -0.08055501 -0.058449365 0.012309832 -0.021431012 -0.06586956 -0.05167041 0.034488305
-0.011044771 -0.07025203 0.049863882 -0.055165313 -0.041703116 -0.05503456 0.07481916 -0.050578706
-0.08669845 -0.03673748 -0.088761926 0.07071498 -0.02542014 -0.010287873 -0.062208146 -0.076611556
-0.07654954 -0.034380246 -0.040769286 -0.11086374 -0.053193316 0.06624701 0.022207733 -0.02129672
-0.024461176 -0.07165848 -0.05624302 -0.046054613 -0.057630852 -0.09313821 0.052193865 0.02304429
0.017136775 0.059433654 0.026741534 -0.043544654 -0.015791582 0.03525473 0.044953138 0.045403175
00000000: c4eb 23be 19a0 3a3d ebec 2a3d d64c f9bd
00000010: af88 66bd a30a 5e3e 93b6 75bd bd2c 0c3c
00000020: 019d a0be 5d05 9f3d d91d 11be f43c 9d3d
00000030: 63ea f8bd 5f79 ac3c f9c2 9e3d 63b1 503d
00000040: aef7 933d 31d1 bc3e cbb0 a9bd 0377 ab3d
00000050: e566 10be 5c85 af3e 882f 5e3d 1441 38be
00000060: 60e2 f03d bf1c 573e d546 403e 43e2 2a3e
00000070: de73 443e b3be 0a3e 003d 573e 47e7 953e
00000080: 3c5b 8a3e 13f1 273d be1a 70be b3e4 ad3d
00000090: ca81 d83d 9104 32be 238a 8fbc a9f5 863d
000000a0: 233d c53e d885 13bf 30b5 1e3e 44dd 49be
000000b0: 69f5 513e 9b53 c93d 6ab2 373c 7d5b 633d
000000c0: 3999 0cbd ab6b 7a3d 36ae ab3d 771c c4be
000000d0: fabb fcbf 9e97 05be 2dfd 0a3c 82f1 303e
000000e0: 7507 a63c 3b54 5b3a bb64 813d 1f2c fc3d
000000f0: c985 e1bd 0ce2 78bd 56ec 88bd 90c8 8abe
00000100: 1bd4 46be 0a4a be3e dabd 8ebe 43a2 993b
00000110: 308b 0d3f 40de 0bbe 2b33 ca3e 34fa 903e
00000120: aa65 debe 88f0 9d3d 3840 8dbc cffb afbd
00000130: 0dc4 b93c 9848 1dbe b738 96be bd09 84bd
00000140: dbca 97bd 04af 6b3d 75c4 5ebd 050d 7f3c
00000150: 220b 9b3d 41df 2dbe 1349 973e bb34 203e
00000160: 35e5 77bf b547 663d f2f8 ccbe a275 a23d
00000170: 36fa 40be 91b7 aabd a143 41bd 0339 873d
00000180: 93c7 263e 828f 663d a659 52bd a559 bbbd
00000190: 36c4 c43e 0f46 4d3c a1d7 bcbc 9451 aebe
000001a0: c4cd b03c 54aa 083d 2291 063f b1fd aa3e
000001b0: 9ae8 0a3d f7ce b23c c220 483e 3b8e 413e
000001c0: a0cf a4bc ec3e fcbc e927 0d3e 5c13 82bd
000001d0: 978b e13b cc88 60bd 2d2e dd3d 8b43 763d
000001e0: 5c26 e63e 2549 813e 9125 4ebe f683 b4be
000001f0: 03ff 58bf cf80 9c3d 70c8 143e 15ff 433e
00000200: cd0b 23bd e9f6 92bc a3a6 273b dc33 d4bc
00000210: 05aa 25bd d51d 5fbd 0518 843d c048 fabc
00000220: 9a63 9ebc 87f6 45bd d5d2 6b3d ce26 80bc
00000230: b731 3a3d 98eb abbc 66cb 3a3d e2cd 83bd
00000240: 3330 bbbd 3150 483d 3f23 f2bd 2f86 59bd
00000250: 137e cc3b d63a 033d 335f c4bd a99b 46bd
00000260: 6025 623b ad55 683d 95dc 8bbd d909 9d3d
00000270: 52a5 3bbd 2a41 8bbd 485c 89bd e94b 06bd
00000280: 56fa 7c3c f259 013b 1091 b73c 43e6 80bd
00000290: ff71 a0bd 43f1 8a3d e60c 41bc 87bf 9e3d
000002a0: adaa bebd 499e 7abd 446a 8fbd 07a3 863d
000002b0: bb8a 9d3c a131 9ebd c004 97bd 1061 163d
000002c0: 0044 813d 6e26 e3bb 92a0 2f3d 1d2e 2c3d
000002d0: 68f4 22bd ff99 853d 3043 a83c 5581 04bd
000002e0: 98f1 3bbd 3ef7 e73c 4ac5 4b3d d264 94bd
000002f0: 4e48 1cbd 48b5 8bbd 8c6b 0bbc 10ac aabd
00000300: ce09 9b3d b5c3 8939 4f7e 0abd 4677 aebd
00000310: bd78 b5bd 46e6 febc 9272 353d 6a32 a73c
00000320: fa8b 6dbd 94c5 83bd b6ed 61bd f0b5 c4bc
00000330: 1848 823a d6ef 3cbd 8a17 b4bd bd69 ac3a
00000340: dd41 513d 06fa a4bd 9a68 6fbd 2daf 493c
00000350: 1790 afbc 9fe6 86bd 5aa4 53bd 9c43 0d3d
00000360: 21f5 34bc 4ce0 8fbd 123e 4c3d 06f5 61bd
00000370: e3d0 2abd eb6b 61bd ca3a 993d 9e2b 4fbd
00000380: f58e b1bd 0a7a 16bd d0c8 b5bd 04d3 903d
00000390: e63d d0bc 788e 28bc f8cd 7ebd 85e6 9cbd
000003a0: 01c6 9cbd 4dd2 0cbd b2fd 26bd 870c e3bd
000003b0: 3ce1 59bd 83ac 873d feec b53c 7576 aebc
000003c0: ce62 c8bc aec1 92bd 155f 66bd c3a3 3cbd
000003d0: 540e 6cbd 3fbf bebd 3cc9 553d 61c7 bc3c
000003e0: 6c62 8c3c b470 733d 1011 db3c e15b 32bd
000003f0: 595d 81bc 4467 103d c820 383d aef8 393d

net.4.bias f4 [64]
0.012092068 -0.09802843 -0.02354738 -0.09984514 0.019762475 0.19568886 0.064928696 0.11081834
0.1933382 -0.16954048 -0.07383427 0.17452323 -0.08539974 0.061738737 0.22189178 -0.015782729
0.12777886 0.035436608 0.08020351 0.05792452 0.18833824 -0.10378394 0.29531103 0.12219337
-0.12452831 -0.07278937 -0.26584998 0.14356622 0.06941142 0.044333726 -0.10162814 0.03594247
-0.16454574 -0.019071719 0.21515468 0.18125315 -0.026094265 -0.083372936 -0.02325649 -0.11800458
-0.19374819 -0.059962425 0.19540837 0.09134166 0.049984604 0.06759679 0.09323315 0.03388952
0.25856727 0.13235255 0.042081766 0.26938865 0.08959956 -0.08310515 0.1956477 0.21456622
-0.06559725 -0.006741676 -0.06943658 0.2826267 -0.08482067 0.17306659 -0.1743453 -0.065055676
00000000: cf1d 463c 21c3 c8bd 6fe6 c0bc 9c7b ccbd
00000010: eae4 a13c a962 483e 56f9 843d baf4 e23d
00000020: 73fa 453e 059c 2dbe 6c36 97bd 38b6 323e
00000030: 0fe6 aebd c2e1 7c3d 9937 633e c84a 81bc
00000040: 76d8 023e fa25 113d bd41 a43d 4342 6d3d
00000050: bddb 403e ad8c d4bd 0233 973e 8440 fa3d
00000060: b308 ffbd 9812 95bd 7d1d 88be 0603 133e
00000070: 9327 8e3d 4897 353d 6a22 d0bd 6938 133d
00000080: ae7e 28be 4b3c 9cbc 8251 5c3e 6d9a 393e
00000090: a4c3 d5bc 6ebf aabd 6584 bebc 63ac f1bd
000000a0: ed65 46be 299b 75bd 2219 483e 5611 bb3d
000000b0: a8bc 4c3d 3070 8a3d 06f1 be3d bdcf 0a3d
000000c0: ee62 843e 6d87 073e ee5d 2c3d 4fed 893e
000000d0: f97f b73d 0833 aabd df57 483e 3fb7 5b3e
000000e0: da57 86bd 47e9 dcbb c434 8ebd 72b4 903e
000000f0: 76b6 adbd 5e38 313e 9387 32be e93b 85bd

net.6.weight f4 [32, 64]
-0.32565868 -0.017266313 -0.046204653 0.41792864 -0.04183829 0.11047184 0.21605061 -0.7864953
-0.14065841 0.40064955 -0.092677675 -0.1147329 0.08050631 0.12835155 -0.32366788 0.016051548
-0.47981596 0.34035936 0.1852736 0.07403602 -0.05500557 0.023450416 0.20439973 -0.12031438
0.44949073 0.3516226 0.3977389 -0.16096832 -0.007804673 -0.31287733 0.06759311 0.17772436
0.20133291 -0.012332936 -0.05437033 0.0459733 -0.07961059 0.13327669 -0.017842252 -0.077179894
-0.07992597 -0.18261342 0.079094775 -0.25276643 -0.28985086 -0.17740078 -0.20026095 -0.016822755
-1.2157403 0.07807468 0.023867076 0.52548534 -0.75766087 -0.046575394 0.93873423 -0.49158576
-0.10278227 -0.08961661 -0.22117113 -1.0982243 -0.064481705 -0.15920347 0.06701732 0.25812238
0.48632222 0.10247029 0.08871768 0.057335798 -0.065163165 -0.028028779 0.3296312 -0.19765784
0.13350666 -0.27834004 -0.03500313 -0.07921647 0.08473497 -0.10475334 -0.05679905 -0.34269616
0.2234959 0.048568778 0.22267145 0.1008964 0.22376548 0.06321153 -0.004163722 0.038458195
0.55218595 0.29290983 -0.31882882 0.50212294 0.21938302 0.31088677 0.040413965 0.42558485
0.4969228 0.1331741 -0.06776651 -0.24157 -0.05768753 0.16290113 0.25187227 0.13455442
-0.03178829 0.22887678 0.005308716 0.09180043 0.28551477 0.19022244 -0.20654295 -0.0034981533
-0.2769768 0.058047816 0.036689445 -0.39831075 -0.15704866 0.1738394 -0.50243676 -0.23198013
0.08148569 -0.05123736 0.03647771 0.0054988796 -0.095260635 0.030793827 0.31504378 -0.07623293
0.31253558 0.091898635 0.10303679 0.08609982 0.10384806 -0.044613075 0.22514889 0.18506339
0.30332053 0.29741713 -0.25920373 0.43522492 -0.0868171 -0.17085953 -0.043341946 0.12132756
0.0824831 -0.12276755 -0.396974 0.06306348 -0.076545 -0.030842893 0.5033648 0.5504195
0.67787486 0.27569506 0.015628072 0.6080577 -0.22916533 0.20068604 -0.060538948 0.17493063
-0.061128113 0.031062288 -0.181642 0.43704754 -0.09485772 0.0086193 0.086650915 0.12821269
-0.038187794 0.21001427 0.033597168 -0.1700018 0.08331671 0.28252003 0.108957246 0.445569
-0.09779496 0.030429235 0.5105949 -0.13687187 0.39141276 0.1477895 0.1042371 -1.2482799
0.03649352 0.098068446 0.16254207 0.13968286 0.029130248 -0.5933177 0.02328496 -0.21136975
-0.26062948 0.08146001 -0.12122525 -0.20286007 -0.04173326 0.012327623 -0.17683414 0.118786804
0.11549117 0.87039626 -0.41705456 0.013648598 -0.35161453 0.086930566 0.022510223 0.70545447
0.07936685 -0.23161528 0.106361076 -0.10489021 0.43721464 -0.060384735 0.3216139 0.029774116
-0.23465212 -0.17162067 -0.438005 -0.14818406 0.26706123 -0.1617717 -0.08587075 -0.7682455
-0.6418888 -0.076127835 0.11678713 0.1664487 0.010097793 -0.7615744 -1.2081115 -0.039859645
0.030530963 0.07754037 0.1837599 -0.057328075 0.045126483 -0.07965662 -0.009095373 -0.43080413
0.13686019 0.14849764 0.19020288 0.79849976 0.49238154 -1.4126583 -0.08272309 0.6525538
-0.11855099 0.081393756 -0.2721272 -0.041715503 -0.121121 0.054092113 -1.2845134 -0.1765443
00000000: bcbc a6be 1572 8dbc 1741 3dbd befa d53e
00000010: a05e 2bbd 0f3f e23d 5f3c 5d3e c257 49bf
00000020: c208 10be f021 cd3e cbcd bdbd 15f9 eabd
00000030: 7ee0 a43d 976e 033e ccb7 a5be 897e 833c
00000040: 70aa f5be 9543 ae3e 5db8 3d3e 32a0 973d
00000050: 854d 61bd 161b c03c 2a4e 513e 6367 f6bd
00000060: a623 e63e e107 b43e 6fa4 cb3e e1d4 24be
00000070: 58be ffbb 7531 a0be 426e 8a3d 60fd 353e
00000080: 372a 4e3e 1510 4abc 6cb3 5ebd 804e 3c3d
00000090: e10a a3bd af79 083e ea29 92bc 7e10 9ebd
000000a0: 3ab0 a3bd 03ff 3abe 71fc a13d 9a6a 81be
000000b0: 5567 94be 8da8 35be 3511 4dbe e0cf 89bc
000000c0: 619d 9bbf 9ee5 9f3d e384 c33c 3586 063f
000000d0: 10f6 41bf d7c5 3ebd e350 703f 21b1 fbbe
000000e0: 837f d2bd ea88 b7bd af7a 62be 9d92 8cbf
000000f0: fc0e 84bd 3c06 23be 6040 893d 9e28 843e
00000100: 3aff f83e f2db d13d 9db1 b53d f1d8 6a3d
00000110: 4474 85bd 9c9c e5bc 6cc5 a83e d166 4abe
00000120: f8b5 083e 9682 8ebe 715f 0fbd 3f3c a2bd
00000130: 8789 ad3d eb88 d6bd 1fa6 68bd df75 afbe
00000140: 1cdc 643e 0ef0 463d fc03 643e c6a2 ce3d
00000150: c722 653e 0c75 813d d56f 88bb 5786 1d3d
00000160: 0f5c 0d3f 47f8 953e 883d a3be 218b 003f
00000170: f1a5 603e 8d2c 9f3e 1d89 253d 42e6 d93e
00000180: aa6c fe3e cb5e 083e 2bc9 8abd 205e 77be
00000190: c249 6cbd 8ecf 263e 67f5 803e a2c8 093e
000001a0: 7034 02bd ad5e 6a3e bdf4 ad3b dd01 bc3d
000001b0: fe2e 923e acc9 423e ff7f 53be 4641 65bb
000001c0: e7cf 8dbe 8cc3 6d3d ac47 163d 63ef cbbe
000001d0: 5dd1 20be f502 323e b29f 00bf 338c 6dbe
000001e0: f8e1 a63d 44de 51bd a769 153d f22f b43b
000001f0: 0218 c3bd 5643 fc3c 6b4d a13e 0320 9cbd
00000200: aa04 a03e 5a35 bc3d f404 d33d 1a55 b03d
00000210: 4bae d43d 33bc 36bd 6e8d 663e 4281 3d3e
00000220: d44c 9b3e 0f47 983e 5ab6 84be cdd5 de3e
00000230: 2acd b1bd cdf5 2ebe 5387 31bd 957a f83d
00000240: e6ec a83d 8e6d fbbd 2d40 cbbe 6d27 813d
00000250: a0c3 9cbd 3caa fcbc 84dc 003f 4be8 0c3f
00000260: 3589 2d3f e727 8d3e 7106 803c aba9 1b3f
00000270: 51aa 6abe a480 4d3e b0f7 77bd 0421 333e
00000280: 7961 7abd 5776 fe3c 5c00 3abe b2c4 df3e
00000290: c444 c2bd f737 0d3c 0976 b13d 304a 033e
000002a0: ce6a 1cbd fb0d 573e 2f9d 093d f414 2ebe
000002b0: f4a1 aa3d 77a6 903e fa24 df3d 9f21 e43e
000002c0: b948 c8bd bb46 f93c 59b6 023f 2428 0cbe
000002d0: 4167 c83e 2156 173e 437a d53d a3c7 9fbf
000002e0: 3b7a 153d 1cd8 c83d 6e71 263e 0609 0f3e
000002f0: 8fa2 ee3c abe3 17bf 1ac0 be3c 5071 58be
00000300: 3a71 85be 81d4 a63d f244 f8bd 8dba 4fbe
00000310: 7ff0 2abd ccf9 493c 0214 35be 7f46 f33d
00000320: a286 ec3d 4ad2 5e3f 2d88 d5be 5f9e 5f3c
00000330: d206 b4be a708 b23d 5c67 b83c aa98 343f
00000340: 168b a23d 8e2c 6dbe d6d3 d93d aed0 d6bd
00000350: 99da df3e fc55 77bd 94aa a43e d9e8 f33c
00000360: a548 70be 54bd 2fbe 3142 e0be 90bd 17be
00000370: 40bc 883e 7ba7 25be 01dd afbd bdab 44bf
00000380: d352 24bf e9e8 9bbd 172e ef3d 8771 2a3e
00000390: 3771 253c 8af6 42bf 66a3 9abf de43 23bd
000003a0: 121c fa3c 7ccd 9e3d 8e2b 3c3e d8d0 6abd
000003b0: 8cd6 383d 0323 a3bd c204 15bc 5c92 dcbe
000003c0: 1425 0c3e c40f 183e 8bc4 423e 7b6a 4c3f
000003d0: 6f19 fc3e fdd1 b4bf b96a a9bd c40d 273f
000003e0: ddca f2bd c5b1 a63d 4254 8bbe e0dd 2abd
000003f0: 490e f8bd b18f 5d3d ef6a a4bf 07c8 34be

net.6.bias f4 [32]
-0.39388734 -0.13747925 0.07837256 0.036211707 0.03366976 0.1010544 0.18619083 0.04019534
0.03168176 -0.16071145 -0.003727559 0.13405222 -0.14286718 -0.01873436 0.29724082 0.059313565
-0.10781895 0.1874365 -0.13052516 -0.037498068 0.2834769 0.10469359 -0.15757792 0.017647343
-0.11359685 0.26199794 0.05531287 -0.08759591 0.19745694 0.08637123 0.06600497 0.104733706
00000000: 9aab c9be 5cc7 0cbe cb81 a03d ba52 143d
00000010: 4de9 093d 9cf5 ce3d cfa8 3e3e dea3 243d
00000020: bcc4 013d 8b91 24be 104a 74bb fc44 093e
00000030: c64b 12be cd78 99bc f32f 983e c8f2 723d
00000040: 2fd0 dcbd 5bef 3f3e 63a8 05be 9397 19bd
00000050: e223 913e 9869 d63d 1b5c 21be 2991 903c
00000060: 77a5 e8bd 9824 863e bf8f 623d 7c65 b3bd
00000070: 2732 4a3e 66e3 b03d 9d2d 873d a07e d63d

net.8.weight f4 [18, 32]
0.19550267 -0.86915296 0.07917468 0.23637764 0.09095313 -0.21323338 0.164497 -2.4357302
-0.03318654 0.011746083 -0.10883354 0.015697572 0.23873408 -0.15368408 -2.0473406 0.27712446
0.10892652 -0.42632663 0.16807592 0.076088026 0.018770307 -0.072415695 -0.13926703 -0.12128287
0.18493904 0.015681919 -0.95393395 0.05042674 -0.6426398 -0.92237777 -0.3050289 0.032453272
-1.8648323 -0.31698182 -0.2832688 -0.2448012 -0.02658778 -0.09761173 -0.23382789 -0.12971857
-0.4763248 0.16294909 -0.0662024 -1.1081499 -0.40524697 -0.37466273 -0.65374047 0.052156556
-0.09041817 -0.362102 0.023578923 -0.047927655 -0.47037187 -0.38030845 -0.035684295 -0.012500713
-0.24794233 -0.5355859 -0.30663487 -0.14775841 -0.09646403 -0.49536687 -0.13937676 -0.044900402
-0.34788236 -0.5422488 -0.79735154 1.1229718 -0.10270772 0.4751307 -0.52794224 -0.08968912
-0.14968999 -0.11460776 0.06259923 0.14917295 -0.65495634 -0.28385133 0.150858 -0.5835307
-0.058385357 0.2656425 0.17213304 -0.37652865 0.16906035 0.29904455 0.16923155 -0.21528175
-0.70051056 0.11528371 0.25501072 -0.031762626 1.1404473 0.1804903 -0.99331576 -0.50668216
-1.999076 -0.1861109 -0.28442082 -0.2273287 0.042841624 -0.14100882 0.021544551 -0.40586826
-0.46914884 0.082566544 0.16644336 -1.2099104 -0.34142855 -0.5515715 -0.63810486 0.0562019
0.120670885 -0.46515852 -0.06743365 -0.073777705 -0.38473806 -0.4382127 -0.052602686 -0.15562391
-0.26452222 -0.29542097 -0.27905074 -0.16183159 0.012239214 -0.5094374 -0.1596662 -0.17139935
-1.8758686 -0.054289337 -0.26178718 -0.18779679 -0.06750611 -0.1164609 -0.17509595 -0.3798827
-0.4160524 0.066439256 0.059259765 -1.1948773 -0.43782404 -0.31062132 -0.5435367 0.044941243
-0.12938371 -0.5555069 -0.0018440512 -0.2147875 -0.36031792 -0.5011542 -0.082193665 -0.0416504
-0.22857997 -0.32386866 -0.3630913 0.021360654 0.088593274 -0.43543327 0.11846318 -0.23801161
-2.2497087 -0.04067016 -0.3556613 -0.22336353 -0.16025183 -0.037123 -0.17730594 -0.32853624
-0.33162215 -0.09633981 0.14563832 -1.2653749 -0.43811476 -0.4787804 -0.3910418 -0.08722967
-0.066113286 -0.2767062 -0.14378613 -0.12322847 -0.41691014 -0.47158056 -0.10234019 -0.18071054
-0.16115671 -0.5695032 -0.4489041 -0.18505996 -0.09222588 -0.40446192 0.06615297 0.03350263
-0.7525029 -0.18608926 -0.3440987 0.057150975 -0.10721973 -0.20186184 -0.17986846 -0.25690213
-0.42442068 0.046212487 -0.08289805 -1.0859597 -0.30415207 -0.55600595 -0.7529845 -0.22989862
0.14637868 -0.2913676 -0.1788855 -0.23438224 -0.3116052 -0.5794705 0.09069731 -0.048004482
-0.06454897 -0.31312686 -0.53143185 -0.0672166 -0.10753308 -0.6822857 0.055211365 -0.059570048
-1.4455056 0.124195136 0.19513878 -1.0273713 -0.088944316 -0.6031436 0.25385138 0.06340268
0.13593553 -0.0045924783 -0.12467135 0.13306719 0.019664183 -0.04821668 0.05640141 -0.37721017
-0.04757266 0.075933 0.14127265 0.18535206 0.27658662 0.08393456 0.03365277 -2.4094317
0.11751457 0.19455364 0.08160853 -0.047539663 -0.36307982 0.22085543 -1.0515255 0.6357903
00000000: da31 483e cf80 5ebf 5626 a23d fb0c 723e
00000010: a245 ba3d da59 5abe e771 283e 01e3 1bc0
00000020: 9cee 07bd a572 403c 1ee4 debd 3298 803c
00000030: b576 743e 5c5f 1dbe a107 03c0 42e3 8d3e
00000040: de14 df3d 7c47 dabe 181c 2c3e 0ad4 9b3d
00000050: 30c4 993c ae4e 94bd 049c 0ebe 2763 f8bd
00000060: a960 3d3e 5e77 803c 0435 74bf 458c 4e3d
00000070: 0b84 24bf f320 6cbf bf2c 9cbe b9ed 043d
00000080: d3b2 eebf 714b a2be 9c08 91be 2aad 7abe
00000090: 9ece d9bc a9e8 c7bd 9470 6fbe f2d4 04be
000000a0: d8e0 f3be 20dc 263e 2095 87bd dbd7 8dbf
000000b0: 887c cfbe cbd3 bfbe 895b 27bf 1da2 553d
000000c0: 292d b9bd 6f65 b9be 9628 c13c ca4f 44bd
000000d0: 95d4 f0be cab7 c2be b229 12bd cacf 4cbc
000000e0: 98e4 7dbe 281c 09bf 3fff 9cbe fb4d 17be
000000f0: ef8e c5bd baa0 fdbe c8b8 0ebe 7ce9 37bd
00000100: a31d b2be d1d0 0abf 3b1f 4cbf 8abd 8f3f
00000110: 6d58 d2bd 5544 f33e 3927 07bf eeae b7bd
00000120: 5548 19be 79b7 eabd 0634 803d cbc0 183e
00000130: 38ab 27bf f654 91be 857a 1a3e 4562 15bf
00000140: 7c25 6fbd 4b02 883e a543 303e 5dc8 c0be
00000150: 281e 2d3e 5e1c 993e 094b 2d3e d272 5cbe
00000160: a954 33bf de19 ec3d c490 823e 8719 02bd
00000170: 2dfa 913f 73d2 383e f149 7ebf ecb5 01bf
00000180: b9e1 ffbf db93 3ebe 9b9f 91be dbc8 68be
00000190: b37a 2f3d 9e64 10be 337e b03c f7cd cfbe
000001a0: 4734 f0be a618 a93d 2170 2a3e 58de 9abf
000001b0: b9cf aebe ca33 0dbf d75a 23bf f733 663d
000001c0: 4c22 f73d 4229 eebe a71a 8abd c418 97bd
000001d0: 63fc c4be 6a5d e0be ea75 57bd e05b 1fbe
000001e0: 756f 87be 6b41 97be bddf 8ebe 2eb7 25be
000001f0: fc86 483c 7d6a 02bf 897f 23be 5083 2fbe
00000200: 761c f0bf 7f5e 5ebd f808 86be cd4d 40be
00000210: a540 8abd 0d83 eebd 5a4c 33be fc7f c2be
00000220: d204 d5be 4e11 883d 5eba 723d bdf1 98bf
00000230: 792a e0be c209 9fbe 3925 0bbf 4f14 383d
00000240: 2a7d 04be b335 0ebf 17b4 f1ba 41f1 5bbe
00000250: 977b b8be a44b 00bf 2755 a8bd 9c99 2abd
00000260: de10 6abe 1dd2 a5be 1ae7 b9be 8afc ae3c
00000270: 6470 b53d 1cf1 debe d39c f23d 51b9 73be
00000280: 3afb 0fc0 c195 26bd 3d19 b6be 69b9 64be
00000290: 0e19 24be 490e 18bd b08f 35be e735 a8be
000002a0: 61ca a9be ce4d c5bd 3622 153e cef7 a1bf
000002b0: 9450 e0be b422 f5be a136 c8be 78a5 b2bd
000002c0: 6766 87bd 6fac 8dbe ac3c 13be 355f fcbd
000002d0: 3f75 d5be 0273 f1be bc97 d1bd 2f0c 39be
000002e0: 4406 25be f6ca 11bf c2d6 e5be 5c80 3dbe
000002f0: ece0 bcbd a215 cfbe 357b 873d 0e3a 093d
00000300: 08a4 40bf 2f8e 3ebe b42d b0be 2417 6a3d
00000310: 0596 dbbd dfb4 4ebe 702f 38be ad88 83be
00000320: ab4d d9be 4e49 3d3d 74c6 a9bd ba00 8bbf
00000330: d2b9 9bbe 6856 0ebf 98c3 40bf 8b6a 6bbe
00000340: 4be4 153e 222e 95be c32d 37be e601 70be
00000350: b78a 9fbe 2e58 14bf 83bf b93d 59a0 44bd
00000360: 4032 84bd 2a52 a0be eb0b 08bf dba8 89bd
00000370: 4e3a dcbd 47aa 2ebf 5025 623d b9ff 73bd
00000380: 5406 b9bf 055a fe3d 76d2 473e e780 83bf
00000390: 7028 b6bd 9e67 1abf cff8 813e 44d9 813d
000003a0: af32 0b3e 807c 96bb b153 ffbd c442 083e
000003b0: c816 a13c da7e 45bd 2a05 673d b121 c1be
000003c0: 8ddb 42bd c382 9b3d c7a9 103e eecc 3d3e
000003d0: c39c 8d3e e2e5 ab3d 7dd7 093d 2134 1ac0
000003e0: 7bab f03d 1239 473e 5f22 a73d f3b8 42bd
000003f0: 99e5 b9be ed27 623e 6398 86bf 27c3 223f

net.8.bias f4 [18]
-0.4965693 -0.2989439 0.016575072 -0.09418522 -0.29321712 -0.19445577 -0.041200712 0.08512696
-0.29787955 -0.115016215 -0.120580755 -0.34612465 -0.036294784 -0.1923127 -0.3149344 -0.39737254
-0.25101474 -0.7493587
00000000: 553e febe 2d0f 99be 72c8 873c 2ee4 c0bd
00000010: 8e20 96be 6a1f 47be 14c2 28bd 0b57 ae3d
00000020: ab83 98be 9f8d ebbd 0bf3 f6bd 4037 b1be
00000030: d7a9 14bd 9fed 44be 153f a1be 6a74 cbbe
00000040: 0185 80be f9d5 3fbf
