RoadRunner_A2C_DNN_.pth (torch, 197189 bytes, 10 tensors)

net.0.weight f4 [256, 16]
0	0xbe072b75	-0.13200171
1	0x3e0dca37	0.1384667
2	0x3ecf0ef3	0.40441093
3	0x3e9260c0	0.2858944
4	0xbe471aa2	-0.19443753
5	0xbed43916	-0.41449803
6	0xbe20e340	-0.15711689
7	0x3eb20aa9	0.34773758
8	0xbe08ddeb	-0.13365905
9	0xbe86c8a5	-0.26324955
10	0xbda2a7d0	-0.07942164
11	0xbe02ea51	-0.12784697
12	0x3d1bfd0a	0.038083114
13	0x3c3a1ea7	0.011359847
14	0xbdf92f77	-0.12167256
15	0xbdad58fc	-0.08464238
16	0x3f02244f	0.5083665
17	0x3dac08a0	0.084000826
18	0xbe9dcfe5	-0.30822673
19	0xbdaaa50e	-0.08332263
20	0xbd466bbc	-0.048442587
21	0xbdbf713e	-0.09347771
22	0xbeba0df2	-0.36338764
23	0x3ec54fe0	0.38537502
24	0xbd7ba50f	-0.06143671
25	0x3e4bb53f	0.19893359
26	0x3e917bd8	0.28414798
27	0x3eb502fa	0.35353833
28	0xbe64a393	-0.22328024
29	0xbd909ca8	-0.0706113
30	0x3e14d8ae	0.14535782
31	0xbd9a044e	-0.07520352
32	0x3d15351c	0.036427602
33	0xbec7b50f	-0.39005324
34	0x3e8f3554	0.27970374
35	0xbd01ce51	-0.0316909
36	0xbe0efee1	-0.13964416
37	0x3e74aad8	0.23893297
38	0x3e07a76f	0.13247465
39	0x3ed0b4bb	0.40762886
40	0xbd03c80c	-0.0321732
41	0xbf3b77e4	-0.73229814
42	0xbeb0332d	-0.34414044
43	0xbf4c11e2	-0.79714787
44	0x3e9758fa	0.2956007
45	0x3eb26275	0.34840742
46	0x3e370d2a	0.17876115
47	0x3c24c613	0.01005699
48	0xbe2af158	-0.16693628
49	0xbe38161c	-0.17977184
50	0x3e72d497	0.23713909
51	0x3e3d8597	0.18507992
52	0x3e0d6f0a	0.1381189
53	0x3e8c4979	0.27399805
54	0x3dafaeaf	0.0857824
55	0xba692aaf	-0.0008894605
56	0x3e24c92d	0.16092367
57	0xbd3f42af	-0.046694454
58	0x3dc04498	0.09388083
59	0xbe8f4c23	-0.27987775
60	0x3e283fd9	0.16430606
61	0xbe322939	-0.17398538
62	0xbe0d11b6	-0.13776287
63	0x3e447489	0.1918508
64	0x3e74f020	0.23919725
65	0xbee16dfe	-0.4402923
66	0x3e6b85dd	0.23000284
67	0x3d27e77a	0.040992238
68	0x3f10e2d5	0.5659612
69	0xbf2daa02	-0.67837536
70	0x3d23314e	0.039841942
71	0xbefcd2b9	-0.4937952
72	0xbddab8b7	-0.10679763
73	0xbf569f89	-0.8383718
74	0xbd1c2bde	-0.038127773
75	0xbd65eb81	-0.056132797
76	0xbe083982	-0.13303187
77	0x3ecac3b6	0.3960244
78	0xbdc5b7fc	-0.09654233
79	0x3db625b6	0.088939115
80	0x3db76cc6	0.08956294
81	0xbe5eba37	-0.21750723
82	0x3dc097ee	0.09403978
83	0x3f07d1d9	0.5305458
84	0xbf3c9fc7	-0.736813
85	0x3e3ff6db	0.18746512
86	0x3e994a3a	0.29939443
87	0xbebdf21f	-0.37098786
88	0x3e3dc55e	0.18532321
89	0x3e1056c2	0.14095595
90	0x3cf50595	0.029909888
91	0xbe11d9d8	-0.14243257
92	0x3d9bef6f	0.07614028
93	0xbe868102	-0.262703
94	0x3ec6b24e	0.3880791
95	0x3ec32d88	0.38120675
96	0xbec50962	-0.3848372
97	0xbea97788	-0.33099008
98	0xbe1d1977	-0.15341745
99	0xbd670725	-0.056403298
100	0x3f074154	0.5283406
101	0x3d5e7956	0.054314934
102	0x3ee729c2	0.45149046
103	0xbe2fa335	-0.17152102
104	0x3d221d40	0.039578676
105	0x3e7a42ab	0.24439494
106	0x3d66a0f8	0.056305856
107	0x3ebbe597	0.366986
108	0x3eb60b2e	0.35555404
109	0xbdc83299	-0.09775276
110	0xbe31acba	-0.17351046
111	0x3e23f778	0.1601237
112	0xbd6cd4fc	-0.057820305
113	0x3e6f42bf	0.23365305
114	0xbeba5ad3	-0.36397418
115	0xbe10104e	-0.1406872
116	0x3ecf4ca8	0.40488172
117	0x3d81354e	0.06308995
118	0xbf022697	-0.50840133
119	0xbf5ef083	-0.8708574
120	0x3e42f65e	0.19039294
121	0xbe46cf72	-0.19415072
122	0x3d3ea49f	0.046543714
123	0xbd8745ad	-0.066050865
124	0x3d5e082d	0.054207016
125	0x3e64acae	0.22331497
126	0x3cc20de5	0.023688266
127	0x3e934cd8	0.28769565
128	0x3eb1d431	0.34732202
129	0x3e20df63	0.15710215
130	0x3e13f109	0.14447416
131	0xbe03fba8	-0.12888968
132	0xbec96506	-0.39334887
133	0xbda73bdc	-0.08165714
134	0x3afe47dd	0.0019400079
135	0x3e009ce7	0.12559853
136	0x3cdc51a1	0.026894392
137	0x3dbb85db	0.0915639
138	0xbd931925	-0.0718253
139	0x3d367aeb	0.044550817
140	0xbd08ea8f	-0.033426818
141	0x3f207a37	0.62686485
142	0xbe537c44	-0.20652872
143	0xbed08d7d	-0.40732947
144	0xbea6a8fb	-0.32550797
145	0xbe009fab	-0.12560908
146	0x3e9fc9f8	0.31208777
147	0x3eb88515	0.36039034
148	0xbf027548	-0.50960207
149	0x3d8c0b2d	0.06838069
150	0x3f16e4a9	0.5894266
151	0x3eb4da94	0.35323012
152	0x3d442a9b	0.047892194
153	0x3e88eac4	0.26741612
154	0xbd8beadc	-0.06831905
155	0xbcc9a88e	-0.024616506
156	0x3ea7b894	0.3275801
157	0xbf00692b	-0.50160474
158	0x3e487909	0.19577421
159	0xbeea25fa	-0.457321
160	0x3e3de3d3	0.1854394
161	0xbe06e727	-0.13174115
162	0x3e89c152	0.26905304
163	0xbeb81390	-0.35952425
164	0x3e6f1339	0.23347177
165	0xbe46e005	-0.19421394
166	0xbe848c8e	-0.25888485
167	0xbf449d67	-0.76802677
168	0x3d0e94e7	0.034809973
169	0xbd6642ae	-0.056215934
170	0xbe044374	-0.12916356
171	0x3c148153	0.009064036
172	0xbd86e9d5	-0.06587569
173	0x3ea10e79	0.31456354
174	0x3e7455e2	0.23860887
175	0xbc053033	-0.008129167
176	0xbec34b11	-0.3814321
177	0x3e41be52	0.18920258
178	0x3ef1d8ee	0.47235817
179	0x3f0a46ab	0.5401408
180	0xbf10316e	-0.56325424
181	0x3e95f05b	0.2928494
182	0x3d23ea16	0.040018164
183	0x3de5a612	0.11213316
184	0x3d65b72c	0.05608289
185	0xbebe0edd	-0.37120715
186	0x3e9ef813	0.3104864
187	0x3e7b578d	0.24545117
188	0x3e7308b6	0.23733792
189	0xbe94c340	-0.29055214
190	0xbe1a2378	-0.15052593
191	0x3d2f0745	0.042731542
192	0xbdb54615	-0.08851258
193	0xbea0c17f	-0.31397626
194	0xbde97abe	-0.11400364
195	0x3d928282	0.07153799
196	0x3f01e0ef	0.50733846
197	0x3d973b8b	0.07384404
198	0x3f3a80a2	0.7285253
199	0x3dab155e	0.08353685
200	0x3d887e89	0.0666476
201	0x3e9880db	0.2978581
202	0x3da418f4	0.08012572
203	0x3e999791	0.29998448
204	0x3eaf2cde	0.34213918
205	0x3f0080bd	0.5019644
206	0x3e2e69ff	0.17032622
207	0x3db5d0a0	0.08877683
208	0xbd83c0c5	-0.06433252
209	0xbb453689	-0.003009232
210	0x3e344478	0.17604244
211	0x3e8f07f9	0.2793577
212	0x3c329e97	0.010902069
213	0x3eb79eff	0.35863492
214	0x3f015cb6	0.5053209
215	0xbd0d7b12	-0.034541197
216	0x3dc00ea1	0.0937779
217	0xbe114799	-0.14187469
218	0xbe5ad4e1	-0.2137027
219	0xbed6742e	-0.41885513
220	0xbe94914d	-0.29017106
221	0x3f661fd9	0.89892346
222	0x3e8d5295	0.27602068
223	0xbf29f66f	-0.6639165
224	0xbe4a2347	-0.1974002
225	0xbd0edb52	-0.03487713
226	0x3e3fd35b	0.1873297
227	0x3da273ba	0.07932229
228	0x3e812ff9	0.25231913
229	0x3dc4eabb	0.09615084
230	0x3e9bace9	0.30405357
231	0x3ea0b0bc	0.31384838
232	0xbdc1f3fa	-0.09470363
233	0xbec9624c	-0.39332807
234	0xbf233941	-0.6375924
235	0x3e3c9ba8	0.18418753
236	0xbf0b61ff	-0.54446405
237	0x3f5069d3	0.81411475
238	0xbd3afeee	-0.045653276
239	0x3eb74bf8	0.35800147
240	0xbcf2be1c	-0.029631667
241	0xbe6cdc4c	-0.23130912
242	0xbd858430	-0.065193534
243	0xbda3d6c2	-0.07999946
244	0xbdab0f07	-0.083524756
245	0xbded7861	-0.11595226
246	0x3f196635	0.5992158
247	0x3dd27fd8	0.102782905
248	0xbd6c0348	-0.057620317
249	0x3d111022	0.035415776
250	0xbdd1c9e1	-0.102435835
251	0xbe1d8690	-0.15383363
252	0x3e20f13b	0.15717022
253	0xbdeb671e	-0.114942774
254	0x3cfce1f5	0.030869463
255	0x3d0e8069	0.03479043

net.0.bias f4 [256]
0	0x3e439e0c	0.19103259
1	0xbe921993	-0.28535137
2	0xbe91e10a	-0.28492004
3	0xbe1eccbe	-0.1550779
4	0xbe40f983	-0.18845181
5	0xbe08941a	-0.13337746
6	0xbd385b72	-0.045009084
7	0x3d2eaa9b	0.04264317
8	0xbe41754f	-0.18892406
9	0xbedc559f	-0.43034074
10	0xbdba5459	-0.09098119
11	0xbe9f0d25	-0.31064716
12	0x3c6f1c8d	0.014594209
13	0x3cc4e6c6	0.024035823
14	0xbe6add7e	-0.22936055
15	0xbe8bfcd8	-0.27341342
16	0x3e6bf097	0.23040996
17	0xbe03f77a	-0.12887374
18	0xbe8d1157	-0.27552292
19	0xbe597d2d	-0.21239157
20	0xbe626d71	-0.22112061
21	0xbea1997b	-0.3156241
22	0x3d291774	0.041282132
23	0xbde653fc	-0.112464875
24	0xbe608393	-0.21925192
25	0xbe62843d	-0.22120757
26	0xbcd64e55	-0.026160398
27	0xbdeb4db2	-0.114894286
28	0x3e09f4ac	0.13472241
29	0xbe8c96ba	-0.27458745
30	0x3d843fcb	0.0645748
31	0xbe36838d	-0.1782362
32	0x3b8e20a9	0.0043373895
33	0x3e1030c9	0.1408111
34	0x3e507151	0.20355727
35	0x3dd612f0	0.10452831
36	0x3d44df21	0.048064355
37	0x3ec1930c	0.378075
38	0xbd88e0bc	-0.0668349
39	0xbe96d45c	-0.29458892
40	0xbb11d324	-0.0022251094
41	0x3dc14b29	0.09438164
42	0x3d1c0ce4	0.03809823
43	0xbe925241	-0.2857838
44	0xbe503c64	-0.20335537
45	0x3e5a36da	0.21309987
46	0xbc4be87f	-0.012445568
47	0x3d87297c	0.065997094
48	0xbd8517bc	-0.064986676
49	0x3d9bb613	0.07603087
50	0x3d8b23ad	0.06793914
51	0xbe3fc0a8	-0.18725836
52	0xbcfc9ded	-0.030837024
53	0x3e760de7	0.24028741
54	0x3e99312f	0.29920337
55	0x3d03e6e5	0.03220262
56	0x3d053f2a	0.03253094
57	0x3dd9e14d	0.10638676
58	0xbd237020	-0.039901853
59	0xbb00c125	-0.0019646373
60	0xbd2496f9	-0.04018304
61	0x3d9e8463	0.077400945
62	0xbec70d70	-0.3887744
63	0xbe9071f0	-0.28211927
64	0xbbf7be0c	-0.007560497
65	0x3d81ca67	0.06337433
66	0x3ea1854d	0.31547013
67	0xbb0d4033	-0.0021553158
68	0xbe438230	-0.19092631
69	0xbe90b327	-0.28261682
70	0xbe22350d	-0.1584055
71	0xbe782220	-0.24231768
72	0xbc1ab157	-0.009441695
73	0xbefcc0c0	-0.49365807
74	0xbcfc6ffc	-0.030815117
75	0xbe7205a7	-0.23634969
76	0xbd1101a1	-0.035401944
77	0xbe15713e	-0.1459398
78	0x3c31ae26	0.010844743
79	0xbe10a6ac	-0.1412608
80	0xbe3bc86c	-0.18338174
81	0x3d4b0c01	0.049571995
82	0xbe8d1daf	-0.2756171
83	0xbf017daa	-0.50582373
84	0xbce626bf	-0.028094647
85	0x3e7769f9	0.24161519
86	0x3ea61e38	0.3244493
87	0xbe233333	-0.159375
88	0xbdec9652	-0.11552109
89	0x3e9dd112	0.3082357
90	0xbe753925	-0.2394758
91	0xbe15bb5b	-0.14622252
92	0xbbd02933	-0.0063525676
93	0xbf06fe10	-0.5273142
94	0x3df6215f	0.12018084
95	0xbe334690	-0.17507386
96	0x3e510927	0.20413648
97	0x3cf0dc5a	0.029401947
98	0xbd4f5dec	-0.05062668
99	0x3cac36e8	0.021022275
100	0xbd620f93	-0.055190634
101	0xbda0dd0f	-0.078546636
102	0x3e7491ce	0.23883745
103	0xbe038341	-0.12843038
104	0x3e577140	0.21039295
105	0xbe1e7f01	-0.15478136
106	0x3dd1ba11	0.102405675
107	0x3d605926	0.05477252
108	0xbdfd90cf	-0.12381136
109	0x3c11633f	0.00887376
110	0xbd982627	-0.07429152
111	0x3e3d593e	0.18491074
112	0xbdeb6184	-0.11493209
113	0x3e37b1e1	0.17938949
114	0xbe2c1343	-0.16804223
115	0x3dbad868	0.091233075
116	0xbe011063	-0.12603907
117	0xbe068f84	-0.13140684
118	0xbdd7ba2e	-0.10533558
119	0xbdefec95	-0.11715046
120	0xbe43077a	-0.19045821
121	0xbe8c435e	-0.27395147
122	0x3df76ec4	0.12081674
123	0x3e0b5a36	0.13608631
124	0xbe529c51	-0.20567442
125	0xbeb04373	-0.3442646
126	0xbd847451	-0.06467498
127	0x3e5048a5	0.20340212
128	0x3d769f84	0.06021072
129	0xbe69b9bf	-0.22824763
130	0xbd1bd8cd	-0.038048554
131	0xbe485ffd	-0.19567867
132	0x3da11872	0.07865991
133	0xbcc78932	-0.024357412
134	0xbde1a5c8	-0.110179484
135	0xbe10a5cd	-0.14125748
136	0xbe38f416	-0.18061861
137	0xbe8d3525	-0.2757961
138	0xbe851fcc	-0.26000822
139	0x3cf364cd	0.029711151
140	0xbdb71313	-0.08939185
141	0xbca1f3c4	-0.019769557
142	0xbe3a5901	-0.18198015
143	0x3db4fcf5	0.0883731
144	0x3e88b4e9	0.26700523
145	0x3d676973	0.05649705
146	0x3ea22978	0.31672263
147	0xbdaca23e	-0.08429383
148	0x3dcfa162	0.10138203
149	0x3b9a1c62	0.0047030905
150	0x3e826227	0.2546551
151	0x3e521353	0.20515184
152	0xbdb2e3ec	-0.08734879
153	0xbe4c3a09	-0.19944014
154	0xbed796af	-0.4210715
155	0x3d9e3539	0.07724995
156	0xbe0d07a2	-0.13772443
157	0x3e1392e5	0.14411505
158	0xbcc4dfc6	-0.024032485
159	0x3e3f4a59	0.18680705
160	0x3d82e675	0.063916124
161	0xbe94bc33	-0.29049835
162	0xbd97563e	-0.07389496
163	0x3dfef99a	0.124499515
164	0xbe57e4a7	-0.21083318
165	0xbdded68a	-0.10880764
166	0xbeb3ae2b	-0.35093817
167	0x3d9b6eca	0.07589491
168	0xbdcd5fd7	-0.100280456
169	0xbcd8e8ae	-0.026478138
170	0xbcda490f	-0.026646165
171	0xbd15d231	-0.036577407
172	0xbec1de84	-0.37865078
173	0x3e1e6cc1	0.15471174
174	0xbe3cd6dc	-0.18441337
175	0xbdf215eb	-0.11820587
176	0x3da91fab	0.08257993
177	0xbebd6af9	-0.36995676
178	0xbe5edc42	-0.21763709
179	0xbe39fc74	-0.1816271
180	0x3e6a5238	0.22882926
181	0xbe8d9c07	-0.27658102
182	0xbef6554d	-0.48111954
183	0xbdef8527	-0.11695319
184	0x3e23f717	0.16012226
185	0x3c43dee9	0.011955001
186	0x3db2b888	0.08726603
187	0x3d505e6f	0.05087131
188	0xbe5edd2b	-0.21764056
189	0x3bc8954a	0.0061213123
190	0xbee63164	-0.44959557
191	0x3e070e2f	0.13189004
192	0x3e72d642	0.23714545
193	0xbe8d3dbe	-0.27586168
194	0xbe99bfb1	-0.3002906
195	0xbdce2283	-0.10065176
196	0xbda5425c	-0.08069298
197	0xbe1bed72	-0.15227297
198	0xbe4b4fe0	-0.19854689
199	0xbe4fda9f	-0.20298241
200	0xbdd201ed	-0.102542736
201	0xbe1663d9	-0.14686526
202	0xbe5f6a61	-0.21817924
203	0x3e0dcc95	0.13847573
204	0xbd7c1cb3	-0.061550807
205	0xbe39074b	-0.18069188
206	0xbe0fb81c	-0.14035076
207	0xbd368983	-0.044564735
208	0xbe320e8c	-0.17388362
209	0xbe8e2458	-0.27762103
210	0xbe4364e7	-0.1908146
211	0xbd980719	-0.07423229
212	0xbef4523b	-0.47718987
213	0xbd8bba8f	-0.068226926
214	0x3e2819b8	0.16416061
215	0xbe5dace9	-0.21647991
216	0xbe40f066	-0.18841705
217	0xbe488432	-0.19581679
218	0xbeaa4667	-0.33256838
219	0x3c38c32e	0.011277003
220	0x3d88ef21	0.06686235
221	0xbc82c1e7	-0.0159616
222	0xbe4583b6	-0.19288525
223	0x3e2e0935	0.169957
224	0x3c5d7186	0.013515836
225	0x3d9326ba	0.07185121
226	0x3cfc6694	0.030810632
227	0xbf194c9d	-0.5988253
228	0x3e27afc9	0.1637565
229	0x3d02da93	0.03194673
230	0xbe359de8	-0.17736018
231	0xbf1c2aa7	-0.6100258
232	0xbe0f6a52	-0.14005402
233	0x3dcc4721	0.09974504
234	0xbe94f698	-0.29094386
235	0xbea038b8	-0.31293273
236	0xbe8e4915	-0.27790132
237	0xbe8828eb	-0.26593718
238	0x3e625425	0.22102411
239	0x3ec8c375	0.39211622
240	0xbe9ee64b	-0.31035075
241	0x3dcb1f16	0.099180385
242	0x3e773ac7	0.24143516
243	0xbe7f07fb	-0.24905388
244	0x3e23b329	0.15986313
245	0xbe2ed959	-0.17075099
246	0xbcb7a5be	-0.0224179
247	0xbe5db6ce	-0.21651766
248	0x3e8ad632	0.27116543
249	0x3e267fd6	0.16259703
250	0xbd9658ff	-0.073411934
251	0x3aa36bdd	0.0012468059
252	0xbc232bd5	-0.009959181
253	0x3e2a2e1a	0.16619149
254	0xbe07f3fc	-0.13276666
255	0xbdcc1964	-0.099657804

net.2.weight f4 [128, 256]
0	0xbc589d90	-0.01322116
1	0x3ce93278	0.028466448
2	0xbc211fef	-0.009834274
3	0xbcfaec75	-0.03063033
4	0x3c86db24	0.016461916
5	0x3c0879b1	0.008329795
6	0xbd2b12aa	-0.041765846
7	0xbd3192a6	-0.043352745
8	0xbc5a2c6a	-0.013316253
9	0x3d3684c1	0.044560198
10	0xbc4aaf0d	-0.012370837
11	0x3caba0c6	0.020950686
12	0xbd28400c	-0.041076705
13	0xbc9a1b33	-0.018811798
14	0x3d61c478	0.055119008
15	0xbd27d4b1	-0.040974323
16	0xbb4e0cea	-0.0031440803
17	0xbd95d2c8	-0.07315594
18	0xbce272c0	-0.027642608
19	0x3d01888a	0.031624354
20	0xbcd8d1e9	-0.02646728
21	0x3ba12d23	0.004918711
22	0x3d0e0677	0.034674134
23	0xbcba56e1	-0.022746505
24	0x3c8b2e8c	0.016989969
25	0xbce39b24	-0.027783938
26	0xbc3c9375	-0.011509766
27	0x3c65c612	0.014024274
28	0xbc33151f	-0.010930329
29	0x3d4df5af	0.05028313
30	0x3ce4d922	0.027935568
31	0xbc2a2299	-0.010384225
32	0x3ca2f36a	0.01989146
33	0xbd79ed60	-0.061017394
34	0x3cefa964	0.029255576
35	0xbcf8a593	-0.03035239
36	0xbd48aec6	-0.048994802
37	0x3d33a504	0.043858543
38	0xbb59b8db	-0.0033221755
39	0x3d171e5d	0.03689419
40	0x3cafe756	0.021472614
41	0xbc33384b	-0.010938714
42	0xbb34323f	-0.002749577
43	0xbd8dc40f	-0.06922161
44	0xbd6562e0	-0.056002498
45	0x3cb850c1	0.022499444
46	0x3d176feb	0.036971968
47	0x3c42f47b	0.011899109
48	0xbd882e10	-0.06649411
49	0xbd3bb6bc	-0.045828566
50	0xbd927043	-0.071503185
51	0x3b03bb98	0.0020100828
52	0xbd6bc0cb	-0.05755691
53	0xbd902d49	-0.070398875
54	0xbd858125	-0.06518773
55	0xbd862a24	-0.065510064
56	0xbc06232c	-0.008187097
57	0xbd24f6ba	-0.04027436
58	0xbd097f16	-0.033568464
59	0xbcf036ce	-0.029323008
60	0x3ca05cd6	0.019575518
61	0xbb8827cc	-0.004155135
62	0xbd6ba2d8	-0.057528347
63	0x3c0be60f	0.008538737
64	0xbd2adf64	-0.04171695
65	0x3bd20455	0.006409208
66	0xbcea5a52	-0.028607521
67	0xbca28f49	-0.019843714
68	0xbd2b73b9	-0.04185841
69	0x3d21fe48	0.039549142
70	0x3d16708a	0.03672842
71	0xbcd58f6e	-0.02606937
72	0xbce55d2f	-0.027998535
73	0xbd969836	-0.07353251
74	0x3c6827b8	0.014169626
75	0xbd4024e0	-0.046910167
76	0x3cf2893f	0.02960646
77	0xbd8e529d	-0.06949351
78	0xbd8d647c	-0.069039315
79	0xbd6b4146	-0.057435296
80	0xbd161721	-0.03664315
81	0x3c0c0879	0.008546942
82	0xbd09bcc8	-0.0336273
83	0xbd418fad	-0.04725616
84	0x3c5bf6b0	0.013425514
85	0xbd804073	-0.06262293
86	0xbd478fe6	-0.048721217
87	0xbd934f24	-0.07192829
88	0xbd740748	-0.059577256
89	0x3d1caff4	0.03825374
90	0x3c3d58b1	0.01155679
91	0x3c9165f3	0.017748808
92	0x3ba2e8ba	0.004971591
93	0x3d01fb96	0.03173407
94	0x3d38ebec	0.045146868
95	0x3d55ae93	0.05216844
96	0x3a924afe	0.0011161265
97	0xbd6b3a84	-0.05742885
98	0xbd8c06ec	-0.06837258
99	0xbb400c41	-0.002930418
100	0xbca889a1	-0.02057344
101	0xbd3f0604	-0.046636596
102	0x3caf363a	0.021388162
103	0x3c9adce6	0.01890416
104	0xbc13fd97	-0.0090326285
105	0x3c1b6624	0.009484801
106	0x3c79b7ac	0.015241545
107	0xbc64f9e8	-0.013975598
108	0xbd5f7753	-0.054557156
109	0x3bd88f11	0.0066088517
110	0x3d17f2f5	0.037096936
111	0x3ce1945a	0.02753656
112	0xbd13165b	-0.03590999
113	0x3c17b46a	0.009259323
114	0x3d3c093a	0.045907237
115	0x3a6f0175	0.00091173436
116	0xbd8b6b1f	-0.06807541
117	0x3d4350c2	0.04768444
118	0xbd069830	-0.03285998
119	0x3d4204fa	0.047368027
120	0xbd8c9924	-0.06865147
121	0xbcac65da	-0.02104466
122	0x3c960a2e	0.0183154
123	0xbbc3d96b	-0.005976846
124	0x3cbd2c25	0.023092339
125	0x3cb43ba2	0.022001091
126	0x3cf49028	0.029853895
127	0xbcd433f3	-0.025903678
128	0x3c9bbe63	0.019011682
129	0xbd0786b4	-0.033087447
130	0x3d28891e	0.04114639
131	0x3cd7f7ee	0.02636334
132	0x3c7df335	0.01549988
133	0xbc32609d	-0.010887292
134	0x3d525915	0.051354486
135	0x3d62b988	0.055352718
136	0x3c8b18f4	0.016979672
137	0xbc67766b	-0.014127354
138	0xbd1f0090	-0.038818896
139	0x3c6301d7	0.013855419
140	0xbd6b8161	-0.057496432
141	0x3cecf509	0.028925436
142	0xbd90316e	-0.07040678
143	0x3d139dc7	0.03603914
144	0xbd5faad8	-0.05460629
145	0x3d06213c	0.03274654
146	0xbc31cebb	-0.010852511
147	0xbbd47fb1	-0.0064849486
148	0x3d477ef8	0.04870507
149	0x3d2f04f9	0.04272935
150	0xbd4324a2	-0.047642358
151	0x3d0f44aa	0.034977593
152	0xbd8bd036	-0.068268225
153	0xbd7052dc	-0.05867277
154	0x3c2f82c3	0.010712328
155	0xbbbade75	-0.0057027885
156	0xbcb08881	-0.021549465
157	0x3d107b7d	0.035274018
158	0x3cd5dfa2	0.026107613
159	0xbd840ada	-0.06447382
160	0xbcf099cb	-0.02937021
161	0xbb185a83	-0.0023247309
162	0xbc60fec4	-0.013732616
163	0xbd4d72b4	-0.050158218
164	0xbd988a2e	-0.07448231
165	0xbd1b6215	-0.037935335
166	0x3d1d211a	0.038361646
167	0xbca28535	-0.019838909
168	0xbca5ec2c	-0.020254217
169	0xbd42df3c	-0.047576174
170	0xbcae7249	-0.02129473
171	0xbd375fdd	-0.044769157
172	0xbd56195e	-0.052270286
173	0xbd7d7db2	-0.06188745
174	0x3d521753	0.051291775
175	0x3934c6d1	0.00017240203
176	0xbd368564	-0.044560805
177	0x3cf9007b	0.030395737
178	0xbd439e29	-0.047758255
179	0x3d311283	0.043230545
180	0x3c24341c	0.0100221895
181	0xbc74f49b	-0.014950897
182	0xbace3830	-0.0015733298
183	0xbbc7b80d	-0.0060949386
184	0xbd87ddcb	-0.066341005
185	0xbd3e8a97	-0.04651889
186	0xbcac68e4	-0.02104611
187	0xbd8d646a	-0.06903918
188	0xbd1e3cda	-0.03863225
189	0x3d5a4d59	0.05329642
190	0xbd086bd9	-0.033305977
191	0xbca120a5	-0.019668886
192	0xbcb21108	-0.021736637
193	0x3cdcfe2b	0.026976665
194	0xbd6ee758	-0.058326095
195	0xbd84a33b	-0.06476446
196	0x3d14f2bd	0.036364306
197	0xbd25c9f4	-0.0404758
198	0x3c59e570	0.013299331
199	0xbc553759	-0.013013684
200	0xbd5bef5a	-0.05369506
201	0xbb4fd554	-0.0031712847
202	0xbd9b30be	-0.07577656
203	0x3b6e2f45	0.0036344093
204	0xbd1a2b49	-0.037638936
205	0xbd3b97d6	-0.0457991
206	0xbd8b5034	-0.06802407
207	0x3cfeb53e	0.031092282
208	0xbd4065f1	-0.04697222
209	0x3cf758d4	0.030193724
210	0xbcc01d62	-0.02345151
211	0x3d39604f	0.045257863
212	0xbd4d9b51	-0.05019695
213	0x3cc0153b	0.023447623
214	0xbb25a10b	-0.002527299
215	0xbd41d7e5	-0.047325034
216	0x3d0bae3c	0.03410171
217	0x3d08e445	0.03342082
218	0x3cee7c60	0.029112041
219	0x3cada64c	0.02119746
220	0x3d4f458f	0.050603446
221	0xbc75e84a	-0.015008995
222	0x3caf0b1a	0.021367598
223	0x3d188816	0.037239157
224	0xbd263628	-0.04057899
225	0x3d0860e7	0.03329554
226	0xbc2d0fdd	-0.010562864
227	0x3d1f43a7	0.038882878
228	0xbce9e07e	-0.028549429
229	0xbd87ad3f	-0.06624841
230	0x3d50d120	0.050980687
231	0xbc83ebb0	-0.016103595
232	0xbd96ad1e	-0.07357238
233	0xbc48fcf1	-0.012267337
234	0x3d146ea7	0.03623834
235	0xbc185f02	-0.009299995
236	0x3c9719e0	0.018444955
237	0xbcd12b58	-0.025533363
238	0xbd439526	-0.04774966
239	0xbd713c5b	-0.05889545
240	0xbd7394ae	-0.059467964
241	0xbd6b6614	-0.057470396
242	0xbd127b72	-0.035762258
243	0xbd6eb473	-0.05827756
244	0x3d3a5d51	0.04549915
245	0x3a0005c3	0.0004883671
246	0xb94ef140	-0.00019735564
247	0x3d15da2a	0.03658501
248	0xbd12b3d4	-0.03581603
249	0x3d4edd25	0.05050387
250	0xbc7dbe52	-0.01548727
251	0xbd5d2add	-0.053995956
252	0xbd8aef6d	-0.06783948
253	0xbd96b41c	-0.07358572
254	0x3d5c48f8	0.053780526
255	0xbd7a9d73	-0.06118531

net.2.bias f4 [128]
0	0xbd9198ad	-0.07109199
1	0x3da234b9	0.07920212
2	0xbd0f71c5	-0.03502061
3	0x3e04743b	0.12934963
4	0xbda9f4af	-0.08298623
5	0xbe84d48e	-0.25943416
6	0xbe7b94d5	-0.24568494
7	0xbd01903f	-0.031631704
8	0xbddd833e	-0.10816048
9	0x3e6ebad2	0.23313454
10	0x3def75c5	0.11692385
11	0x3c80f403	0.015741354
12	0x3b62dde2	0.0034617116
13	0xbdbc794a	-0.092028216
14	0xbc6d96f9	-0.014501327
15	0xbd7136a2	-0.058889993
16	0x3e0f0ebf	0.13970469
17	0xbe1ea83b	-0.15493862
18	0x3f01adc9	0.506558
19	0x3cf631eb	0.0300531
20	0x3e585ed1	0.2112992
21	0x3bac9421	0.005266682
22	0x3e01ad44	0.12663752
23	0x3e5d1cbd	0.21592994
24	0x3d1183c5	0.035526056
25	0x3daa831d	0.08325789
26	0x3dfbb828	0.122909844
27	0x3cd98930	0.026554674
28	0x3c154673	0.009111035
29	0x3dec7c14	0.115471035
30	0xbdf501a5	-0.11963204
31	0xbd3a0e4b	-0.045423787
32	0x3db9b873	0.09068384
33	0x3dcda6a0	0.10041547
34	0x3d17184a	0.0368884
35	0xbdfeb3ed	-0.12436662
36	0x3e2e8cfc	0.17045969
37	0x3c6cf222	0.014462026
38	0xbe29447e	-0.16530034
39	0x3cd80686	0.026370298
40	0x3e28c3b6	0.16480908
41	0x3ded4e35	0.115871824
42	0x3cea8110	0.028625995
43	0xbb0aa25c	-0.0021153903
44	0x3d96deb4	0.07366696
45	0x3dd5f5e5	0.10447291
46	0xbd9351c9	-0.07193334
47	0xbdcc3f86	-0.09973054
48	0x3d59302a	0.05302445
49	0x3eb68470	0.35647917
50	0x3d94a313	0.072576664
51	0x3d77b952	0.06047947
52	0x3dcffab8	0.10155243
53	0xbd6be085	-0.057587165
54	0xbc0884aa	-0.008332411
55	0x3e6a1951	0.2286122
56	0x3cdfb942	0.027310017
57	0xbdff7fd0	-0.1247555
58	0x3e397c5c	0.18113846
59	0x3e24089f	0.16018914
60	0x3d1cff9a	0.0383297
61	0xbd579a37	-0.052637305
62	0x3ea54d0b	0.32285342
63	0x3e8464f5	0.25858274
64	0x3cdb5f9b	0.026778987
65	0xbe0708d7	-0.13186966
66	0xbe12d889	-0.14340414
67	0xbda2d8ce	-0.079515085
68	0x3e168c74	0.14702016
69	0xbe39fc47	-0.18162642
70	0x3e8930f4	0.2679516
71	0x3cbdaf5b	0.023154905
72	0xbb1ede21	-0.0024241286
73	0x3d2d5f49	0.0423272
74	0x3c10b32a	0.008831779
75	0x3e62a675	0.22133811
76	0xbdb66d09	-0.089075156
77	0x3d8c9844	0.0686498
78	0x3da5666d	0.08076177
79	0xbdea3919	-0.11436672
80	0xbd8ba354	-0.06818262
81	0x3e8704e3	0.26370916
82	0x3e41a3aa	0.18910089
83	0xbd6a7cbd	-0.057247866
84	0xbcc8d9a8	-0.02451785
85	0x3e5c8210	0.2153399
86	0x3d258aed	0.040415693
87	0x3e5edd2e	0.21764061
88	0x3dc212b3	0.09476223
89	0xbd6141fc	-0.05499457
90	0x3ed1ecb8	0.41000915
91	0xbdd56e7a	-0.10421462
92	0x3d7b82fd	0.061404217
93	0x3d403edd	0.04693495
94	0x3e6481e5	0.22315176
95	0xbd0c6b6f	-0.034282144
96	0xbd45e737	-0.048316207
97	0x3dbd5916	0.092455074
98	0x3c9bf46e	0.019037452
99	0xbdee056c	-0.11622128
100	0x3c33df17	0.010978482
101	0xbd21578e	-0.03939014
102	0x3e478cef	0.19487356
103	0x3e6befc7	0.23040687
104	0xbda520b9	-0.08062882
105	0x3e61d0cc	0.22052306
106	0x3e91582a	0.28387576
107	0x3ea43606	0.32072467
108	0xbdb2aaa7	-0.087239556
109	0xbcb2de93	-0.021834647
110	0x3d1ef872	0.038811155
111	0x3eb0be93	0.34520397
112	0xbd9b0557	-0.07569378
113	0xbdb14f60	-0.08657718
114	0x3d8af8a4	0.06785706
115	0x3ea9ad5c	0.33140075
116	0xbbbd0da5	-0.005769449
117	0x3d442ba2	0.047893174
118	0x3d1b0ac6	0.03785207
119	0x3e2803dd	0.16407724
120	0x3e1110d4	0.14166576
121	0xbe0f9842	-0.14022925
122	0x3dbf1b06	0.09331326
123	0xbd59ece6	-0.05320444
124	0x3c6bedf6	0.014399996
125	0x3d1ff4b5	0.03905173
126	0xbd633988	-0.055474788
127	0xbe966069	-0.2937043

net.4.weight f4 [64, 128]
0	0xbd850596	-0.06495206
1	0xbe0ec4af	-0.13942216
2	0xbd82fdf3	-0.06396093
3	0xbe921a74	-0.28535807
4	0x3c7e53d8	0.01552292
5	0x3e9f4f77	0.31115314
6	0x3f28f543	0.6599924
7	0xbd8d5e93	-0.06902804
8	0x3e6e74f0	0.23286796
9	0x3cbc6608	0.022997871
10	0x3e103161	0.14081337
11	0xbc5a1ad3	-0.013312059
12	0xbd5a11d9	-0.053239677
13	0x3ec46f41	0.3836613
14	0x3dea7d7b	0.11449715
15	0xbd401b84	-0.04690124
16	0x3e3e189a	0.18564072
17	0x3e1585ce	0.14601824
18	0xbdad9e34	-0.084774405
19	0xbe2ab2f2	-0.16669825
20	0x3ed396d3	0.41326007
21	0x3df797ac	0.12089476
22	0x3c64fd38	0.013976388
23	0xbd825d33	-0.063654326
24	0x3ddb9b0f	0.107229345
25	0x3ee487ce	0.4463486
26	0x3e60d5d4	0.21956569
27	0xbda60bef	-0.08107745
28	0xbd3861eb	-0.045015257
29	0xbeef8180	-0.46778488
30	0x3f1cce7b	0.61252564
31	0x3d95952b	0.07303842
32	0xbd9531a9	-0.072848625
33	0x3edf78d9	0.43646887
34	0xbf1541a7	-0.583033
35	0x3d31c3a9	0.043399487
36	0x3e9426f9	0.28935984
37	0xbdfcc36c	-0.12341961
38	0x3e2d955e	0.1695151
39	0xbd7b3caa	-0.06133715
40	0xbe9f66cc	-0.31133115
41	0x3d422546	0.047398828
42	0xbeb02c38	-0.34408736
43	0xbe17eef0	-0.14837241
44	0x3e71d8e4	0.23617893
45	0x3d32b05b	0.043625217
46	0x3cb1cbbc	0.021703593
47	0x3d4dd1e5	0.050249
48	0x3d7ffccd	0.06249695
49	0xbe782858	-0.2423414
50	0x3c28f82e	0.010313077
51	0x3e85c1b3	0.26124343
52	0xbe97c4a1	-0.29642203
53	0x3c6afce5	0.014342521
54	0xbd3d81ec	-0.04626648
55	0xbf66fe4e	-0.9023179
56	0x3dc3d4f1	0.095621
57	0x3f2027e2	0.62560856
58	0xbdc4389f	-0.09581112
59	0xbe0d3589	-0.13789953
60	0x3d7e50f2	0.062088914
61	0x3e7f3cf1	0.24925591
62	0x3e76e3e2	0.24110368
63	0xbbf8a876	-0.0075884415
64	0x3dc700f1	0.097169764
65	0xbee7218f	-0.4514279
66	0x3dd486d8	0.10377282
67	0x3f137ccd	0.57612306
68	0x3de9ba80	0.11412525
69	0x3c51fcd4	0.012816627
70	0x3e049709	0.1294824
71	0x3d19e2a8	0.037569672
72	0x3db088ef	0.08619868
73	0x3e9df4db	0.30850872
74	0x3dc93c80	0.098259926
75	0x3dd5b7d3	0.10435452
76	0xbc8579de	-0.016293462
77	0xbe9e8b5b	-0.30965695
78	0xbbc41176	-0.005983527
79	0x3e52b36c	0.20576257
80	0x3d0c8241	0.034303907
81	0x3e9a34e5	0.3011848
82	0x3e29f8ad	0.16598769
83	0xbcef3499	-0.029199885
84	0xbeac1c94	-0.33615553
85	0xbf310393	-0.6914608
86	0x3dc097c0	0.09403944
87	0x3e42ae01	0.1901169
88	0x3e69953d	0.22810836
89	0x3ebee631	0.37284997
90	0xbe46fbeb	-0.19432037
91	0xbd59c6c6	-0.05316808
92	0x3d76cee7	0.06025591
93	0x3e4a235a	0.19740048
94	0xbe1397b0	-0.14413333
95	0x3e4ee4f7	0.2020453
96	0x3de5d427	0.112221055
97	0x3e8374ee	0.25675148
98	0x3eda9957	0.42695114
99	0xbe76c349	-0.24097933
100	0xbce9c027	-0.028534008
101	0xba612af2	-0.0008589468
102	0x3eca9452	0.39566284
103	0xbcadc1fd	-0.021210665
104	0xbc8c77de	-0.017147
105	0xbe359539	-0.17732705
106	0x3d3c9585	0.04604103
107	0x3e58cb0f	0.2117121
108	0xbde890c2	-0.11355735
109	0x3d9f6170	0.077822566
110	0xbe00461c	-0.12526745
111	0xbef9d4e0	-0.48795223
112	0x3ee37bdb	0.44430432
113	0x3db038e4	0.08604601
114	0xbd424f17	-0.047438707
115	0xbe5a915d	-0.21344514
116	0xbdb4fbea	-0.08837111
117	0xbe14cc38	-0.14531028
118	0x3cfe3feb	0.031036338
119	0x3ea1be27	0.31590387
120	0xbec869b2	-0.3914314
121	0xbf636fd8	-0.88842535
122	0xbe8b5865	-0.27215877
123	0xbcc8cc3a	-0.024511445
124	0xbe069a7f	-0.13144873
125	0x3e17143f	0.14753817
126	0x3ce1e708	0.027575985
127	0x3ea005d3	0.31254444
128	0xbd7f33da	-0.06230531
129	0x3e141648	0.14461625
130	0xbd8a4c96	-0.06752889
131	0x3d4f862e	0.050665073
132	0x3e7b79d1	0.24558188
133	0xbf32a8da	-0.697889
134	0xbf4b2134	-0.7934754
135	0x3d173312	0.03691394
136	0xbe625a6c	-0.22104806
137	0x3e91564a	0.28386146
138	0xbd49cd94	-0.04926832
139	0x3d4e43f6	0.05035778
140	0xbe007745	-0.12545498
141	0xbe5b3779	-0.2140788
142	0x3df05fdc	0.11737034
143	0x3bc1e4da	0.005917174
144	0x3d86143f	0.065468304
145	0xbd6a2772	-0.057166524
146	0x3ec97be3	0.3935233
147	0x3d9e6756	0.077345535
148	0x3ecf227b	0.40455994
149	0xbdc216f4	-0.09477034
150	0x3e26f5a9	0.1630465
151	0xbd9e980f	-0.077438466
152	0x3bc7ced1	0.0060976525
153	0xbd1a9467	-0.037739184
154	0x3c8f5fbd	0.017501706
155	0xbd35ec5e	-0.04441487
156	0xbcc9612a	-0.024582464
157	0x3cb96c22	0.02263457
158	0xbd7648a6	-0.060127877
159	0xbd272f19	-0.0408164
160	0x3ef0957b	0.46989045
161	0x3ef149a9	0.4712651
162	0x3facec68	1.3509645
163	0xbe6b7d1b	-0.22996943
164	0x3e749dcf	0.23888324
165	0x3e23adb5	0.15984233
166	0xbd91854e	-0.07105504
167	0x3e02eb02	0.12784961
168	0x3ce583ec	0.028017007
169	0x3d9a9934	0.075487524
170	0x3e8c1e0d	0.27366677
171	0x3de757de	0.11296056
172	0x3ea8c6c0	0.32964134
173	0x3eaaad45	0.3333532
174	0x3cd94e37	0.026526554
175	0xbcacac50	-0.021078259
176	0x3e08f698	0.13375318
177	0xbdf5082a	-0.11964448
178	0x3da84a76	0.08217327
179	0x3eac4d3e	0.3365268
180	0xbd9438b9	-0.072373815
181	0xbe6fc291	-0.23414065
182	0xbe99f292	-0.3006788
183	0x3e9f606a	0.31128246
184	0xbdce24c7	-0.100656085
185	0xbe1bd9bc	-0.15219778
186	0x3e693049	0.22772326
187	0x3e2138af	0.1574428
188	0xbc0b3e23	-0.008498701
189	0x3e1f0046	0.15527448
190	0x3f06136a	0.52373374
191	0x3ef9281e	0.4866342
192	0x3dbd97af	0.09257447
193	0xbe424d5d	-0.18974824
194	0x3d9c9d2b	0.07647165
195	0xbecb7e28	-0.39744687
196	0x3e261d12	0.16222027
197	0xbe04b8c1	-0.12961103
198	0x3e891d84	0.2678033
199	0xbcd91b91	-0.026502402
200	0x3de23aba	0.110463575
201	0xbee80e01	-0.45323184
202	0xbd2938da	-0.041313984
203	0x3e17c32e	0.14820549
204	0x3e2fd165	0.17169721
205	0x3df0fccb	0.117669664
206	0x3d414ab2	0.047190376
207	0x3e8373e3	0.25674352
208	0xbd26f7ff	-0.04076385
209	0x3de082e2	0.10962464
210	0x3e9f5a47	0.31123564
211	0x3cc92184	0.024552114
212	0xbd8029af	-0.062579505
213	0x3f0c411c	0.5478685
214	0x3aeca3b1	0.0018054155
215	0x3eed79bf	0.46381947
216	0xbf1b28f9	-0.60609394
217	0xbe358641	-0.17726995
218	0x3e10edf6	0.14153275
219	0x3dcc5bb4	0.099784285
220	0x3cd52f03	0.026023393
221	0x3ce62c3b	0.028097263
222	0xbd096663	-0.03354491
223	0xbe225ddd	-0.15856119
224	0xbd239bcc	-0.0399435
225	0x3e18d57d	0.1492519
226	0xbe499d3f	-0.19688891
227	0x3dddbb60	0.108267546
228	0xbaed7249	-0.0018115725
229	0x3cfe0fcf	0.031013397
230	0xbda12ac8	-0.07869488
231	0xbe44631b	-0.1917843
232	0x3c60b53e	0.0137150865
233	0xbebd065f	-0.36918923
234	0x3d1d52da	0.03840909
235	0x3eb2f313	0.34951076
236	0x3ef1abad	0.4720129
237	0xbd2cd4ee	-0.042195253
238	0xbc41ec91	-0.011836187
239	0x3f042814	0.51623654
240	0x3ea0cb0e	0.31404918
241	0x3d2ec427	0.042667534
242	0x3d8116e0	0.06303191
243	0x3e06ac2a	0.13151613
244	0x3d9dc345	0.0770326
245	0x3dd89640	0.10575533
246	0x3d8bcc38	0.06826061
247	0x3dc31651	0.09525741
248	0xbc8d6665	-0.01726074
249	0x3dd1d7bc	0.10246226
250	0xbda7650f	-0.08173572
251	0x3d43463b	0.0476744
252	0x3da76216	0.08173005
253	0xbd3608c7	-0.044441964
254	0x3d97ca71	0.074116595
255	0xbf1d2d14	-0.6139691

net.4.bias f4 [64]
0	0xbdace4b3	-0.084420584
1	0x3e831e56	0.25609082
2	0xbb764970	-0.0037580393
3	0x3e92158d	0.28532067
4	0xbe8e8e2b	-0.2784284
5	0x3d8c71eb	0.06857666
6	0xbea12633	-0.31474456
7	0x3e8904f5	0.26761594
8	0x3e773523	0.24141364
9	0x3e1bfc78	0.15233028
10	0xbe8be4dd	-0.27323046
11	0xbe34ed84	-0.1766873
12	0x3f025a2f	0.5091886
13	0xbcf9d556	-0.030497234
14	0xbd95d8ed	-0.07316766
15	0xbe1b9d2e	-0.15196678
16	0x3e931465	0.28726497
17	0x3e175ba8	0.14781058
18	0xbc65e159	-0.014030778
19	0x3ea077cd	0.313414
20	0xbc2d0edd	-0.010562626
21	0xbe1403fa	-0.14454642
22	0xbc96363f	-0.018336413
23	0xbe21426c	-0.15747994
24	0xbe1ff2e2	-0.15619996
25	0xbdf37cdd	-0.1188905
26	0x3c7e501e	0.015522031
27	0x3d95972d	0.07304225
28	0x3d713ed7	0.05889782
29	0x3eaafa13	0.33393916
30	0x3ed861a4	0.42261994
31	0xbdb1869e	-0.08668254
32	0x3eeb5bda	0.45968515
33	0x3b244d91	0.0025070647
34	0x3e33ed51	0.17570998
35	0xbde67213	-0.11252227
36	0xbc6ea4eb	-0.014565687
37	0xbc9854c1	-0.018595101
38	0xbd0e6fb9	-0.034774516
39	0x3c639705	0.013890986
40	0x3cc87d5f	0.024473844
41	0xbe37940d	-0.1792757
42	0xbddff10f	-0.1093465
43	0xbe0085c0	-0.12551022
44	0x3d30f242	0.043199785
45	0x3d23bdfb	0.0399761
46	0xbe739c0f	-0.2379
47	0xbcb5f206	-0.022210132
48	0xbee27ff9	-0.4423826
49	0x3dfcbc4f	0.123406045
50	0xbd84a1a6	-0.064761445
51	0x3e9d3ce9	0.30710533
52	0xbeaba06a	-0.33520824
53	0xbdf18039	-0.11792035
54	0xbd0c853a	-0.034306742
55	0x3dbc190d	0.091844656
56	0x3e19eef5	0.15032561
57	0x3e6f7a1f	0.23386429
58	0xbe3390a8	-0.1753565
59	0xbdd3342f	-0.103126876
60	0xbd68d87e	-0.056847088
61	0x3c5251ca	0.012836883
62	0xbda98066	-0.08276443
63	0x3e455482	0.19270518

net.6.weight f4 [32, 64]
0	0xbdba0806	-0.090835616
1	0xbe1de52c	-0.15419453
2	0x3d61f947	0.05516937
3	0xbe343f10	-0.17602181
4	0x3cbd89da	0.023137022
5	0x3cc01f23	0.023452347
6	0xbd4aef8d	-0.04954486
7	0xbc907023	-0.017631596
8	0xbe1f8301	-0.15577318
9	0x3c6254db	0.013814176
10	0x3d8c2575	0.06843082
11	0xbd1f595e	-0.038903587
12	0x3d97a6f1	0.074048884
13	0xbc329978	-0.010900848
14	0x3dadba8e	0.08482848
15	0x3ca890aa	0.020576794
16	0x3d0c72a4	0.034289017
17	0xbd98d9da	-0.07463427
18	0xbe1fbcb1	-0.15599324
19	0x3da10609	0.07862479
20	0xbdcc490e	-0.099748716
21	0xbd75deab	-0.060026806
22	0xbdfe8608	-0.12427908
23	0xbd2b67b6	-0.041846953
24	0xbdca00e2	-0.0986345
25	0xbe298f37	-0.16558538
26	0xbd417e51	-0.047239605
27	0x3ba73e10	0.005103834
28	0xbd7a7411	-0.061145846
29	0x3d778fba	0.060439803
30	0xbe1f509b	-0.15558092
31	0xbdd9f559	-0.106424995
32	0xbcd15e7e	-0.025557753
33	0xbe10d0ae	-0.14142105
34	0x3d64dde8	0.05587569
35	0xbe2bc513	-0.16774397
36	0x3cef74d7	0.029230518
37	0x3dc938c3	0.098252796
38	0x3c007040	0.0078392625
39	0x3c080892	0.008302825
40	0xbdc5fff3	-0.09667959
41	0xbe20b62a	-0.1569449
42	0x3d8c49d0	0.06850016
43	0x3df9c68e	0.121960744
44	0xbdfb939b	-0.12284013
45	0x3d096012	0.033538885
46	0xbc95b59a	-0.018275071
47	0xbd890033	-0.06689491
48	0x3dc55558	0.09635419
49	0xbd5f5d04	-0.054532066
50	0xbc242cb7	-0.0100204265
51	0x3c67510f	0.014118447
52	0xbd7cb8ac	-0.061699554
53	0xbdfe0b8a	-0.12404545
54	0x3c70ac1d	0.0146894725
55	0xbdd8be1d	-0.10583136
56	0x3d9705df	0.07374167
57	0xbddc1ccf	-0.10747682
58	0xbd352c8d	-0.04423194
59	0x3dbffc77	0.09374326
60	0xbc862b04	-0.016377933
61	0xbd56f3d0	-0.05247861
62	0x3d687d80	0.05676031
63	0xbc401fc0	-0.01172632
64	0x3dc7cfeb	0.09756454
65	0xbd9feea1	-0.07809187
66	0xbd9f362c	-0.07774004
67	0xbeac3307	-0.3363268
68	0xbc15a148	-0.009132691
69	0x3e637bfa	0.22215262
70	0xbe2dc173	-0.16968326
71	0x3edea746	0.43486995
72	0x3cbbbf00	0.022918224
73	0x3c9c8485	0.019106159
74	0x3caa25bf	0.020769952
75	0x3e897ea5	0.26854435
76	0xbcf2b301	-0.029626371
77	0x3e4003f8	0.18751514
78	0x3dd07e19	0.10180301
79	0x3df53930	0.11973798
80	0xbe50a44e	-0.20375177
81	0xbe079516	-0.13240466
82	0x3c95a2dd	0.018266136
83	0x3e966265	0.29371944
84	0xbc671af4	-0.014105547
85	0x3ceb6f26	0.028739523
86	0xbe09f4a7	-0.13472234
87	0x3c94fa68	0.01818581
88	0xbda1fa3f	-0.07909059
89	0x3e1c85f3	0.15285473
90	0x3e1c9495	0.15291055
91	0x3eb3437f	0.35012433
92	0x3e3dec8f	0.18547271
93	0xbcbd4c27	-0.023107601
94	0xbda03ed8	-0.078244865
95	0x3e5e2e16	0.21697268
96	0xbd368f4e	-0.04457026
97	0x3df72d16	0.12069146
98	0x3dd025bf	0.101634495
99	0x3d626fac	0.05528228
100	0x3e257f4b	0.1616184
101	0xbd307035	-0.04307576
102	0xbc394c8d	-0.011309755
103	0xbdf3d5f3	-0.11906042
104	0x3def67f8	0.11689752
105	0xbda730f6	-0.081636354
106	0xbc1eb2e2	-0.009686204
107	0x3d90fb4b	0.0707918
108	0x3de8911e	0.11355804
109	0x3d0f30a2	0.03495849
110	0x3e9eee09	0.3104098
111	0x3d153bcd	0.036433984
112	0x3f357179	0.7087627
113	0x3e8ea45a	0.27859765
114	0x3e1de2fd	0.1541862
115	0xbe628301	-0.22120287
116	0x3db29a6c	0.0872086
117	0x3d86a870	0.06575096
118	0x3f04361a	0.5164505
119	0x3d95e5c6	0.073192164
120	0x3e27f1e6	0.1640087
121	0xbe1328ae	-0.14370987
122	0x3e2f7e77	0.17138086
123	0xbf154643	-0.58310336
124	0xbdf94a07	-0.12172323
125	0x3e5a6ebe	0.21331307
126	0x3d420e1d	0.04737674
127	0x3df91c52	0.12163605
128	0x3f207686	0.6268085
129	0x3dc4adad	0.096034385
130	0xbeed4189	-0.46339062
131	0xbe9e5fb3	-0.30932388
132	0x3ed0a872	0.40753514
133	0x3e7f6b52	0.24943283
134	0x3c77d776	0.0151270535
135	0xbdaa8fbf	-0.08328199
136	0xbdde1d5b	-0.10845443
137	0xbe8d1c22	-0.27560526
138	0x3e850d80	0.25986862
139	0xbe5a77cd	-0.21334763
140	0xbd98d930	-0.074633
141	0x3eb4e3b4	0.35329974
142	0x3da9d684	0.08292869
143	0xbe9436f3	-0.28948173
144	0x3dfe65c9	0.12421758
145	0x3f10b40c	0.5652473
146	0x3e504bfd	0.20341487
147	0xbb3674fa	-0.002784072
148	0x3e716a9c	0.23575824
149	0x3e0daa23	0.13834433
150	0x3dbe4fa2	0.092925325
151	0x3e89b987	0.2689936
152	0x3df5844a	0.11988123
153	0x3e6073e3	0.21919207
154	0x3e7bcc2e	0.24589607
155	0x3dbc1fd5	0.09185759
156	0x3d478197	0.04870757
157	0x3c378a5a	0.011202419
158	0xbdf1e1d4	-0.118106514
159	0x3e55bc36	0.20872578
160	0x3d0949d1	0.033517662
161	0x3ec4f486	0.38467807
162	0x3dee399a	0.116320804
163	0xbdb05c30	-0.08611333
164	0x3efd287c	0.4944495
165	0x3e439fb6	0.19103894
166	0x3d0d1d81	0.034451965
167	0x3eea3d02	0.4574967
168	0xbf28645e	-0.6577815
169	0xbdf1614a	-0.117861345
170	0x3da84f19	0.08218212
171	0x3e0aa3d5	0.1353906
172	0xbe4776bb	-0.19478886
173	0xbd22fa5f	-0.039789554
174	0x3e083b53	0.1330388
175	0x3e593140	0.21210194
176	0x3ef0f7d8	0.4706409
177	0x3ef9a2ec	0.48757112
178	0xbc4278b6	-0.0118696
179	0xbd394d85	-0.045239944
180	0x3b36d54e	0.0027898136
181	0xbe00d2a2	-0.1258035
182	0x3fa39af4	1.2781663
183	0x3e6c7ee4	0.2309528
184	0x3e1f2449	0.15541185
185	0xbe059533	-0.13045196
186	0x3cc1e4cb	0.023668667
187	0x3d19824e	0.037477784
188	0xbf06d9c4	-0.52676034
189	0xbf021716	-0.50816476
190	0x3cd75b9a	0.026288796
191	0x3ded08da	0.11573954
192	0x3e0adaa4	0.13559967
193	0x3d8c825f	0.06860804
194	0xbd0c90ba	-0.03431771
195	0x3e38279e	0.17983863
196	0x3d273954	0.040826157
197	0xbe89c9bb	-0.2691172
198	0x3e32e59a	0.17470399
199	0xbf62a578	-0.88533735
200	0x3ef78b79	0.48348597
201	0x3ea4eee6	0.32213515
202	0x3e361243	0.17780404
203	0xbcdb2152	-0.026749287
204	0xbf6f489b	-0.9347016
205	0x3bd97adc	0.0066369604
206	0xbe04cafa	-0.12968054
207	0xbf04af48	-0.5182996
208	0xbd2a849e	-0.04163038
209	0x3e9472ae	0.28993744
210	0xbe0e2e2f	-0.13884805
211	0xbea38bc1	-0.3194256
212	0x3e4c7d6c	0.1996972
213	0x3d3cd829	0.046104584
214	0x3dbad582	0.09122755
215	0xbe929caf	-0.28635165
216	0x3f4a5f38	0.7905154
217	0xbe94dc0a	-0.29074126
218	0xbe8f6eb3	-0.28014144
219	0x3e16a755	0.1471227
220	0x3e2045ff	0.15651701
221	0x3e85eaa2	0.26155573
222	0xbd62715b	-0.055283885
223	0xbe81f65e	-0.25383276
224	0x3a2b214f	0.00065280957
225	0x3d8b4b49	0.06801469
226	0xbe10eedb	-0.14153616
227	0xbe104853	-0.1409009
228	0xbe78b31f	-0.2428708
229	0x3bf76003	0.0075492873
230	0xbd9a8dda	-0.07546587
231	0x3eaa10dc	0.33215988
232	0xbe83f742	-0.2577458
233	0xbc51b3ef	-0.012799247
234	0xbe23263c	-0.15932554
235	0x3d724e04	0.059156433
236	0x3df43fbf	0.11926221
237	0x3d2e877b	0.042609673
238	0x3e602e84	0.21892744
239	0xbbb42161	-0.005497143
240	0xbdc70e78	-0.097195566
241	0xbea3750d	-0.3192524
242	0x3d53e65a	0.051733352
243	0x3ed5efe7	0.41784593
244	0x3c16d790	0.009206668
245	0x3de3ad05	0.11116985
246	0x3daf6e5e	0.08565973
247	0xbd51b075	-0.051193673
248	0xbe38db86	-0.18052492
249	0x3e0a7842	0.13522437
250	0xbd6640c4	-0.05621411
251	0x3ec64180	0.38721848
252	0x3dfeac7c	0.124352425
253	0xbd969b23	-0.07353809
254	0x3e0bc441	0.13649084
255	0x3e5a2dc6	0.21306524

net.6.bias f4 [32]
0	0xbe17fff6	-0.14843735
1	0xbe0b2106	-0.13586816
2	0x3e1b4c9f	0.15165947
3	0x3e18ebf4	0.14933759
4	0x3e862043	0.2619649
5	0x3f00c991	0.50307566
6	0xbd86c72e	-0.06580959
7	0x3d775a97	0.060389128
8	0x3ee012c4	0.43764317
9	0xbdbda604	-0.092601806
10	0x3e72d9da	0.23715916
11	0x3d87360e	0.06602107
12	0x3ec308e2	0.38092715
13	0x3e825e1b	0.25462422
14	0x3e945b6e	0.28976005
15	0xbece707c	-0.40320194
16	0xbd9d7e3a	-0.076900914
17	0x3eb876d6	0.36028165
18	0xbe058e20	-0.13042498
19	0xbebe32cb	-0.37148127
20	0x3e1b5f6a	0.15173116
21	0x3e65c00f	0.22436546
22	0x3d4e98be	0.050438635
23	0xbdd8ae3a	-0.10580106
24	0x3d9c4dfa	0.0763206
25	0xbe293a00	-0.16526031
26	0xbd1a647a	-0.03769348
27	0x3c93225e	0.017960723
28	0x3de1a2fd	0.11017416
29	0xbe191d87	-0.1495267
30	0x3e2564a0	0.16151667
31	0x3e2b5d84	0.16734892

net.8.weight f4 [18, 32]
0	0x3e2772c7	0.16352378
1	0xbf01c973	-0.5069801
2	0xbec860db	-0.39136395
3	0xbe934f4a	-0.2877143
4	0xbe98d42e	-0.2984938
5	0xbf39e16e	-0.72609603
6	0xbea49263	-0.32142934
7	0xbd18da0c	-0.03731732
8	0xbe35c8ed	-0.17752428
9	0xbdb0f777	-0.0864095
10	0xbe07d995	-0.13266595
11	0xbe408fdb	-0.18804877
12	0xbea0d4b1	-0.3141227
13	0xbe94f3bf	-0.29092214
14	0xc014787d	-2.319854
15	0xbeca910a	-0.3956378
16	0xbedc0a5c	-0.42976654
17	0xbe0b2459	-0.13588084
18	0xbebdd0ef	-0.37073466
19	0xbd9c3df1	-0.07629002
20	0xbf15e025	-0.5854514
21	0xbedd75ad	-0.43253842
22	0xbe7a705d	-0.24456926
23	0xbe03d7a4	-0.12875229
24	0xbe864c69	-0.2623017
25	0xbf16a8eb	-0.588515
26	0x3cd7a92a	0.02632578
27	0xbf4dc22f	-0.80374426
28	0xbf36d891	-0.71424204
29	0xbe0c9af9	-0.13730992
30	0xbe9f04b4	-0.31058276
31	0xbfed88e4	-1.8557401
32	0x3e0529fb	0.13004296
33	0xbed46968	-0.4148667
34	0xbec82761	-0.39092544
35	0xbec0cd30	-0.37656546
36	0xbe93288d	-0.28741875
37	0xbf0f5834	-0.5599396
38	0xbe62e70d	-0.22158451
39	0x3de901b9	0.11377282
40	0xbdc6c735	-0.097059645
41	0xbd5e18d8	-0.05422291
42	0xbe0a1c32	-0.13487318
43	0xbeeae4c3	-0.45877656
44	0xbf00c375	-0.50298244
45	0xbe23e34d	-0.16004677
46	0xc000ca6d	-2.012355
47	0xbf0da40c	-0.5532844
48	0xbfc7bf1a	-1.5605195
49	0xbeb065d5	-0.34452692
50	0xbdffcd20	-0.12490296
51	0xbc05fe42	-0.008178296
52	0xbe7e5524	-0.24837166
53	0xbf1ea1c5	-0.6196559
54	0xbed3d935	-0.41376653
55	0xbd0026f0	-0.031287134
56	0xbe1fef43	-0.15618615
57	0xbec17587	-0.3778498
58	0x3de68fc3	0.11257889
59	0xbf78122b	-0.9690272
60	0xbf0ecd94	-0.5578244
61	0xbdfbb24c	-0.12289867
62	0xbe49b190	-0.19696641
63	0xc01f73b6	-2.4914374
64	0xbe1f8d11	-0.15581156
65	0xbe8b9344	-0.27260792
66	0x398fd638	0.0002743469
67	0x3e66ec77	0.22551142
68	0xc0723c41	-3.7849276
69	0xbe78cbf5	-0.24296553
70	0xbefaaef4	-0.48961604
71	0xbe0a0609	-0.13478865
72	0xbe99ac80	-0.3001442
73	0x3ccf6b73	0.02531979
74	0x3d7582a1	0.05993903
75	0xc02e2750	-2.7211494
76	0xbf76e10d	-0.9643715
77	0x3dbf5e26	0.09344129
78	0x3e589511	0.21150614
79	0x3e33df4c	0.1756565
80	0x3e1c2a12	0.15250424
81	0x3b5584e7	0.0032580437
82	0x3c7e4b30	0.015520856
83	0x3e951934	0.2912079
84	0xbd2f0f60	-0.042739272
85	0xc0c3109b	-6.095777
86	0x3d55f7ef	0.0522384
87	0x3d8d8ebc	0.0691199
88	0xbef834d7	-0.48477814
89	0xbea9399f	-0.33051774
90	0xbe4cf7be	-0.20016381
91	0xbefd2bcf	-0.49447486
92	0x3ded93f3	0.11600485
93	0x3daa9d90	0.08330834
94	0xbde2f813	-0.11082473
95	0x3cf9bd24	0.030485697
96	0xbde38f88	-0.11111361
97	0xbe8cfee2	-0.2753821
98	0xbeaba02b	-0.33520636
99	0xbeaafe76	-0.33397263
100	0xbe8e3482	-0.27774435
101	0xbf1723b6	-0.59038866
102	0xbe212616	-0.15737185
103	0x3dfb6c84	0.12276557
104	0xbeaefd45	-0.34177604
105	0xbe042e7c	-0.12908357
106	0xbe1c420d	-0.15259571
107	0xbed7ae9c	-0.42125404
108	0xbef28d58	-0.47373462
109	0xbdf856f2	-0.121259585
110	0xbff82cf8	-1.9388723
111	0xbef394fe	-0.4757461
112	0xbfbbdce1	-1.4676782
113	0xbe8af0be	-0.27136797
114	0xbee0c1b8	-0.43897796
115	0x3d5fcac1	0.05463672
116	0xbe25548c	-0.16145533
117	0xbee9f2c7	-0.45693037
118	0xbec35b09	-0.38155392
119	0x3d5298a5	0.051415104
120	0xbe9b2a1b	-0.3030556
121	0xbf0a6d1a	-0.54072726
122	0xbd3ce727	-0.04611888
123	0xbf63b4a9	-0.8894754
124	0xbf53a96e	-0.82680404
125	0xbe407722	-0.18795446
126	0xbe018c5c	-0.12651199
127	0xc022862e	-2.5394397
128	0x3cc5407a	0.024078596
129	0x3d9e4f35	0.07729951
130	0xbe96a7b8	-0.29424834
131	0x3e2cf803	0.16891484
132	0x3e5aa879	0.2135333
133	0x3e252d7a	0.16130629
134	0xbebea905	-0.37238327
135	0xbe19064c	-0.14943808
136	0xbea50815	-0.3223273
137	0xbe518ebd	-0.20464607
138	0x3d90073c	0.0703263
139	0xbfbd41a0	-1.4785652
140	0x3d3d2b67	0.04618397
141	0x3e9870e8	0.2977364
142	0xbf675e62	-0.9037839
143	0x3e5f8a2d	0.21830054
144	0xbde39d24	-0.111139566
145	0x3d59330f	0.05302721
146	0x3d4da9c7	0.05021074
147	0x3f6fcf03	0.9367525
148	0x3dea21a5	0.114321984
149	0xbf6e2fe2	-0.93041813
150	0x3e2cee50	0.16887784
151	0x3c0062e1	0.007836075
152	0xbe929fd7	-0.28637573
153	0xbed3daa8	-0.4137776
154	0xbec204e2	-0.3789435
155	0x3e0e686a	0.13907018
156	0x3e5e233c	0.21693128
157	0xbf637743	-0.88853854
158	0xbfbe91d7	-1.4888257
159	0xbf98fc5e	-1.1952016
160	0x3de27333	0.11057129
161	0x3e7a4c92	0.24443272
162	0x3d62c74a	0.055365838
163	0xbf595b66	-0.8490509
164	0xbedd7e1f	-0.43260285
165	0xbf4af79d	-0.7928408
166	0xbdcb0327	-0.09912711
167	0xbde54263	-0.11194303
168	0xbf0a0d52	-0.53926575
169	0xbdebd378	-0.11514944
170	0xbf421953	-0.7581989
171	0xbea798e0	-0.32733822
172	0xbe5a5f51	-0.21325423
173	0xbf2ef4dc	-0.68342376
174	0xbee66ce6	-0.45004958
175	0x3dda95cf	0.10673105
176	0x3d732aa5	0.05936684
177	0xc00d4bd1	-2.2077525
178	0xbd8c686b	-0.06855854
179	0x3e51bf62	0.20483163
180	0xbf2832a7	-0.6570229
181	0xbe689917	-0.22714649
182	0x3e9fbcf3	0.31198844
183	0xbdacef83	-0.08444121
184	0x3ebd2e58	0.3694942
185	0x3dab8e48	0.08376747
186	0xbe9a9669	-0.3019288
187	0x3db1efe8	0.086883366
188	0x3e33873f	0.17532061
189	0x3d1b130a	0.037859954
190	0x3df4780e	0.11936961
191	0xbf1e2631	-0.61777025
192	0xbe1efbcf	-0.15525745
193	0xbed2cc1d	-0.4117135
194	0xbe79bb37	-0.24387823
195	0xbeb01fb6	-0.34399194
196	0xbe6af4d7	-0.22944961
197	0xbf23f12f	-0.6403989
198	0xbee8ae4b	-0.45445475
199	0xbe1cf1bf	-0.15326594
200	0xbe46b2e9	-0.19404186
201	0x3d49e823	0.04929365
202	0xbe861ceb	-0.26193938
203	0xbe5ed938	-0.2176255
204	0xbeb12bae	-0.34603637
205	0xbe4015b4	-0.18758279
206	0xc017e540	-2.3733673
207	0xbf2951b1	-0.66140276
208	0xbf5a2355	-0.8521016
209	0xbeba0cbe	-0.36337847
210	0xbdd53af6	-0.104116365
211	0xbd8c8da6	-0.06862955
212	0xbebacda9	-0.3648503
213	0xbf0ede6b	-0.5580813
214	0xbeb759eb	-0.3581079
215	0xbe372b6a	-0.17887655
216	0xbe5bfdf4	-0.21483594
217	0xbf2803ba	-0.65630686
218	0x3ca960cc	0.02067604
219	0xbf46ed56	-0.77705896
220	0xbf3cc6da	-0.73740923
221	0xbd635a3d	-0.05550598
222	0xbeb1b0ce	-0.34705204
223	0xc0096ffb	-2.1474597
224	0xbd52e52d	-0.05148809
225	0xbc21f122	-0.009884151
226	0xbf56f0d2	-0.8396121
227	0x3d093504	0.033497825
228	0xbec55b07	-0.3854601
229	0x3e852ac5	0.26009193
230	0xbe9c0c9c	-0.3047837
231	0xbe3e418f	-0.18579696
232	0x3e01399b	0.12619631
233	0x3db65adf	0.08904051
234	0x3e902d0c	0.28159368
235	0xbeb8f4a7	-0.36124155
236	0x3e6c3af6	0.23069367
237	0x3e0983c1	0.13429166
238	0x3e93cece	0.28868717
239	0x3cd57e60	0.026061237
240	0xbf24979e	-0.6429385
241	0x3e7d9ac6	0.24766073
242	0xbe79e358	-0.24403131
243	0xbea2e1ef	-0.31813
244	0xbc7e115f	-0.015507071
245	0xbd01685a	-0.031593658
246	0xbe2aba3c	-0.16672605
247	0xbdafffb7	-0.085936956
248	0xbe5128dc	-0.20425743
249	0xbf0f5976	-0.5599588
250	0xbf1a42a9	-0.60257965
251	0xbe8e7ac6	-0.27828044
252	0x3e40034e	0.1875126
253	0xbf2bbda6	-0.67086256
254	0xbe27330b	-0.16328065
255	0x3de04dca	0.10952337

net.8.bias f4 [18]
0	0xbeade180	-0.33961105
1	0xbe7972ba	-0.24360171
2	0xbe9fc938	-0.31208205
3	0xbe90f1cc	-0.28309476
4	0xbe7276b5	-0.23678096
5	0xbeb27ee8	-0.34862447
6	0x3ba59955	0.005053679
7	0x3dcdc34e	0.10047017
8	0xbe6edff2	-0.23327616
9	0x3e2e3d85	0.17015655
10	0xbe69ec4e	-0.2284405
11	0xbeaa3adb	-0.33248028
12	0xbe070483	-0.13185315
13	0xbe41c28f	-0.18921874
14	0xbfbb87b1	-1.4650785
15	0xbe1d24de	-0.15346095
16	0xbe8e3e72	-0.27782017
17	0x3ddaf941	0.10692073
